src/pytorch_extension/tbcnn_2019-02-04T16:40:25.781296.pt (torch_old, 26390 bytes, 10 tensors)

0 f4 [3, 74]
0.0407039 1.4651814 1.7280145 0.70093113 0.73792475 -0.7918447 -0.49401537 1.1605248
-0.07374594 -0.6998682 0.09516938 -0.27126318 -0.6437185 0.6020929 -1.1523604 -2.3982146
0.87744224 -1.5028102 0.38005802 -1.0877373 -0.737853 0.03526114 1.6993767 -0.5061022
1.030151 0.34181225 0.7402402 0.23497242 -0.52392274 0.5718462 1.5838734 0.51035726
0.15368176 -1.1617942 -0.87299967 -1.2848586 0.67381275 0.23553623 0.52711385 -0.8103644
-0.82579714 -1.8505173 -0.91723835 0.16060388 -0.15373819 -0.16046545 -0.9208058 -0.41571763
-1.237005 1.0053104 0.29003707 -1.9955893 0.61503553 0.97198087 -0.43060145 -1.1016617
-1.1276433 -0.86789256 0.7256887 1.30308 0.35901183 -0.23161289 -1.9441673 0.7402867
-0.10020259 -1.6727464 0.5306755 0.41222164 -0.06278477 -1.0800867 -0.12023945 -0.042789992
0.12573215 0.0060275523 0.45391873 -1.2678046 -1.9069529 -0.22963345 -0.063788556 -0.2758084
-0.55131954 2.3538501 -0.37858152 -0.68900806 -0.62374204 0.034505527 0.7373471 -0.90793246
-1.3200401 1.1248655 -3.008988 -0.49904102 1.5896866 0.3731403 0.9457816 -0.8042806
-0.69565517 -0.9332507 -0.73762864 1.7247424 -0.2657715 1.7578346 -0.16806786 -1.1379278
-0.40231362 -0.98462576 0.9785466 1.6729228 -0.6003338 0.14790769 1.0384855 0.40663832
0.7903286 0.1534604 0.3951218 0.5629576 -1.1359632 -0.958237 -1.1567949 0.64029676
0.16431612 -0.87282145 0.30217803 -0.5392898 -1.0655141 -0.074135646 1.1248655 0.28047338
-0.29430652 -0.049425617 1.6811739 -1.5304081 -2.2507496 -0.3221174 -1.0101647 -0.31898308
-0.31390464 0.8981549 0.2279153 -0.7304227 0.19286217 -0.7688568 0.8758361 0.012526915
-0.6463849 1.1143047 0.9862969 -0.72187024 2.600666 0.80660766 -1.4392903 -0.8199534
-0.7896057 0.12552446 2.1385767 -0.07196709 -0.82485676 -0.62441397 -0.13346976 0.31248638
-1.354201 -0.551926 0.2814233 0.6875541 -1.0574781 -1.6235995 -1.3963426 -1.0393558
0.10223611 -0.11731844 -1.021895 -0.8494885 -0.5993548 -1.1243471 0.9654849 -1.0650762
0.18472685 -1.3691814 -0.5338163 0.51535463 -1.5605935 -0.62896 1.3662312 -0.65681934
0.2322835 -0.056924872 1.063818 0.37488118 0.7901049 2.049435 -0.008717197 1.7163695
-0.54034716 0.3324567 1.9595032 -0.5280563 0.2153238 1.0069717 -0.7639039 -1.0137823
0.06347412 -0.578785 0.17248447 -0.5109965 -2.474002 0.7946833 0.5895742 0.22447337
-0.15123491 -1.2598488 -0.11265727 1.5713207 -1.002613 -0.76773024 -0.34647107 -1.0348065
-2.232712 -0.1158687 -0.1339108 0.013170281 0.45948207 -0.7402489
00000000: 22b9 263d 108b bb3f 942f dd3f 3970 333f
00000010: a3e8 3c3f 56b6 4abf 95ef fcbe 148c 943f
00000020: 1d08 97bd 902a 33bf 2ae8 c23d 02e3 8abe
00000030: bcca 24bf c322 1a3f 8c80 93bf 597c 19c0
00000040: 0ea0 603f 165c c0bf f796 c23e fa3a 8bbf
00000050: efe3 3cbf fc6d 103d 2d85 d93f ea8f 01bf
00000060: fddb 833f 0402 af3e 6280 3d3f 9c9c 703e
00000070: cd1f 06bf 8364 123f 5dbc ca3f c6a6 023f
00000080: c05e 1d3e acb5 94bf e87c 5fbf 3f76 a4bf
00000090: fe7e 2c3f 6930 713e eff0 063f 0b74 4fbf
000000a0: 7167 53bf c0dd ecbf 22d0 6abf 5875 243e
000000b0: 8b6d 1dbe 0e51 24be eeb9 6bbf f1d8 d4be
000000c0: 2e56 9ebf 03ae 803f bd7f 943e 786f ffbf
000000d0: f872 1d3f bdd3 783f cb77 dcbe 4003 8dbf
000000e0: 9e56 90bf 352e 5ebf bcc6 393f 53cb a63f
000000f0: 66d0 b73e ee2b 6dbe 79da f8bf 6e83 3d3f
00000100: 0437 cdbd 8e1c d6bf 59da 073f b70e d33e
00000110: 4d95 80bd 4840 8abf 1a40 f6bd 8f44 2fbd
00000120: eebf 003e c682 c53b 0968 e83e 6c47 a2bf
00000130: 0817 f4bf 0825 6bbe 93a3 82bd c236 8dbe
00000140: 4723 0dbf 7ba5 1640 70d5 c1be d562 30bf
00000150: 8fad 1fbf ab55 0d3d c8c2 3c3f 436e 68bf
00000160: 13f7 a8bf 98fb 8f3f 4293 40c0 4e82 ffbe
00000170: da7a cb3f 3f0c bf3e be1e 723f 55e5 4dbf
00000180: 7516 32bf 85e9 6ebf 3bd5 3cbf 5cc4 dc3f
00000190: 3413 88be b900 e13f fb19 2cbe 9ea7 91bf
000001a0: 0dfc cdbe 6f10 7cbf 0882 7a3f 5622 d63f
000001b0: 7aaf 19bf 1d75 173e 18ed 843f e632 d03e
000001c0: fa52 4a3f b924 1d3e 684d ca3e fd1d 103f
000001d0: 3e67 91bf 054f 75bf db11 94bf 7dea 233f
000001e0: 7c42 283e 3a71 5fbf 14b7 9a3e e50e 0abf
000001f0: c462 88bf 6ed4 97bd 98fb 8f3f 359a 8f3e
00000200: 58af 96be 8472 4abd b530 d73f 6ae4 c3bf
00000210: 480c 10c0 92ec a4be 144d 81bf c051 a3be
00000220: 1cb8 a0be 7bed 653f a162 693e fbfc 3abf
00000230: a97d 453e cdd3 44bf cb36 603f b13d 4d3c
00000240: 7b79 25bf 89a1 8e3f f47d 7c3f 7dcc 38bf
00000250: 5071 2640 d77d 4e3f aa3a b8bf 77e8 51bf
00000260: 9923 4abf 7c89 003e 71de 0840 7b63 93bd
00000270: d029 53bf 98d9 1fbf 4cac 08be 37fe 9f3e
00000280: 7556 adbf 064b 0dbf b716 903e 8c03 303f
00000290: 715b 87bf 1cd2 cfbf 5bbb b2bf 9c09 85bf
000002a0: 2a61 d13d a644 f0bd 75cd 82bf 1478 59bf
000002b0: 516f 19bf 9bea 8fbf 052a 773f 6b54 88bf
000002c0: 0929 3d3e 5641 afbf 2fa8 08bf 48ee 033f
000002d0: 87c1 c7bf 8603 21bf aae0 ae3f 5025 28bf
000002e0: badb 6d3e 0e2a 69bd 302b 883f 6df0 bf3e
000002f0: 5144 4a3f f129 0340 93d2 0ebc ffb1 db3f
00000300: 3154 0abf c437 aa3e 00d1 fa3f b32e 07bf
00000310: d87d 5c3e 73e4 803f 358f 43bf 9ec3 81bf
00000320: b8fe 813d 412b 14bf c59f 303e abd0 02bf
00000330: 0c56 1ec0 5d70 4b3f 56ee 163f 59dc 653e
00000340: 53dd 1abe ba42 a1bf dbb8 e6bd 0921 c93f
00000350: 9f55 80bf f889 44bf a864 b1be 8a74 84bf
00000360: c1e4 0ec0 924c edbd ea1f 09be 2ac8 573c
00000370: 3c41 eb3e f480 3dbf

1 f4 [5, 74]
0.6161736 -0.09351356 0.784609 -0.34851384 -1.9976038 -0.8477586 0.24983123 1.5475141
0.5961016 0.76146907 -0.25502008 0.42660418 0.63445157 0.30951312 -0.92121124 0.046616107
0.6765416 -1.7293125 0.44894856 -1.1810247 -0.73099977 3.080189 0.5601155 -0.35245186
-0.5004268 -0.8635008 -0.8338484 1.538043 -0.26340413 -0.3034644 0.9272976 0.059649095
-2.9404092 -0.6591568 0.27600798 0.8203965 -0.9483734 0.1370788 0.09596429 0.7267894
-0.17633343 -0.41605207 0.6675454 -1.7208654 1.0678283 -1.1586931 0.33020034 0.8951091
1.1559968 0.015558676 0.32009277 0.32766274 0.042691667 0.5140568 -0.5148187 -0.41970795
-0.03835247 -1.512363 -0.48243898 1.5024176 -0.58593315 1.5133873 1.7895445 1.9730098
0.64175427 0.54776007 -1.6641078 -1.2453266 -1.4370159 -0.20997564 -0.5145196 0.3767655
-0.9948848 -0.84733766 -1.4263501 0.6208094 -1.46485 -0.42265323 0.16876742 -1.3655111
1.2273848 -1.0948794 -2.6324074 0.09041008 -0.39174908 -1.1827419 0.4156367 0.15847558
-0.98316425 0.51469225 0.7041578 -0.09907377 -0.32245418 -0.0107963 0.20264061 0.03340149
-0.03210476 -0.015658544 2.030777 -0.6911217 -0.043440863 -0.31585485 -0.9748445 -0.8103929
1.2552391 1.0717819 -0.51613635 0.8736357 -0.35266086 -0.94556797 0.5193732 1.3106462
1.122346 0.83131075 -0.9819685 0.29395717 -0.11987139 1.2308784 0.0008851771 -0.15544567
-0.9899942 -0.23823439 -1.5448824 0.26615387 0.5753662 0.72149247 2.1394951 0.40871385
0.2620571 -0.37221646 -1.5339968 -0.9175049 -0.90864784 0.9597157 0.41950127 0.7916273
-0.11143488 -1.9779879 -0.10538254 0.19471253 -0.42556688 0.8257531 2.2334368 0.51094025
1.1689291 -1.2729118 0.5185914 -0.45076808 -0.39408025 0.55139035 -1.1272215 -0.24608795
1.0150826 -0.322868 -0.23312253 1.1482674 -0.51542616 -0.6863015 1.471292 1.0023128
-0.4419897 1.2353082 0.794942 0.38692167 -1.4847779 -0.78893286 -0.85892266 -1.0022807
0.8157874 0.6064946 -0.94733125 0.15893427 1.62941 -0.8951929 -0.49554318 0.38415593
-0.13602829 -1.1833361 -0.06403378 -0.4516041 0.55271286 -0.27838936 2.144899 -0.5838828
0.3675801 0.5520778 -0.05297899 0.4454394 -2.2133248 -0.27135727 0.15260758 -0.4888041
-0.1912487 1.6993041 1.9031185 1.1782738 -0.33226663 -0.096831776 -0.8156619 0.5780182
-0.8676283 -0.014018872 -1.6077276 -0.5068084 0.14787641 1.3720026 1.6483451 -1.5339545
0.5327714 0.7225384 -0.047062606 0.3359257 -2.3438776 0.95450133 0.9838272 0.9180383
-0.38499373 1.2807819 2.0974247 -1.1800026 -0.13111049 -0.844999 2.7071166 -0.61092895
-0.8524429 -0.46035632 -0.5393615 -0.6586361 0.45003808 -0.47563595 0.89017874 -1.390178
0.1362967 -0.24862985 -0.78530455 -0.4537027 0.0030410574 -1.457695 -0.4644232 2.1927989
-0.2865991 -1.17518 -1.5184494 2.1352427 -0.03640692 -0.98896873 -0.039096404 1.9869443
0.92290366 -1.4445329 1.0331818 -0.49687654 -0.6298759 0.4462065 -0.19975775 0.6489121
00000000: 8ebd 1d3f 0a84 bfbd 23dc 483f 6870 b2be
00000010: 7bb1 ffbf b506 59bf c2d3 7f3e f114 c63f
00000020: 1d9a 183f a3ef 423f fe91 82be dd6b da3e
00000030: 6b6b 223f 8178 9e3e 80d4 6bbf 88f0 3e3d
00000040: d531 2d3f 1d5a ddbf 96dc e53e d12b 97bf
00000050: cd22 3bbf d121 4540 bb63 0f3f 9274 b4be
00000060: f91b 00bf 630e 5dbf 1777 55bf 98de c43f
00000070: e8dc 86be b05f 9bbe 6063 6d3f 9c52 743d
00000080: aa2f 3cc0 80be 28bf eb50 8d3e 8105 523f
00000090: 99c8 72bf 635e 0c3e ed88 c43d df0e 3a3f
000000a0: c090 34be c704 d5be 41e4 2a3f 5145 dcbf
000000b0: 99ae 883f 0e50 94bf 0510 a93e df25 653f
000000c0: b4f7 933f d1e9 7e3c 33e3 a33e 69c3 a73e
000000d0: 75dd 2e3d 3a99 033f 29cb 03bf f6e3 d6be
000000e0: 7b17 1dbd 1c95 c1bf 3e02 f7be 384f c03f
000000f0: b7ff 15bf adb6 c13f cb0f e53f 968b fc3f
00000100: 024a 243f 013a 0c3f 7c01 d5bf dd66 9fbf
00000110: 23f0 b7bf db03 57be 8eb7 03bf 68e7 c03e
00000120: c5b0 7ebf 1feb 58bf a492 b6bf 5ded 1e3f
00000130: 3480 bbbf 0166 d8be 5ed1 2c3e 11c9 aebf
00000140: f21a 9d3f 0225 8cbf 5d79 28c0 ec28 b93d
00000150: 5693 c8be 1664 97bf 55ce d43e 6c47 223e
00000160: a7b0 7bbf dfc2 033f b043 343f 30e7 cabd
00000170: b718 a5be f7e2 30bc 0581 4f3e 00d0 083d
00000180: 4880 03bd 5946 80bc 40f8 0140 5aed 30bf
00000190: 0cef 31bd bab7 a1be 698f 79bf e975 4fbf
000001a0: adab a03f 2630 893f 8321 04bf 97a6 5f3f
000001b0: f78f b4be be10 72bf a4f5 043f 41c3 a73f
000001c0: 09a9 8f3f c8d0 543f 4a62 7bbf 8e81 963e
000001d0: 227f f5bd 6c8d 9d3f 3b0b 683a 262d 1fbe
000001e0: 4370 7dbf b7f3 73be b5be c5bf 5245 883e
000001f0: 334b 133f bbb3 383f 7ded 0840 f142 d13e
00000200: 592c 863e 2893 bebe 025a c4bf 9ae1 6abf
00000210: 259d 68bf eeaf 753f dfc8 d63e 16a8 4a3f
00000220: f837 e4bd b52e fdbf cdd2 d7bd b962 473e
00000230: e7e3 d9be 8e64 533f a1f0 0e40 fbcc 023f
00000240: 789f 953f c6ee a2bf 68c2 043f 13cb e6be
00000250: e3c4 c9be eb27 0d3f cb48 90bf 7bfe 7bbe
00000260: 3aee 813f f44e a5be acb7 6ebe 6dfa 923f
00000270: f8f2 03bf 75b1 2fbf 4c53 bc3f c94b 803f
00000280: 794c e2be 941e 9e3f 5281 4b3f 991a c63e
00000290: 340d bebf 81f7 49bf 5be2 5bbf bc4a 80bf
000002a0: 71d7 503f 3b43 1b3f 4d84 72bf aabf 223e
000002b0: 8290 d03f 5d2b 65bf d6b7 fdbe 16b0 c43e
000002c0: 004b 0bbe 8f77 97bf 2424 83bd a738 e7be
000002d0: 977e 0d3f 0d89 8ebe 0646 0940 5879 15bf
000002e0: 7533 bc3e f854 0d3f 7f00 59bd a210 e43e
000002f0: 1da7 0dc0 57ef 8abe 2945 1c3e 8844 fabe
00000300: b3d6 43be cc82 d93f 6399 f33f add1 963f
00000310: da1e aabe bd4f c6bd 38cf 50bf 00f9 133f
00000320: e31c 5ebf 69af 65bc 05ca cdbf 32be 01bf
00000330: ea6c 173e c89d af3f f9fc d23f 9f58 c4bf
00000340: b563 083f 47f8 383f b8c4 40bd 74fe ab3e
00000350: 1702 16c0 335a 743f 19dc 7b3f 8f04 6b3f
00000360: e61d c5be a9f0 a33f 353c 0640 530a 97bf
00000370: d441 06be db51 58bf 6641 2d40 d765 1cbf
00000380: b339 5abf d3b3 ebbe 9813 0abf 609c 28bf
00000390: 646b e63e 8e86 f3be c1e2 633f 5af1 b1bf
000003a0: 5d91 0b3e d398 7ebe b809 49bf b84b e8be
000003b0: 7a4c 473b c095 babf e1c8 edbe d156 0c40
000003c0: 1ebd 92be 4c6c 96bf 8d5c c2bf d1a7 0840
000003d0: 6c1f 15bd 0e2d 7dbf 8d23 20bd 3154 fe3f
000003e0: 6a43 6c3f 74e6 b8bf 4d3f 843f 9a66 febe
000003f0: 8c3f 21bf 2e75 e43e 4c8d 4cbe 1a1f 263f

2 f4 [3, 74]
-1.9869496 0.22778817 -0.7203941 -1.7464796 0.9290121 0.7076515 -1.2676792 0.3500437
1.3449739 1.0042325 -1.2038474 -0.6187755 -0.14333889 -0.2588161 2.2512639 -1.6977187
0.104989246 -0.78214127 1.2673321 -0.3459687 -1.4888394 0.42566308 1.3946456 1.7579081
1.259364 -0.74744374 -0.52176726 -0.26883364 -0.97476804 -0.67090064 -0.6390772 -0.38197824
-0.36254278 -1.103545 0.5316527 0.1579425 0.34132716 -0.69829416 0.29499826 -0.22748247
0.8481655 -0.3328297 0.45319253 -0.2691921 0.18223646 -0.8472666 -0.99951816 -1.8403434
-0.068538256 -0.1718802 -2.4666796 0.8391841 1.501297 0.21359392 -1.0444002 0.9961066
-0.90290606 -1.8867468 -1.9766845 0.0653122 0.6148046 0.00077265024 -0.12023395 1.1784626
-0.56045747 -1.2630553 -0.52253115 0.97374123 -2.2705448 2.440723 -0.3318416 -0.67240864
-0.64817536 0.5031477 -0.29780585 0.0554317 1.4208101 -1.3132365 -0.32691166 1.6836932
-0.5599856 0.9608369 2.6452765 -0.343147 -0.20608062 -1.2530907 1.2324183 -1.1967771
-0.0052276887 -1.2782687 -0.084499426 -0.41217542 -0.07154966 -0.01869163 -0.6517729 -1.1787889
0.5272764 -0.8916732 -2.0209 0.6354567 -0.60854375 -0.41029406 1.3271195 -0.027812278
1.0087379 -0.36005762 0.3958272 0.75891465 -0.8550871 0.01635365 -0.19991875 -0.13800459
-0.94491434 -0.49027354 -0.074075766 1.0054868 0.4417602 1.4804592 0.20537701 0.8470995
1.3137424 0.5520132 0.9904117 0.41029027 2.1008852 1.4624687 -0.62596744 0.93131864
-0.385684 -1.3312225 -1.6442786 0.28031686 1.0191916 -1.7194921 -0.3980615 -0.31518862
0.24380915 2.0645468 -1.2925602 0.4393518 -1.5116326 0.09580453 0.7997471 -0.08629507
0.7588766 0.085950054 0.643759 -0.58284104 0.9225521 -0.22952457 -0.95758605 0.29235145
2.2894123 -0.47754335 0.97390044 -0.025581788 -2.2717693 0.3119298 -0.47086433 -0.66674423
-0.94994456 0.090683274 -0.026880594 0.9214693 -1.1079687 0.36931205 -0.01360235 -0.19757038
0.08554764 -0.82655084 0.62483454 1.8334242 -0.03525229 -0.26750976 -1.026543 2.2581584
1.1453055 1.2586406 -1.3681841 1.3921542 0.057955794 0.11031789 -1.1815779 2.4486508
-1.4410081 0.20674373 0.63093543 -0.27255568 2.3311775 0.31462038 -0.9329483 0.19768706
-0.7275094 -0.5775812 0.897363 -1.1736554 1.7224948 -0.014881517 1.1556554 1.1742879
-0.66896737 0.00821054 0.2045658 -0.6895864 0.93992686 -0.040936798 -0.03250314 1.3518729
-0.8901589 -0.92680615 0.48410174 1.9429017 -1.2505107 2.396342 -0.26065764 -0.16968687
-0.5267382 0.07091337 -1.1303129 0.05097638 -0.28743815 -2.0635877
00000000: 5d54 febf 4d41 693e bf6b 38bf a58c dfbf
00000010: bdd3 6d3f a628 353f 5043 a2bf ee38 b33e
00000020: 1b28 ac3f b18a 803f ac17 9abf 1268 1ebf
00000030: 6ec7 12be 8b83 84be b514 1040 d94e d9bf
00000040: 9a04 d73d 693a 48bf f037 a23f cf22 b1be
00000050: 4a92 bebf 83f0 d93e bf83 b23f 2203 e13f
00000060: d732 a13f 7958 3fbf 8a92 05bf 90a4 89be
00000070: 668a 79bf 25c0 2bbf 909a 23bf a792 c3be
00000080: 359f b9be f640 8dbf 641a 083f aebb 213e
00000090: 6fc2 ae3e 68c3 32bf 030a 973e 2af1 68be
000000a0: 6021 593f a868 aabe da08 e83e 8cd3 89be
000000b0: 329c 3a3e 77e6 58bf 6ce0 7fbf 5f90 ebbf
000000c0: c95d 8cbd 5d01 30be 14de 1dc0 c5d4 563f
000000d0: 802a c03f 5db8 5a3e e8ae 85bf d800 7f3f
000000e0: da24 67bf eb80 f1bf ff03 fdbf 67c2 853d
000000f0: d663 1d3f ae8b 4a3a 383d f6bd ddd7 963f
00000100: 247a 0fbf ccab a1bf 9ac4 05bf 1b47 793f
00000110: 9b50 11c0 ce34 1c40 24e7 a9be f922 2cbf
00000120: d2ee 25bf 4ace 003f 027a 98be 5a0c 633d
00000130: 1bdd b53f 2218 a8bf f760 a7be 4283 d73f
00000140: 375b 0fbf 68f9 753f 364c 2940 f7b0 afbe
00000150: cc06 53be 4765 a0bf e2bf 9d3f fe2f 99bf
00000160: 084d abbb 4f9e a3bf 090e adbd a808 d3be
00000170: a188 92bd 301f 99bc 97da 26bf 8ee2 96bf
00000180: 96fb 063f b244 64bf 6d56 01c0 4aad 223f
00000190: 86c9 1bbf 1012 d2be 0ddf a93f 93d6 e3bc
000001a0: 531e 813f 7959 b8be dda9 ca3e 3b48 423f
000001b0: fde6 5abf 17f8 853c 80b7 4cbe 1351 0dbe
000001c0: e8e5 71bf 2205 fbbe 09b5 97bd cbb3 803f
000001d0: 652e e23e b07f bd3f 5a4e 523e 83db 583f
000001e0: b628 a83f bd50 0d3f 9f8b 7d3f 9111 d23e
000001f0: e774 0640 2d32 bb3f 673f 20bf e66a 6e3f
00000200: 6078 c5be 8065 aabf b977 d2bf b185 8f3e
00000210: df74 823f 5118 dcbf b8ce cbbe 6760 a1be
00000220: 1ba9 793e 8921 0440 9d72 a5bf b8f2 e03e
00000230: 2d7d c1bf 2a35 c43d 3abc 4c3f 78bb b0bd
00000240: bd45 423f 9506 b03d 64cd 243f 1235 15bf
00000250: 602c 6c3f 7d08 6bbe 5c24 75bf 17af 953e
00000260: bb85 1240 9080 f4be 8a51 793f e690 d1bc
00000270: ab64 11c0 43b5 9f3e 2115 f1be c0af 2abf
00000280: 912f 73bf 27b8 b93d b134 dcbc 69e5 6b3f
00000290: ebd1 8dbf 7816 bd3e 64dc 5ebc e44f 4abe
000002a0: 9a33 af3d d698 53bf 28f5 1f3f a5ad ea3f
000002b0: b564 10bd 0af7 88be c365 83bf ab85 1040
000002c0: 5f99 923f 231b a13f a820 afbf 1c32 b23f
000002d0: 0e63 6d3d 59ee e13d f23d 97bf b2b6 1c40
000002e0: f472 b8bf a1b4 533e fc84 213f 6b8c 8bbe
000002f0: 0332 1540 ec15 a13e b3d5 6ebf 7a6e 4a3e
00000300: 0e3e 3abf 5ddc 13bf 95b9 653f 573a 96bf
00000310: b67a dc3f 9bd1 73bc 84ec 933f 114f 963f
00000320: 7241 2bbf 8085 063c b279 513e bc88 30bf
00000330: 0c9f 703f 58ad 27bd 0322 05bd 2c0a ad3f
00000340: 74e1 63bf 2b43 6dbf 2fdc f73e 01b1 f83f
00000350: bc10 a0bf ab5d 1940 eb74 85be 65c2 2dbe
00000360: 51d8 06bf 073b 913d 18ae 90bf 9ccc 503d
00000370: 182b 93be d211 04c0

3 f4 [5, 74]
1.8352534 0.9805404 1.1398388 -1.4360747 -0.20142052 0.6058794 0.59060174 -0.2947993
-0.40708718 -0.9807231 -0.9991231 0.21367994 1.0984735 -1.189224 0.8259997 -0.8756138
0.23186466 1.3861325 0.5399596 0.9531231 0.39684334 -1.0363325 0.7213309 -0.30462387
0.9081212 -0.8888264 0.6717233 -0.12252452 0.060221996 1.4331939 1.6882696 -0.07165972
0.28534332 1.5597664 -1.2003156 -1.2392106 -1.4084212 -1.0943927 -0.57292897 -0.09757809
0.5815638 -0.9049155 0.31573257 0.172853 -0.08299912 0.9224095 0.7394835 -0.86402965
-0.51395524 0.26785302 -0.13718377 -0.34178385 -1.8708475 1.0572596 -0.34097686 0.8690324
0.65816516 1.5234127 1.1571467 -0.28380367 -0.5860493 -0.49373227 1.7548828 0.013135538
-0.44210747 -0.38583875 2.0396547 0.18555067 0.37146226 0.37566128 0.104143836 -0.83467454
-0.5656926 -2.0663176 -0.49568376 -0.35770947 -2.168141 -0.17642173 0.6554102 0.91238683
-0.44662473 -1.5748929 -0.73373735 1.409104 0.63222677 -0.73607004 1.4279802 0.41124162
0.91684186 0.9411716 1.2681909 -0.29973212 1.7333972 -0.4252819 0.70046556 -1.148016
0.28869557 0.69169533 -1.008246 -0.21384688 0.70790863 -1.4257318 0.009896403 1.7348617
-0.8749866 0.9006432 1.3695712 0.1257464 0.017157206 0.50219977 0.8728006 -1.2948276
0.6434858 -0.11504174 0.54168653 -0.5728309 -0.12550145 1.3157531 -1.6092275 -0.12581787
-1.384461 0.44895172 0.38762566 -0.4360004 0.06222389 -1.1377236 -0.5567479 0.5300482
-2.2120473 0.13917364 -0.5306652 1.1796236 -0.24490047 0.0732146 -0.3532398 -1.2987826
0.16217063 0.87970674 -0.47455 0.9222711 0.7443921 0.20008661 -0.98874754 0.18050715
-0.57468545 0.3193789 -2.3609982 0.28634673 0.5583062 0.34417462 -0.1036114 0.34729415
0.59125733 0.38363436 0.027115034 -0.16882 1.415562 -1.2722034 -1.4975646 -0.42632112
0.043820158 0.5790678 -0.968052 -0.24123491 -0.14351289 -0.62115437 0.4378397 -0.90457374
-0.38297492 -1.5947205 0.81622285 0.8881485 1.101605 -0.37216944 2.824542 -0.17682186
0.7209078 1.1240355 -0.040399097 0.014695113 -0.6153948 -1.0459037 0.067817636 -1.3602092
1.3199376 1.0300968 0.12019547 1.0821111 0.9846591 1.1395782 -0.11171015 -0.7129679
-1.8819059 -0.23284042 -0.52427065 0.7623099 0.8682447 0.62703866 -0.3200894 0.4311856
-0.76237 1.4444574 0.57478815 0.110479586 -0.19592783 0.7841678 0.16044074 0.6698969
-0.6445349 0.042888474 -1.1400559 -0.8423076 -0.13139604 0.05254932 0.4995572 -1.7215778
-0.48000124 2.311307 -0.81229514 -1.0628264 -1.7271163 0.98606086 1.1876353 1.5009958
-1.280768 0.15233436 -0.19039956 -0.24294712 1.1145554 -1.6868348 -0.40896857 0.9726685
-0.23376516 1.2367915 0.48432985 -0.46411324 -1.0586181 0.610239 0.6544558 -0.99730384
-0.51528263 -1.3372977 0.065526344 0.46753174 -0.52428967 -0.5568217 0.15598355 -1.1865947
0.21972665 0.1819568 -0.58948356 -0.90658677 -1.4495909 -0.45333305 0.1283668 1.7472137
00000000: 95e9 ea3f b204 7b3f 3de6 913f 4cd1 b7bf
00000010: 2e41 4ebe ea1a 1b3f ad31 173f efef 96be
00000020: bb6d d0be ab10 7bbf 88c6 7fbf eace 5a3e
00000030: c89a 8c3f 7e38 98bf b774 533f 3a28 60bf
00000040: ee6d 6d3e ca6c b13f cb3a 0a3f e0ff 733f
00000050: 0d2f cb3e 8ba6 84bf 24a9 383f a9f7 9bbe
00000060: a27a 683f 208a 63bf 0ff6 2b3f 23ee fabd
00000070: 57ab 763d e672 b73f 3819 d83f 55c2 92bd
00000080: 8518 923e 6da6 c73f f1a3 99bf 749e 9ebf
00000090: 2547 b4bf 0f15 8cbf 79ab 12bf 06d7 c7bd
000000a0: 5de1 143f 8ba8 67bf b3a7 a13e 6000 313e
000000b0: 71fb a9bd 0723 6c3f ca4e 3d3f 0c31 5dbf
000000c0: 9292 03bf 0824 893e e779 0cbe 4bfe aebe
000000d0: ee77 efbf 4854 873f 8594 aebe e878 5e3f
000000e0: 837d 283f 30ff c23f 621d 943f b74e 91be
000000f0: 5407 16bf 7aca fcbe 00a0 e03f 7136 573c
00000100: e95b e2be a88c c5be b489 0240 ff00 3e3e
00000110: 4d30 be3e ad56 c03e 5d49 d53d 3bad 55bf
00000120: 3bd1 10bf 8c3e 04c0 43ca fdbe b225 b7be
00000130: d2c2 0ac0 e6a7 34be f6c8 273f 2f92 693f
00000140: ffab e4be 1796 c9bf 36d6 3bbf 855d b43f
00000150: 9dd9 213f 166f 3cbf 0ec8 b63f 438e d23e
00000160: 26b6 6a3f 9ff0 703f 1454 a23f 7d76 99be
00000170: f6df dd3f 8dbe d9be b651 333f 30f2 92bf
00000180: e8cf 933e f212 313f 340e 81bf adfa 5abe
00000190: 8039 353f 617e b6bf 8624 223c f30f de3f
000001a0: 1fff 5fbf 8e90 663f 1c4e af3f aac3 003e
000001b0: 458d 8c3c 2a90 003f dc6f 5f3f e9bc a5bf
000001c0: 7cbb 243f 019b ebbd f8ab 0a3f 0ca5 12bf
000001d0: 7483 00be 996a a83f 2bfb cdbf 66d6 00be
000001e0: 0536 b1bf 00dd e53e df76 c63e 723b dfbe
000001f0: 7ade 7e3d eda0 91bf 0887 0ebf 3db1 073f
00000200: 2f92 0dc0 8983 0e3e add9 07bf e8fd 963f
00000210: 30c7 7abe 89f1 953d d9db b4be 823e a6bf
00000220: 0f10 263e 7634 613f 38f8 f2be f519 6c3f
00000230: 7b90 3e3f 81e3 4c3e 8f1e 7dbf ded6 383e
00000240: 961e 13bf a285 a33e 981a 17c0 0a9c 923e
00000250: 28ed 0e3f a837 b03e 3732 d4bd 8ad0 b13e
00000260: a45c 173f b96b c43e 5920 de3c 26df 2cbe
00000270: 2331 b53f 90d7 a2bf 32b0 bfbf c346 dabe
00000280: c47c 333d ca3d 143f 42d2 77bf 4906 77be
00000290: 0bf5 12be f903 1fbf 862c e03e 2592 67bf
000002a0: 4a15 c4be cd1f ccbf fbf3 503f b35d 633f
000002b0: 6501 8d3f fe8c bebe 4cc5 3440 ca10 35be
000002c0: 6a8d 383f 65e0 8f3f 8679 25bd c5c3 703c
000002d0: 838a 1dbf 2ce0 85bf f9e3 8a3d 561b aebf
000002e0: b7f3 a83f 36da 833f 0b29 f63d 9e82 8a3f
000002f0: 9e12 7c3f b3dd 913f 4bc8 e4bd 1085 36bf
00000300: 4be2 f0bf b86d 6ebe 9a36 06bf be26 433f
00000310: 4945 5e3f 9b85 203f c2e2 a3be 5cc4 dc3e
00000320: ae2a 43bf fbe3 b83f 5125 133f 1f43 e23d
00000330: 4ea1 48be 39bf 483f 944a 243e 5d7e 2b3f
00000340: 3d00 25bf d3ab 2f3d 5aed 91bf 79a1 57bf
00000350: af8c 06be f53d 573d f6c5 ff3e a95c dcbf
00000360: b9c2 f5be 74ec 1340 93f2 4fbf b20a 88bf
00000370: 2612 ddbf 7c6e 7c3f 6f04 983f a120 c03f
00000380: 35f0 a3bf 8afd 1b3e 1af8 42be 21c7 78be
00000390: c0a9 8e3f 34ea d7bf 5464 d1be ce00 793f
000003a0: 2260 6fbe 2f4f 9e3f 15fa f73e 40a0 edbe
000003b0: cc80 87bf a038 1c3f 6a8a 273f 4e4f 7fbf
000003c0: 90e9 03bf 922c abbf ad32 863d 5260 ef3e
000003d0: d937 06bf de8b 0ebf 27ba 1f3e 56e2 97bf
000003e0: 0600 613e e252 3a3e 65e8 16bf 1216 68bf
000003f0: 328c b9bf 451b e8be 9672 033e b3a4 df3f

4 f4 [3, 74]
-0.9952186 -1.3136634 -0.32441038 0.46369714 -1.5961498 0.25621575 0.300009 0.050814696
0.08472973 -0.8878602 -0.6763868 1.4718822 -1.3125979 -0.62665075 0.545007 0.29994634
-0.5172682 0.62026477 -1.9565194 0.3183536 -1.5069976 0.8669804 -1.0930789 -0.88291436
-1.0851188 -0.089443274 2.2610335 0.7412639 0.42499676 1.22622 0.55932415 -1.32901
0.83343524 0.082455106 0.79350543 -0.40018684 -0.3733063 0.11774139 0.93620855 1.1180749
-2.370671 -0.23062615 1.2817287 -0.3441933 -0.34610164 0.13640337 -1.1246042 -1.1624794
-0.023267502 0.9844466 -1.7309746 -1.1558162 0.7682382 0.27573982 -0.22951369 1.837917
1.4084834 1.630439 0.6753355 0.23762618 0.58104604 0.88287294 0.9632412 0.18122126
0.2947669 -0.5566601 0.3411313 0.7361624 0.6427271 0.4162923 -0.025638513 0.57854456
-0.61346954 0.32439208 -1.1057584 -0.7213338 -0.23186618 0.33584267 -0.008802754 -0.13426013
1.0425538 1.9805214 -1.1403551 0.30524692 -1.2644495 -0.7671793 0.15730096 -0.42210793
1.1285298 -1.5857934 2.2755706 0.008258682 0.6829753 1.1027118 0.91668653 0.3538543
0.3663259 0.031255733 -0.33596376 -0.7633528 0.8782674 -0.45689532 -0.31292543 0.2702434
-0.92979497 2.8183773 -0.23693588 -0.72164613 -0.6361109 0.7264799 -0.20200722 -0.6116481
-0.018005766 -0.7655497 -0.30118746 0.41552645 0.2502149 -0.4960124 0.3261661 -0.8208239
0.487841 0.29527912 -0.38258642 0.41043425 0.00956157 0.18733168 -0.34334713 -1.6464232
-0.40103868 0.9340824 -0.5351272 0.4949659 0.32065612 0.6433274 0.18418422 -0.7761671
0.9649134 -0.15763429 -0.7898061 -0.7237416 0.10152273 0.22641905 0.18688262 0.5663618
-0.019584842 0.9632544 0.6571206 -0.7767716 -2.5403128 -0.63073325 -0.4840058 -0.74536103
-0.7895706 1.3550637 -1.2177672 0.65971357 -0.39248508 -0.84434354 -2.424926 1.2130492
-1.4420372 -1.3246065 0.8775403 1.2651684 1.3602867 0.096086785 0.2508346 1.1249787
0.42840055 0.6865089 -0.4476115 1.7906517 0.41853806 -1.01816 -0.76842564 -1.255742
-0.04474207 1.0416242 -0.23244473 -0.7260614 -0.30429727 -0.38931158 -0.002047942 0.9151162
-0.11803959 -0.5494688 0.70512784 -0.1687838 -0.074435055 0.8901978 -1.143469 -1.0306616
0.005761844 0.32040396 0.2729567 -0.18424717 1.6523126 1.1824543 -0.121314146 -0.074849434
0.6228682 1.6777817 1.042153 0.87493765 -0.7675332 0.621977 0.015440163 -0.465364
1.072396 -0.26360244 -0.32102156 0.14320385 -0.760585 0.4619351 -0.7024941 -1.4616619
-0.6445535 0.15082803 0.23543346 -0.8696502 -0.6336128 -0.048371267
00000000: a5c6 7ebf 1f26 a8bf 1e19 a6be b669 ed3e
00000010: a34e ccbf b62e 833e c89a 993e 1223 503d
00000020: c886 ad3d ce4a 63bf af27 2dbf a366 bc3f
00000030: 3503 a8bf 2f6c 20bf 9485 0b3f 9192 993e
00000040: b06b 04bf acc9 1e3f 3a6f fabf 3eff a23e
00000050: 4ce5 c0bf 6df2 5d3f 02ea 8bbf ad06 62bf
00000060: 2ce5 8abf 092e b7bd c6b4 1040 79c3 3d3f
00000070: 2d99 d93e c7f4 9c3f de2f 0f3f 001d aabf
00000080: 035c 553f 39de a83d 2c23 4b3f 4ae5 ccbe
00000090: 0122 bfbe 6622 f13d 5dab 6f3f 141d 8f3f
000000a0: 13b9 17c0 4329 6cbe b00f a43f 1b3a b0be
000000b0: 3c34 b1be 53ad 0b3e 08f3 8fbf 20cc 94bf
000000c0: 7d9b bebc b104 7c3f 9390 ddbf c9f1 93bf
000000d0: 42ab 443f c52d 8d3e a305 6bbe dd40 eb3f
000000e0: 2f49 b43f 3ab2 d03f cae2 2c3f 4754 733e
000000f0: 6fbf 143f f603 623f fa96 763f 1192 393e
00000100: b0eb 963e 4781 0ebf c3a8 ae3e 2475 3c3f
00000110: c389 243f 4424 d53e dc07 d2bc 7f1b 143f
00000120: 570c 1dbf b816 a63e 7e89 8dbf 55a9 38bf
00000130: 546e 6dbe 92f3 ab3e 6d39 10bc 7d7b 09be
00000140: 6772 853f ba81 fd3f 28f7 91bf 5349 9c3e
00000150: 7bd9 a1bf dd65 44bf 8113 213e 881e d8be
00000160: aa73 903f 47fb cabf f3a2 1140 6c4f 073c
00000170: 78d7 2e3f a925 8d3f f8ab 6a3f 642c b53e
00000180: 128f bb3e 0306 003d 7103 acbe 176b 43bf
00000190: 22d6 603f 2fee e9be c337 a0be 585d 8a3e
000001a0: 0b07 6ebf 4b60 3440 529f 72be cdbd 38bf
000001b0: 2ad8 22bf 96fa 393f fbda 4ebe f894 1cbf
000001c0: d480 93bc 11fb 43bf 3e35 9abe e2bf d43e
000001d0: 2b1c 803e 56f5 fdbe 3eff a63e 8421 52bf
000001e0: 4cc6 f93e d32e 973e 5ee2 c3be 7024 d23e
000001f0: 22a8 1c3c e0d3 3f3e 32cb afbe ffbd d2bf
00000200: f154 cdbe 0620 6f3f 19fe 08bf 2c6c fd3e
00000210: 0a2d a43e 1bb1 243f ca9a 3c3e e3b2 46bf
00000220: 9104 773f e26a 21be bc30 4abf 2147 39bf
00000230: 26eb cf3d 65da 673e 285e 3f3e 16fd 103f
00000240: 6470 a0bc d797 763f 0e39 283f 81da 46bf
00000250: 7c94 22c0 bc77 21bf 9ccf f7be fbcf 3ebf
00000260: 4d21 4abf ba72 ad3f ccdf 9bbf fde2 283f
00000270: cef3 c8be e626 58bf fd31 1bc0 3245 9b3f
00000280: ad94 b8bf b58c a9bf 7ba6 603f 0af1 a13f
00000290: e01d ae3f 26c9 c43d 656d 803e 4dff 8f3f
000002a0: 5157 db3e 0cbf 2f3f 562d e5be 1334 e53f
000002b0: 9f4a d63e 1153 82bf 8bb7 44bf 27bc a0bf
000002c0: 7643 37bd f153 853f fe05 6ebe 29df 39bf
000002d0: dacc 9bbe d953 c7be c436 06bb 0e45 6a3f
000002e0: bebe f1bd fda9 0cbf 4283 343f a9d5 2cbe
000002f0: 6871 98bd 01e4 633f 315d 92bf b8ec 83bf
00000300: dacd bc3b fd0b a43e fbc0 8b3e 4aab 3cbe
00000310: fb7e d33f aa5a 973f 8d73 f8bd a94a 99bd
00000320: 4a74 1f3f 8dc1 d63f 4565 853f eafb 5f3f
00000330: 0e7d 44bf e239 1f3f bdf8 7c3c 3144 eebe
00000340: 4644 893f e6f6 86be f05c a4be 08a4 123e
00000350: b3b5 42bf c282 ec3e a7d6 33bf bd17 bbbf
00000360: 7501 25bf aa72 1a3e 7815 713e 65a1 5ebf
00000370: 7334 22bf f320 46bd

5 f4 [5, 74]
0.2690926 0.5496485 2.3383625 0.18055041 -0.6599695 -0.8142581 0.021140574 -1.4012604
-0.18318577 0.32600284 -2.0668354 -1.140534 1.5612527 0.021732397 0.57838744 -2.4292855
-0.1202913 1.0492827 -0.7007348 1.8188021 1.4589128 1.3050524 -0.8700184 -0.3500384
0.95436585 0.8110209 -1.8838782 -0.05971983 0.72203195 -1.0162414 0.09960033 -1.563145
0.023448987 0.5768044 -0.025368983 -0.12928075 0.25385603 -0.9211572 -0.6013019 -0.84183025
0.5963205 0.3045102 -1.1030911 -0.31402892 -0.7165644 -1.4934471 0.17562738 -0.38320267
0.8082005 -1.051656 0.5640414 -0.7663108 -0.23865509 1.6528612 -0.21159339 -0.01912642
-2.13744 -0.687449 0.7814944 -0.7140161 0.5685311 -0.26969948 1.1714938 -0.8919928
-0.05459041 0.3666016 1.5989398 -0.19367088 -0.82638127 -0.40341303 -0.9083224 0.61382234
0.83522093 0.013449807 -0.18850698 0.5086289 -0.013054238 0.09875684 -0.26837355 0.8168333
0.017748334 -0.18899159 -0.33846202 -0.30789644 -0.45611852 0.6332473 -0.6409892 -0.30171394
-0.17462455 -1.2496529 0.021135502 -0.5874688 -0.27720305 -1.1774629 -1.9954741 -0.9543015
-0.22235385 1.3253951 -1.5260427 -1.2294264 0.12012606 -0.7586035 0.826147 0.2169537
-1.0753841 -0.5629227 -0.34932566 -0.105207324 0.07362922 1.5217507 1.1231551 -0.2703059
0.2895771 0.3119801 0.049932394 0.996636 0.7668269 0.21822917 0.44811285 0.20005693
0.3807646 0.38506863 -1.5226152 1.6431041 0.6137953 0.09225024 -1.878301 -0.64875686
-0.859212 -0.33880556 1.11853 -0.31740978 -1.0105553 0.11305705 1.4287529 -0.25317335
1.3478669 -0.8483436 0.04473778 -0.97787637 0.20678356 -0.25801075 1.3929954 -1.5486606
-0.4772839 0.37600732 1.9113895 0.828567 1.3538241 0.78700715 1.1652001 -0.07091858
2.9067304 -1.3245326 0.26803264 1.3505251 -2.1402936 0.84105235 -0.9288454 -0.32217485
-0.98161274 0.3340994 0.80894774 -1.1784941 0.6969797 -0.6487031 -0.07357786 0.70224607
-1.7267742 -0.3077582 0.26588306 1.0478269 0.5153816 1.9883906 0.4922257 1.2054932
-0.048867807 0.28927705 0.28736004 1.6675735 -0.2255578 -0.7052385 0.47819677 0.49040967
0.85611284 0.46325776 -0.6851607 -0.8002428 -0.7019464 -0.94162285 -0.071003355 0.8225895
0.42340273 0.44095108 1.4896845 0.07290052 -1.2184225 -0.4022067 0.6870378 -0.31326005
-1.7028927 0.053934366 -1.7973268 -2.7874777 -0.73284024 0.7414905 -0.9523392 -0.7004532
0.7069295 -0.83006775 0.0034235425 0.33079916 -0.5852833 1.6168551 -0.74956846 1.0247048
0.55271804 -1.3079342 1.6648885 1.1117102 1.4868249 0.7674234 -1.6789626 1.0214673
-1.3776239 1.8766096 -0.26764807 1.2522268 0.70672023 -0.8879822 -0.5644913 -2.0707452
-0.088068835 0.359101 0.44479963 0.96831393 1.7396116 -1.4679809 1.2213826 0.6643497
1.0667833 0.3510381 0.26438507 -0.1727099 0.23421222 -1.1446401 -1.4343438 0.11181912
2.0624962 0.43043217 1.1479589 1.9778434 -1.316235 2.1315963 -0.023023123 -1.3005737
00000000: 81c6 893e c4b5 0c3f bba7 1540 35e2 383e
00000010: c3f3 28bf 3873 50bf ff2e ad3c 805c b3bf
00000020: 0d95 3bbe d8e9 a63e 0847 04c0 05fd 91bf
00000030: 21d7 c73f 2408 b23c 3311 143f 6a79 1bc0
00000040: 495b f6bd e54e 863f 5b63 33bf 82ce e83f
00000050: a8bd ba3f f50b a73f 87b9 5ebf 3c38 b3be
00000060: 5251 743f 119f 4f3f ec22 f1bf c89c 74bd
00000070: 16d7 383f 3314 82bf 42fb cb3d 2315 c8bf
00000080: 1718 c03c 74a9 133f 9dd2 cfbc 2c62 04be
00000090: 6bf9 813e f5d0 6bbf ecee 19bf 3082 57bf
000000a0: 76a8 183f c3e8 9b3e 1732 8dbf 66c8 a0be
000000b0: c470 37bf 4629 bfbf aad7 333e 2433 c4be
000000c0: 3ae6 4e3f aa9c 86bf 0465 103f f22c 44bf
000000d0: 0062 74be f590 d33f f0ab 58be 03af 9cbc
000000e0: d1cb 08c0 a8fc 2fbf 0410 483f c2c9 36bf
000000f0: 418b 113f 0d16 8abe 82f3 953f a459 64bf
00000100: 329a 5fbd 34b3 bb3e 0faa cc3f a951 46be
00000110: b98d 53bf 278c cebe d187 68bf 7623 1d3f
00000120: 0ad1 553f 945c 5c3c f907 41be 8135 023f
00000130: 71e1 55bc 0741 ca3d 4268 89be fd1b 513f
00000140: f464 913c 0387 41be e54a adbe 9aa4 9dbe
00000150: 5e88 e9be 7f1c 223f de17 24bf 407a 9abe
00000160: c7d0 32be a0f4 9fbf 5c24 ad3c 5b64 16bf
00000170: 8fed 8dbe 1bb7 96bf b26b ffbf 1a4d 74bf
00000180: bab0 63be 8ca6 a93f 5e55 c3bf d85d 9dbf
00000190: a704 f63d d733 42bf 5f7e 533f 1c29 5e3e
000001a0: 30a6 89bf b41b 10bf d0da b2be f076 d7bd
000001b0: ebca 963d bac8 c23f 8cc3 8f3f 8965 8abe
000001c0: 7343 943e dbbb 9f3e e985 4c3d 8923 7f3f
000001d0: c54e 443f 7877 5f3e 0c6f e53e b9db 4c3e
000001e0: 94f3 c23e b727 c53e 0ee5 c2bf 3c51 d23f
000001f0: b021 1d3f b2ed bc3d 2b6c f0bf ee14 26bf
00000200: 51f5 5bbf ec77 adbe fe2b 8f3f 8983 a2be
00000210: e059 81bf 748a e73d 60e1 b63f f09f 81be
00000220: e786 ac3f 0c2d 59bf f63e 373d 1b56 7abf
00000230: 12bf 533e fc19 84be ac4d b23f 833a c6bf
00000240: 8e5e f4be 0884 c03e 69a8 f43f f81c 543f
00000250: 1c4a ad3f 4d79 493f 4725 953f c33d 91bd
00000260: df07 3a40 498a a9bf 933b 893e 02de ac3f
00000270: 92fa 08c0 354f 573f d0c8 6dbf 1af4 a4be
00000280: f94a 7bbf 140f ab3e 3317 4f3f e5d8 96bf
00000290: 436d 323f 6811 26bf fdaf 96bd 66c6 333f
000002a0: f006 ddbf 7c92 9dbe d321 883e 311f 863f
000002b0: 0cf0 033f 9583 fe3f 0205 fc3e 9a4d 9a3f
000002c0: 9c29 48bd 1f1c 943e db20 933e 0c73 d53f
000002d0: a0f8 66be 838a 34bf 35d6 f43e fa16 fb3e
000002e0: 362a 5b3f 1f30 ed3e b166 2fbf b6dc 4cbf
000002f0: c2b2 33bf 320e 71bf 356a 91bd 3a95 523f
00000300: 3ec8 d83e 57c4 e13e fbad be3f de4c 953d
00000310: 45f5 9bbf 09ee cdbe b6e1 2f3f 9f63 a0be
00000320: 63f8 d9bf 48ea 5c3d ce0e e6bf 0966 32c0
00000330: 6b9b 3bbf 52d2 3d3f 80cc 73bf e750 33bf
00000340: 55f9 343f 527f 54bf 835d 603b 825e a93e
00000350: 20d5 15bf 1cf5 ce3f b8e3 3fbf 8729 833f
00000360: ee7e 0d3f 636a a7bf 111b d53f 854c 8e3f
00000370: 4750 be3f dc75 443f 3fe8 d6bf 71bf 823f
00000380: fb55 b0bf be34 f03f 2b09 89be f848 a03f
00000390: 9eeb 343f cd52 63bf 8082 10bf 1787 04c0
000003a0: 6f5d b4bd 16dc b73e c7bc e33e 6ce3 773f
000003b0: 98ab de3f cce6 bbbf 4456 9c3f d212 2a3f
000003c0: 5b8c 883f 44bb b33e 7b5d 873e ddda 30be
000003d0: 54d5 6f3e 9183 92bf 9498 b7bf 6c01 e53d
000003e0: f0ff 0340 9b61 dc3e 51f0 923f f929 fd3f
000003f0: 637a a8bf 136c 0840 fd9a bcbc 3379 a6bf

6 f4 [3]
0.073044494 2.3088174 -1.4196068
00000000: 5a98 953d aac3 1340 adb5 b5bf

7 f4 [5]
-2.177523 0.99559116 -0.81840724 0.29428813 -0.8504045
00000000: 895c 0bc0 10df 7e3f 2383 51bf efac 963e
00000010: 1cb4 59bf

weight f4 [2, 2]
-1.3194264 -1.6530149 0.9463685 1.0395691
00000000: f7e2 a8bf fe95 d3bf 3545 723f 9a10 853f

bias f4 [2]
-0.829023 1.7100452
00000000: da3a 54bf c3e2 da3f
