src/pytorch_extension/tbcnn_2019-02-04T15:34:52.721623.pt (torch_old, 40104 bytes, 10 tensors)

0 f4 [3, 74]
000000 d7 da 03 3e 98 99 70 3e e4 c3 2e 3f d5 ef fb be
       0.1287645 0.23496091 0.68267655 -0.49206415
000010 89 d5 b0 be a6 8a 17 3f d4 c5 14 3f 76 6b ae 3e
       -0.34537914 0.59195936 0.5811436 0.3406636
000020 8e 5c 8c bf 50 19 20 bf 9c 8c ed 3f ef cf 45 3c
       -1.0965745 -0.62538624 1.8558536 0.012073501
000030 71 24 9c bf 90 28 6c 3e e6 1a 22 3f b5 1a 30 3f
       -1.2198621 0.23062348 0.63322294 0.6879075
000040 f1 91 51 3e b0 2a d4 bf 16 40 97 bf b6 30 33 bf
       0.20465828 -1.6575527 -1.1816432 -0.699962
000050 7c eb cf 3d a0 7a 59 bf 18 88 8b 3f e0 f8 bf be
       0.10152337 -0.84952736 1.0900908 -0.37494564
000060 7e cd cf be 68 a7 bb bf c8 07 9a bf 0a bb c2 3f
       -0.40586466 -1.4660463 -1.2033625 1.521333
000070 5c 75 a8 3f 50 f8 98 bf cc ae 31 bf c6 b6 05 3d
       1.3160815 -1.1950779 -0.69407344 0.03264501
000080 9e 4f 8c bf 77 cb 02 3f 3b 63 81 3f e6 cd 88 bf
       -1.0961797 0.5109171 1.0108408 -1.0687835
000090 6c 7b 75 3f 3d 0d 0c 3f e9 5e 79 be c2 f6 f9 3f
       0.9589145 0.547077 -0.24352612 1.952843
0000a0 42 1c ed 3e f6 dd 3d bf 0a 05 62 3e 0a e8 dc 3e
       0.46310622 -0.7416681 0.22072235 0.43145782
0000b0 a1 78 0d bf a2 7c c7 3d 63 4d ab bf 4a d6 19 c0
       -0.5526219 0.09740569 -1.3382992 -2.4037042
0000c0 15 99 cf be 85 5a ea 3e ed da 82 bf f9 e0 9f bf
       -0.4054648 0.45772186 -1.0223061 -1.2490531
0000d0 98 81 50 bf 81 c1 91 bf 9d 67 f2 3d ac 8e 1a 3f
       -0.81447744 -1.1387178 0.11836169 0.6037395
0000e0 3b d8 12 3e f3 1d 4b be da 3e ca 3c ee 4f ab 3e
       0.14340298 -0.19835643 0.024688173 0.3345942
0000f0 fd ae 71 3f d1 d1 42 3c 6f 2e 88 3e 10 8b 9f bd
       0.94407636 0.011890844 0.26597926 -0.07790196
000100 24 cf 9e 3e a5 fa b4 3e 88 c3 48 3f 10 fb 4b bd
       0.3101741 0.35347477 0.78423357 -0.04979998
000110 ad ab 6a bf a0 9e 75 3f d1 c7 78 bf 25 79 aa 3b
       -0.91668206 0.9594517 -0.97179896 0.00520243
000120 b2 b2 74 bf 1e 9f c2 bf 61 19 98 bf 04 07 e2 3e
       -0.9558517 -1.5204809 -1.1882745 0.44145977
000130 9d cf 7b 3e 5f 47 0d bf dc 63 a1 3f c8 c0 0c 3f
       0.24590917 -0.5518703 1.26086 0.5498166
000140 69 8c 42 bf ca 8a 87 3f d0 76 23 bf f8 2d 78 3f
       -0.759955 1.058923 -0.6385317 0.9694514
000150 b7 71 15 40 bf 0d c0 be 08 c5 5e 3f 8a 08 bc bf
       2.3350656 -0.37510487 0.87019396 -1.4690106
000160 60 b5 b0 bf 7d 42 c8 3f 51 ad 39 3e 80 7a 7e 3f
       -1.3805351 1.5645291 0.18132521 0.9940567
000170 bd f8 c7 3f ed 92 d3 3f 3e 48 c4 bf 0a f5 85 3f
       1.5622784 1.6529213 -1.5334547 1.0465405
000180 80 b2 e8 bf 4a a1 32 3f c7 d6 7b be 4d d3 39 40
       -1.8179474 0.6977736 -0.2459365 2.9035218
000190 71 4e aa be aa e5 57 bd fd a6 16 bf ca e5 4f bf
       -0.3326297 -0.05270926 -0.58848554 -0.81210005
0001a0 0b 44 8b 3f a1 fa 3b bf 83 f5 ed bf bb d9 e0 be
       1.088014 -0.73429304 -1.8590549 -0.43916115
0001b0 c5 68 69 bf 22 8a 5a bf a3 67 b3 bf 5b cb 24 3e
       -0.9117549 -0.85367024 -1.4016002 0.16093199
0001c0 6f 20 df 3f 8e 2f 5e 3f 41 1e b6 be 09 25 57 3f
       1.7431773 0.8679131 -0.35569957 0.84040886
0001d0 ca b8 a7 bd 78 77 db 3d 3b dd 01 bf bd 2f d2 bf
       -0.081895426 0.10716146 -0.50728196 -1.6420819
0001e0 e0 7f 54 bf 4a 33 49 bf 1d c5 08 c0 ce 8c 8f 3f
       -0.8300762 -0.78593886 -2.1370308 1.1214845
0001f0 66 bc b0 3f 4f 93 a1 3b a2 11 05 bf 00 ab 9e be
       1.3807495 0.0049308906 -0.5198003 -0.30989838
000200 ca 12 8c 3f 22 30 57 bf 61 ef e5 be 0e 51 84 bf
       1.0943234 -0.8405782 -0.44909194 -1.0337236
000210 10 56 bc 3f 56 5e c8 bf 19 5c 7a 3f 99 06 27 3f
       1.4713764 -1.5653789 0.9779678 0.6524444
000220 c0 8b bc 3e 41 ab 8c 3f dc 4c d6 be 70 92 71 3f
       0.3682537 1.0989763 -0.41855514 0.9436407
000230 0f 07 3b 40 fd 0c 4d 3f 56 84 60 bf 4e 41 d2 3f
       2.9223058 0.80097944 -0.8770193 1.642618
000240 63 3a ca be 1d 4c 54 3f 9a ad 5e bf b1 63 f8 bf
       -0.3949767 0.8292864 -0.86983645 -1.9405423
000250 c3 ec 0d 3f bc eb de bd 70 d8 da bf e8 e5 be 3e
       0.55439395 -0.108848065 -1.7097301 0.3728478
000260 12 82 9f bf 25 a9 75 bf 3a 1b b4 3f c4 9c ef bf
       -1.2461569 -0.9596122 1.4070809 -1.8719716
000270 bc 19 e4 3f 39 c0 df 3e 03 57 3a bf 36 21 1e 3e
       1.7820354 0.43701342 -0.7278902 0.15442356
000280 08 99 99 3f e4 46 af 3e 87 b6 2d 3f dc 50 cc 3f
       1.1999826 0.34233773 0.6785664 1.5962176
000290 ad 8d ae 3f a6 43 b6 be e5 33 0c bf 65 e8 c6 3e
       1.3636986 -0.35598487 -0.54766685 0.38849178
0002a0 64 d4 ce bf 02 d3 86 bf eb 37 8c 3e 1b 3b 03 3e
       -1.6158566 -1.0533144 0.27386412 0.12815516
0002b0 bb 65 24 bf ce 76 e2 bf b5 92 2f 40 c7 47 f3 be
       -0.6421773 -1.7692506 2.7433293 -0.475157
0002c0 fe 0f f8 3e b4 da 7e 3f fa 96 4a 3f 75 77 fa 3f
       0.484497 0.99552464 0.7913662 1.9567705
0002d0 51 cb 04 40 b1 c8 aa 3f 33 28 05 bf c4 08 2a 3f
       2.0749094 1.3342496 -0.52014464 0.66419625
0002e0 8b e1 f1 be d5 46 1f bf 8a 9e 25 bf 74 85 a0 be
       -0.47242388 -0.62217456 -0.64695036 -0.31351817
0002f0 5e 5f 26 40 ab 98 00 40 04 8b ed be ed 35 44 3f
       2.5995708 2.009318 -0.46395123 0.76644784
000300 6b 1d bd 3e ae 7a 93 bf ea 6f 12 3e 0b 3c 56 bf
       0.36936507 -1.1521814 0.14300504 -0.8368537
000310 94 04 6f 3e 4b 89 89 3f f0 09 7c 3f f7 06 71 3f
       0.2334159 1.0745023 0.98452663 0.9415125
000320 62 a2 b5 3e 4e 0c 1b 3f 72 9c 1e be 7e 82 0a 3d
       0.3547545 0.6056565 -0.15489367 0.033815853
000330 2f d2 7c 3f 74 3d 5e bf ca 54 7c bf a2 e9 fb bc
       0.98758215 -0.8681252 -0.9856688 -0.030751053
000340 72 95 00 3f a5 80 67 bd c5 9a 62 3e 7f a5 c7 be
       0.50228035 -0.05651917 0.22129352 -0.3899345
000350 48 8d 8e bf c7 b0 ca 3f bb 6c 19 bf f6 83 88 3e
       -1.1136866 1.5835198 -0.59931535 0.26663178
000360 b5 6c 7b 3f 4f f0 86 3f 35 d7 5c be 89 b3 c7 3e
       0.9821275 1.0542086 -0.2156647 0.39004162
000370 1f 6e 78 3f ea 53 8c 3e
       0.9704303 0.2740777

1 f4 [5, 74]
000000 f0 f5 2e bf a9 54 2d bf 65 6f 9d 3f a4 c7 58 3f
       -0.6834402 -0.67707306 1.229962 0.8467963
000010 4b 7c dc 3e f0 f6 36 3f 3e 04 4b 3f c9 8e 8c be
       0.43063578 0.71470547 0.7930335 -0.27452686
000020 7f d4 2f 3f c5 e4 00 bf ec 7b c0 be 5a c7 65 3f
       0.6868362 -0.50349075 -0.37594545 0.8975731
000030 54 6a 7e 3f 20 5a 87 3e 71 f6 9b bf dd 05 95 be
       0.99380994 0.26435947 -1.2184583 -0.29106036
000040 1b b6 9c 3e b1 95 e6 bf 70 80 8d bf c1 51 8b bf
       0.30607685 -1.8014432 -1.1054821 -1.0884324
000050 48 59 23 bf ec 6c 12 3f 9b e7 c5 3f 6d f8 09 bf
       -0.6380811 0.5719745 1.5461305 -0.5389469
000060 de 77 28 3f b9 53 d3 bf a3 04 16 bf 39 69 01 40
       0.658079 -1.6509925 -0.58600825 2.0220473
000070 70 07 82 3f 9f 78 0e be bb 75 92 3f 4a 80 b3 be
       1.015852 -0.13913201 1.1442178 -0.35058814
000080 04 27 28 3f 62 94 bb be 8c 7c 19 bf f1 42 56 3f
       0.65684533 -0.36636645 -0.5995567 0.83695894
000090 22 0e 1f 3f eb 07 58 3f 48 ed c3 3e 59 1f 84 bf
       0.6213094 0.8438708 0.3826697 -1.0322067
0000a0 20 c1 a1 be 40 35 91 bd 98 c5 e0 be ba f9 7d 3f
       -0.31592655 -0.07090235 -0.43900752 0.9920918
0000b0 ff f3 24 be 51 cd fa 3f 0a c3 90 3f 7d 15 53 bf
       -0.16108702 1.9593908 1.1309521 -0.82454664
0000c0 8a e9 a9 bf 47 97 dc bf 93 2c eb 3f b8 5e 18 bf
       -1.3274395 -1.7233666 1.8372978 -0.5951953
0000d0 20 8b a0 bd 0d 2c aa bf 6a ae fb 3e 0d 05 48 be
       -0.07839036 -1.3294693 0.49156505 -0.19533177
0000e0 d1 46 a8 bf e3 49 e1 bf 98 e5 d4 bf bf 1c 4b bf
       -1.3146611 -1.7600673 -1.6632566 -0.7934074
0000f0 b8 f5 a1 be fd c8 7e bf 11 ef a2 be 26 40 c6 3f
       -0.3163278 -0.99525434 -0.31823018 1.5488327
000100 e7 d9 96 3f 69 7b 7a be fc 66 aa 3f 56 2d 57 bf
       1.1785249 -0.2446114 1.3312678 -0.8405355
000110 21 70 6a 3e 95 ae 79 bf 75 1b 89 3c b5 35 7d 3f
       0.22894336 -0.97532016 0.016736725 0.98910075
000120 19 9f 9d 3f 71 a2 b1 3f 42 e3 63 be be e9 90 3e
       1.2314178 1.3877698 -0.2225466 0.2830333
000130 53 a8 ac be 2f 89 c9 bd e3 ca 63 3f 39 62 90 3f
       -0.3372217 -0.09840619 0.88981456 1.1279975
000140 ab f6 fc 3e f3 df 07 3f d6 b9 5c 3e e4 df c6 bd
       0.49406943 0.53076094 0.21555266 -0.097106725
000150 75 0f 2d bd 22 f1 33 3d 66 8a d0 3f 77 7a 22 be
       -0.04225107 0.043931134 1.6292236 -0.15867029
000160 10 f5 b2 3f 9b 16 23 bf 02 4f 8e 3f 43 e9 49 3f
       1.3981037 -0.6370637 1.1117861 0.78871554
000170 b9 e3 53 bf a8 95 78 3f f8 ab 7e 3f 9d c5 45 be
       -0.8276935 0.9710336 0.99481153 -0.19313665
000180 6d 7d a9 3f b4 1f 80 bf fb f4 91 be d0 f0 b9 3e
       1.3241402 -1.0009675 -0.28507218 0.36316538
000190 27 5d e0 bf b2 56 82 bf 16 7d ff be 28 10 f8 bf
       -1.7528428 -1.0182707 -0.4990012 -1.937993
0001a0 d5 d3 93 3f e0 28 4f bf 56 8d 2e bf 49 a0 32 bf
       1.1549021 -0.80921745 -0.6818441 -0.69775826
0001b0 7e 01 f0 bf 11 78 3a c0 f4 8b 2a 3f fa 8a f4 be
       -1.8750455 -2.9135783 0.666198 -0.4776228
0001c0 d2 de 2f 3e 4c 8c 12 3e 17 57 23 bf e8 b5 bc 3d
       0.17174843 0.14311332 -0.63804764 0.09214383
0001d0 18 b6 7c 3e 4c d7 f4 be 4c bb 1b be 09 b9 88 bf
       0.24678838 -0.47820508 -0.15208167 -1.0681468
0001e0 86 37 94 bf 83 ea 03 c0 19 9d 97 bf da 41 c0 bf
       -1.1579444 -2.0611885 -1.1844817 -1.5020096
0001f0 64 cb 4d be 31 f6 db 3e 50 ae 49 3e d0 9e 77 bf
       -0.20097119 0.42961267 0.19695401 -0.96726704
000200 a7 f2 7c bf 49 06 35 be ca 89 d3 be 26 2d ed 3e
       -0.9880776 -0.17678179 -0.41316062 0.46323508
000210 bd c0 42 40 73 b3 33 bf 7c 9c ad 3f 8d a8 c5 be
       3.0430138 -0.7019569 1.356338 -0.38605157
000220 45 87 e0 3e 08 f8 95 bf 3a 0d c4 3f 8d b1 30 bf
       0.43853202 -1.1716318 1.5316536 -0.6902092
000230 22 31 93 bf 3b 94 1f 3f 38 db 96 3e 42 08 49 bf
       -1.1499369 0.62335557 0.29464126 -0.78528225
000240 d9 9c b5 3e 6b cb 20 3f 80 29 fa 3f ad 1c 5c 3e
       0.35471228 0.6281039 1.9543915 0.21495314
000250 32 e9 93 be 45 85 fe 3f fb 5e 60 3f 45 df d9 bf
       -0.2888885 1.9884421 0.8764493 -1.7021261
000260 ae 30 68 bf 63 39 80 3f 2d 86 73 be 4d 82 55 bf
       -0.9069928 1.0017513 -0.23781653 -0.8340195
000270 54 09 50 3f 9e ce cc bf 26 34 cb be b8 4a b3 3f
       0.81264234 -1.6000555 -0.39688224 1.4007177
000280 e5 df 85 3f 55 8e 95 3e 07 08 5c bf ee 9b dc bd
       1.0458952 0.29210153 -0.8594975 -0.10771929
000290 19 c4 1c bf 44 bf 89 3f 1b 10 f5 3e 77 7a 55 3f
       -0.6123672 1.0761495 0.4786385 0.8338999
0002a0 9a 02 79 bd dc c2 f8 bd 27 19 d1 3e 22 34 30 3f
       -0.060793497 -0.121465415 0.40839502 0.6882955
0002b0 9f 96 60 3d 32 f0 9b 3f 7c bf 37 3f ed 61 86 3e
       0.054831143 1.2182677 0.71776557 0.26246586
0002c0 0c 96 0d 3f 09 fd 53 3e a9 99 22 bf 55 e2 61 bf
       0.5530708 0.20701994 -0.63515717 -0.8823598
0002d0 0f 72 7f 3f a4 a9 79 3f ad 29 a9 be 0f 0a 95 3f
       0.99783415 0.97524476 -0.3303961 1.1643695
0002e0 7f ed d0 bf fe 54 84 3f 26 48 a1 3e 23 31 17 3f
       -1.6322478 1.0338438 0.31500357 0.5905935
0002f0 e3 47 2f 3f 2e 6e ea 3e 00 b0 db be ca 51 ff 3e
       0.68469065 0.45787185 -0.42907715 0.49867088
000300 66 7f b4 3c 1b c9 90 3f 5e 48 67 3f a6 9e c1 bd
       0.022033405 1.1311373 0.903448 -0.09454088
000310 4c 1e 8c 3f 8e 17 51 bd c7 75 62 bf bf 56 a2 bf
       1.0946746 -0.051047854 -0.88460964 -1.2682723
000320 14 63 12 bf ad d8 6c bf 3c 85 2c 3e 4a 74 1e be
       -0.5718243 -0.9251812 0.168477 -0.15474048
000330 22 e1 b7 be d6 a6 30 bf 17 e7 b6 3f da f7 96 3f
       -0.3591395 -0.6900457 1.4289273 1.1794388
000340 fd 6b a7 3d 91 2e 97 3e 7d ef a8 3f 6b d5 26 c0
       0.08174894 0.29527715 1.3198086 -2.606776
000350 a8 00 06 3e 99 a7 08 c0 82 91 7e 3f ef 90 93 3f
       0.13086188 -2.1352293 0.9944078 1.1528605
000360 ce 70 4e bf 23 aa d1 bf c6 fa 95 3e b1 8d 91 bf
       -0.80640876 -1.6380047 0.29292887 -1.1371366
000370 b2 95 ed bd cb 9d 93 3c 18 74 8f 3e cd bc 06 3f
       -0.11600818 0.018019577 0.2801826 0.5263184
000380 cf de 17 bf 0c 02 a7 3d 65 fb 7f 3e b6 e4 60 3c
       -0.59324354 0.08154687 0.24998243 0.013726404
000390 6f 55 d1 be b4 22 8e bf 76 c3 86 bf c4 ba 9a bf
       -0.40885493 -1.110434 -1.05284 -1.2088246
0003a0 7d e5 b3 bf fe c3 0d bf 03 f8 d8 be 99 26 78 3f
       -1.4054409 -0.55377185 -0.42376718 0.96933895
0003b0 13 af ba bf ad 14 b7 be 79 67 cc bd 2d b0 29 c0
       -1.4584678 -0.35757962 -0.09980673 -2.651378
0003c0 bb b0 31 3f 15 a4 6e 3f 80 f2 70 3f db fc 14 40
       0.69410294 0.9321912 0.94120026 2.327933
0003d0 48 fa d5 be c5 4e 88 3d 49 e1 4e 3e ac 63 d5 be
       -0.41792512 0.06655649 0.20203127 -0.41677606
0003e0 05 dc 52 bf 31 65 78 3f ac 06 db bf 8b df 88 bf
       -0.82366973 0.97029406 -1.7111411 -1.069322
0003f0 f3 be 1d 3f 22 0e 3a 3f 93 a2 c3 3e 65 c8 ae 3e
       0.6161949 0.72677815 0.38209972 0.34137264

2 f4 [3, 74]
000000 28 70 d9 3e 38 8d c4 3e 28 cf 6f bf 9e 91 90 3f
       0.4246838 0.3838899 -0.9367547 1.1294439
000010 3b ba 86 bf 7a 8b 40 bf e7 6e a8 be 4c b1 2a bf
       -1.0525583 -0.75212824 -0.32897112 -0.66676784
000020 16 9f 8e bf ee 47 ce be 6d 9a 18 3c 5f ca a3 be
       -1.1142299 -0.40289253 0.009314162 -0.31990334
000030 c3 89 cb bf 71 b5 6c be d3 a6 e9 3f 8f 4e ee bf
       -1.5901417 -0.2311609 1.8254036 -1.8617724
000040 0c 43 85 bf 5c d5 fd be 9a fc 56 bd 6d f8 0a be
       -1.0411086 -0.49576843 -0.052486993 -0.1357133
000050 c4 43 b3 3f 22 c3 d5 bf f6 0d 52 3f 72 f0 a6 3f
       1.4005055 -1.6700175 0.8205255 1.3042128
000060 da e3 0d c0 0c af b4 3f e4 6b ca 3f d1 a3 8a 3f
       -2.217032 1.411592 1.5814176 1.0831243
000070 db 58 2e bb 58 ec d1 be 27 87 72 3f 07 17 8d bd
       -0.0026603255 -0.41000628 0.94737476 -0.06889158
000080 ec f0 c8 3f 96 b6 30 be 20 09 3d bf 5f 16 b3 3f
       1.5698524 -0.17257151 -0.7384205 1.3991202
000090 fc f4 cf 3f 8e 30 75 3f d4 f6 63 be ef a7 90 be
       1.6246638 0.95777214 -0.22262126 -0.28253123
0000a0 26 a8 25 be ef ed 0c bf 43 02 26 3f 3c 1f 0f 3e
       -0.16177425 -0.5505056 0.648472 0.13976759
0000b0 4b 9e 19 bf a9 db 16 3f 51 cc 76 3e 77 f2 d7 3e
       -0.6000716 0.58928925 0.24101378 0.42177173
0000c0 f5 b5 20 bf d8 bb 0a bf a7 5d d1 3f 0e bd 8a 3f
       -0.62777644 -0.54192877 1.6356705 1.0838945
0000d0 e9 b8 d0 be 7a a5 8e bf 26 78 f0 be 66 7b 02 3e
       -0.40766075 -1.114425 -0.46966666 0.12742385
0000e0 c9 df 76 3f fb 26 7f 3e e3 53 1a 3f c7 06 f8 be
       0.9643522 0.24917214 0.6028425 -0.4844267
0000f0 51 7c 93 be 61 f1 a3 bd 2b ea 0c bd 57 6f 3e 3e
       -0.28805783 -0.08005024 -0.034403007 0.1859716
000100 57 1b 8d bf 58 75 f1 be 47 c7 87 bf 67 e8 c4 3f
       -1.1023968 -0.4715984 -1.060769 1.5383424
000110 6b 33 0a bf cc cc 83 bf d8 6f 72 bf d6 6e 26 3e
       -0.5398471 -1.0296874 -0.9470191 0.16253218
000120 d0 f6 86 bf 9d 3c 05 40 b8 cc a6 3f 7c d0 f2 be
       -1.0544071 2.0818245 1.3031225 -0.47424686
000130 bb 19 22 3f f9 0d 0f 40 41 de 27 bf ed 62 3b bf
       0.6332051 2.2352278 -0.6557351 -0.73197824
000140 5b 50 b6 bf eb 39 a4 be c9 e7 8b 3f 2e d9 a9 3f
       -1.4243273 -0.32075438 1.093011 1.3269403
000150 bd 51 cb be b6 70 f4 3f b0 c0 72 3f f8 ea e3 bc
       -0.397108 1.9096897 0.9482527 -0.027822003
000160 7d 9c 27 3d 59 7d 9d bf 3d 1a 01 3f 7f cf e5 3e
       0.040920723 -1.2303878 0.5043066 0.4488487
000170 94 32 f3 3e e0 f2 d8 bf 2a e3 96 3e 55 f6 aa 3e
       0.47499526 -1.694912 0.29470187 0.3339106
000180 0e ca 1c bf b5 b6 fc bf 20 68 06 c0 10 9d 92 bf
       -0.6124581 -1.9743258 -2.1001053 -1.1454182
000190 96 11 0b 3f 32 d5 b8 3f a3 49 72 3f 37 59 32 40
       0.5432371 1.4440062 0.9464361 2.7866952
0001a0 8e a5 76 3e da 3a 48 3d 3a f1 b8 3e 6d 71 9f bf
       0.24086592 0.04888425 0.3612154 -1.245649
0001b0 71 88 43 3e 2b df b1 bf c1 bd 7e 3f 76 60 8b bf
       0.19095017 -1.389623 0.9950829 -1.0888813
0001c0 0d 05 fa 3e 24 5e 06 3e 08 a0 60 bc 85 f4 55 bf
       0.48831978 0.1312185 -0.013710029 -0.8357623
0001d0 b6 a7 73 3f 68 94 1e bf b5 c2 91 be d6 a7 c2 bf
       0.9517778 -0.619452 -0.28468862 -1.520747
0001e0 4d 3e 93 bf ca 28 97 3f 38 e5 23 bf c4 0f ed bf
       -1.1503388 1.1809323 -0.64021635 -1.8520436
0001f0 84 7a 83 3f e8 0e 1b bd f8 ba 5b 3f 81 ae 9c 3e
       1.0271764 -0.037856013 0.85832167 0.30601886
000200 64 16 06 bf d4 f2 14 bf 1f 8a dc bf 44 f2 0c 3f
       -0.52377915 -0.58183026 -1.7229651 0.5505717
000210 21 fe 85 bd c7 52 26 3e 05 53 6f be e4 db b6 3e
       -0.06542612 0.16242515 -0.23371513 0.35714638
000220 5c 94 e3 3f 36 f6 8c 3f cf 1c 5a bf f4 62 15 3f
       1.7779651 1.1012638 -0.8520021 0.58354115
000230 a9 c3 1e bf 8f 87 48 be bf b1 d7 bd 1d 7a 14 40
       -0.62017304 -0.19582961 -0.10531949 2.3199532
000240 7e f2 9f 3e 25 ad 67 3f 71 86 24 be fb 40 e8 bf
       0.31239694 0.9049857 -0.1606691 -1.814483
000250 46 6d a5 3f 01 d3 44 3f de 27 67 be 42 c9 d7 bf
       1.2923973 0.76884466 -0.22573802 -1.6858294
000260 c4 fc 5a 3e c5 24 52 3f 76 f0 a1 3f 8f 25 12 bf
       0.21385485 0.82087356 1.2651508 -0.5708856
000270 00 de 90 bf 42 28 65 3f cf ec 33 40 50 c4 3a 3e
       -1.1317749 0.89514554 2.8113286 0.1823895
000280 f7 72 9a 3f 17 98 4b bf 6b b5 ab 3f 71 f5 b7 bf
       1.2066334 -0.79528946 1.3414739 -1.4371778
000290 b2 a0 84 3f a0 e8 e3 be 84 ea 92 3f 1d 84 fc 3e
       1.036154 -0.44513416 1.1477818 0.49319544
0002a0 20 77 64 3f d8 d2 96 3e 5c c2 fb 3f 5b 46 2f 3f
       0.8924427 0.29457736 1.9668689 0.6846673
0002b0 e2 6e a3 3f 22 42 ab bf 58 fe 80 bf 4d 3c f6 3f
       1.2768214 -1.3379557 -1.007762 1.9237152
0002c0 83 38 6c 3f 42 34 fe 3e ef 54 3e bf fa 30 58 3f
       0.9227373 0.49649245 -0.7434835 0.8444973
0002d0 84 8a 3d 3e e2 76 39 bf 8e 26 17 3f 0d 90 d6 3e
       0.18509871 -0.72447026 0.59043205 0.41906777
0002e0 5e b7 86 bf 33 ed 3a be 2e 04 74 be 0a 31 8a bf
       -1.0524709 -0.18254547 -0.2382972 -1.0796216
0002f0 9b cf a7 be 57 1d 4f be 02 2a 1f bf bf d2 fe be
       -0.32775578 -0.20226036 -0.62173474 -0.49770162
000300 69 95 b7 bf 98 21 89 3f 4d 17 53 bf ab b1 51 be
       -1.4342471 1.0713377 -0.8245743 -0.20477931
000310 84 4d 8c 3f c1 c0 d3 bf af 71 1d 40 88 ee 14 bd
       1.0961156 -1.6543199 2.4600637 -0.036360294
000320 20 4c e7 3e 04 c0 94 3f 40 01 06 c0 e2 61 03 bf
       0.45175266 1.1621099 -2.0938263 -0.5132123
000330 25 60 75 be 7d df 51 3f 12 e0 c7 3f 7d be d0 3f
       -0.23962457 0.8198164 1.5615256 1.6308132
000340 f7 25 af be a3 20 05 3f 4c 7f 96 bf b7 a6 13 bf
       -0.34208652 0.52002925 -1.1757598 -0.5767626
000350 86 1e ff 3f 1e 07 78 bd 85 69 f6 bf 82 4f 37 3f
       1.993119 -0.060553662 -1.9250952 0.71605694
000360 bb 43 15 40 8b 5a 78 3f 7c 85 8a bf 64 31 30 3d
       2.332259 0.9701316 -1.0821986 0.043015853
000370 2a 26 7b bf 6b e4 2b 3e
       -0.9810511 0.16786353

3 f4 [5, 74]
000000 e9 90 5f bf 9e 0e 97 3f 07 07 6c bf 47 e3 f9 bf
       -0.8733049 1.1801336 -0.9219822 -1.9522485
000010 fa ae 79 3e 82 af 40 3f 92 b3 ef be d8 60 df bd
       0.24383155 0.75267804 -0.4681669 -0.10907143
000020 cd 7d 95 3f 76 16 ee bf 03 cc db bf ec 73 c8 3f
       1.1679016 -1.8600605 -1.7171634 1.5660377
000030 df 6e 39 bf 17 9d f3 be 54 8f 02 3d 48 5e ec bf
       -0.724348 -0.47580788 0.03187497 -1.8466272
000040 a7 8c c8 3f 05 9a 41 3e ef 29 dc 3e a3 07 af be
       1.5667924 0.1890641 0.43000743 -0.34185514
000050 43 c0 a0 bf f8 0b ea be cd 68 83 be 8d cf f3 3f
       -1.2558674 -0.45712256 -0.25665894 1.9047714
000060 fc 9c fc be 63 96 2e 40 d7 1a 84 bf 0a f0 81 be
       -0.4933852 2.7279289 -1.0320691 -0.25378448
000070 32 eb ce be ed cc a2 bf c8 64 b9 bc cc 49 ff 3e
       -0.40413815 -1.2718788 -0.022631064 0.4986099
000080 03 64 12 bf 3c a3 cc 3e cf 8f 38 be db dd 87 bf
       -0.57183856 0.39968288 -0.18023609 -1.061458
000090 88 ed 7f 3d a9 d8 4c 3f 92 3f 87 3e ff 4e ac 3f
       0.062482387 0.800181 0.26415688 1.3461608
0000a0 f2 01 28 bd ca 52 0d bf 8f 7c 44 3f ed 82 b2 be
       -0.04101748 -0.5520445 0.7675256 -0.34865513
0000b0 88 b6 6e 3e ea 4b fe be 2e c7 00 3f 8e d6 00 40
       0.23311818 -0.49667293 0.50303924 2.0130954
0000c0 46 d5 7f bf f3 09 f9 3f 26 4e b8 3f 54 ce 0e bf
       -0.99934804 1.9456161 1.4398849 -0.5578358
0000d0 57 f0 9e 3f d1 33 f2 bd 5c 84 c0 bf d9 57 aa 3f
       1.2417096 -0.118262894 -1.5040393 1.3308059
0000e0 9d ed c3 bf 27 6a fa be 7b 3e 5c 3f 02 2d d5 be
       -1.5306889 -0.48909113 0.8603284 -0.416359
0000f0 59 d8 b2 3f 9d 77 a5 3f aa 44 a2 be 9d d3 99 be
       1.3972274 1.2927128 -0.31693012 -0.3004426
000100 a3 c0 1b be 8e d1 82 3d c1 2c e6 be d7 87 bd 3d
       -0.15210204 0.06387626 -0.4495602 0.09254425
000110 46 b8 97 3d 68 88 eb bd 60 61 19 bf d8 bb 24 3f
       0.07408194 -0.11500627 -0.5991421 0.64349127
000120 07 cf 47 bd 9b 53 63 3f a1 a2 60 3f 11 3a 77 3e
       -0.04878142 0.88799447 0.8774815 0.24143244
000130 e3 f2 cd be 00 cc ca 3e 55 15 9f 3e fa 4a ec 3f
       -0.4022437 0.39608765 0.31070963 1.8460381
000140 69 ef 2e 3f 9f 55 50 bf 34 5a 83 3f 2e 55 7e bf
       0.6833406 -0.8138065 1.0261903 -0.99348724
000150 52 d7 b3 3d 8b 9d b0 be 56 d1 97 3f 38 32 98 bf
       0.087813035 -0.34495196 1.1860759 -1.1890326
000160 e6 e8 0d 3f 5d 23 7d 3e a4 55 bc bf 71 63 33 3f
       0.554335 0.24720521 -1.4713635 0.7007361
000170 3d f2 bc 3f 15 b3 dc 3e 69 c4 a5 3d bd 54 46 bf
       1.4761425 0.4310538 0.08094103 -0.7747305
000180 70 1b 3b 3f 3d f9 47 3d 06 0b 18 40 6f 45 c6 bf
       0.7308874 0.048821677 2.3756728 -1.548994
000190 24 91 1e 40 30 5c e9 3e 1b ce 12 3f 33 45 90 bf
       2.4776087 0.45578146 0.5734574 -1.1271118
0001a0 39 f8 a4 3e ff 7e f6 3f 9e 58 49 bf 1f be 0a 40
       0.3222063 1.9257506 -0.78650844 2.167854
0001b0 01 e1 13 bf 1d 8e 6b bf 6e 9a 12 3f c6 14 1a bf
       -0.57765204 -0.9201372 0.5726689 -0.6018795
0001c0 48 25 94 bf 30 11 04 40 4f 60 f7 3e 16 6e 5e be
       -1.1573877 2.063549 0.48315665 -0.21721682
0001d0 2d 4a 79 3f de 24 2a be 88 9c 51 3e ce 60 dc 3d
       0.9737881 -0.16615626 0.20469868 0.107606515
0001e0 2d 6f 56 bf c1 19 3e 3f a9 7d 9b bd 23 61 a7 be
       -0.8376339 0.7425805 -0.07592327 -0.32691297
0001f0 f1 d3 70 3f f8 b3 70 3e 76 22 ae 3f 15 07 93 3f
       0.94073397 0.23506153 1.3604267 1.1486536
000200 4c 08 33 3e fe 98 43 be 93 d3 23 3f d8 19 c1 3e
       0.17483634 -0.1910133 0.6399471 0.3771503
000210 e1 49 a4 bf 30 ea 2b bd 13 78 a8 3f 38 16 16 be
       -1.2835046 -0.041971385 1.3161644 -0.14656913
000220 9e dc 8a bf 58 9b 6b bf cd 2a fd be 29 09 80 3e
       -1.0848577 -0.9203391 -0.49446717 0.2500699
000230 8a 43 e9 3f 4e 64 b4 3d 31 dd 2b 3f 6e 07 38 bf
       1.8223736 0.08808194 0.67134386 -0.71886337
000240 82 fd a2 3f 39 e4 23 3f 74 a5 85 3f b9 72 41 bf
       1.2733614 0.64020115 1.0441117 -0.7556568
000250 e0 92 5f be 93 13 15 bf 62 1d ef 3e ef be 5d 3f
       -0.21833372 -0.5823299 0.46702105 0.86619467
000260 18 44 32 bf 61 4d 03 bf 09 8b 0c bf 4d 1f f1 bf
       -0.6963515 -0.51289946 -0.5489965 -1.8837677
000270 e7 ec 36 bf ac d2 73 bf 90 b8 96 bf 30 e1 f8 3f
       -0.71455234 -0.95243335 -1.1775074 1.9443722
000280 04 31 25 bf 28 bb a4 3e 18 e6 4f bf 1a 33 0a 3f
       -0.64527917 0.3217404 -0.8121047 0.53984225
000290 ef c1 25 3f df 54 41 c0 cf a7 48 3f 70 eb bb 3e
       0.64749044 -3.0208051 0.78381056 0.36703062
0002a0 d8 9c 1b 3e da df 41 40 fb bf ea 3f ae a6 8a 3f
       0.1519655 3.0292878 1.8339838 1.0832117
0002b0 de 41 ba bd 39 4f 2c be c2 ea 9e bf e4 d1 32 be
       -0.090945944 -0.16827096 -1.2415392 -0.1746288
0002c0 b7 a3 90 3f a8 23 2a 3e 07 5b 02 3e 4b 36 ec 3c
       1.1299962 0.16615164 0.12730037 0.028834483
0002d0 66 d2 ea bf 5f fb 88 3e c4 07 31 3f 8e a4 9a bf
       -1.8345459 0.2675428 0.69152474 -1.2081468
0002e0 65 bf 36 c0 15 1a 04 40 cd fb 94 bf 2c f4 58 3f
       -2.8554318 2.064092 -1.1639344 0.84747577
0002f0 04 38 87 3f e0 e3 80 3f 42 ef 90 3f f1 9d 7a bf
       1.056397 1.0069542 1.1323016 -0.9789725
000300 ae 9e 88 be 0a b8 c5 bf 95 df 7c 3f c5 44 a3 bf
       -0.26683563 -1.5446789 0.9877866 -1.2755362
000310 92 f8 94 bc 6d d1 fe 3e 50 6d f0 bf 7c 6e 01 be
       -0.018184934 0.49769154 -1.878336 -0.12639803
000320 1f 64 af be 0a 47 cf be 24 f9 7c 3f 86 63 25 bf
       -0.34256074 -0.40483886 0.9881766 -0.64604986
000330 03 a1 aa bf 25 a2 08 c0 41 2b a6 be a0 9c 59 be
       -1.3330387 -2.1348965 -0.32454875 -0.21251154
000340 b3 cc 85 be ff 59 e8 bf c7 18 b5 be 70 56 1d bf
       -0.26132736 -1.8152465 -0.35370466 -0.6146002
000350 4b 10 a1 bf 24 53 c1 3e 7f 02 1e 40 db 63 18 bf
       -1.2583097 0.37758744 2.4689023 -0.5952737
000360 25 3f 7a bf 59 d9 87 3f 1c 96 fe 3f 09 7b d8 be
       -0.977526 1.0613204 1.988956 -0.42281368
000370 89 90 90 3f a8 3c 80 3e 34 96 c2 3f 70 5f 0c c0
       1.1294109 0.25046277 1.5202088 -2.193325
000380 ca ba 6d 3f ee 0b 87 bf d5 76 81 be a3 0a 58 be
       0.9286314 -1.0550516 -0.25285974 -0.21097808
000390 12 17 4f be 5c 05 a0 bf a9 92 b1 bd 61 45 17 bf
       -0.20223644 -1.2501636 -0.08670551 -0.5909024
0003a0 a1 5f 46 3f 1f ba d5 3e 58 1f bf be 7e ae 38 3d
       0.7748967 0.41743562 -0.373286 0.045088284
0003b0 bb 5e 4f 3f 26 70 8c 3f ae 56 91 bf 4d 82 d5 3e
       0.8100392 1.0971725 -1.1354578 0.41700974
0003c0 ab 0f de bb 52 3a 95 bf e8 55 43 3d 20 2e 1f 3e
       -0.00677677 -1.1658423 0.04768935 0.15544939
0003d0 91 0d a6 3d 5a 18 e0 bf 9f b4 a2 bf ce 5b db 3e
       0.08108056 -1.7507432 -1.2711371 0.4284348
0003e0 fb fa 87 bd 40 fa f0 bd a7 aa 05 40 ad 84 f7 bd
       -0.066396676 -0.117664814 2.0885408 -0.12085853
0003f0 e2 b0 d1 bc d9 79 a9 bf 2e e3 0a 3e fd 97 85 bf
       -0.02559704 -1.324031 0.13563225 -1.0437008

4 f4 [3, 74]
000000 34 a5 77 3f 63 1c 27 bf 7c 2f 82 3f 5e 7b 8f be
       0.96736455 -0.6527769 1.0170741 -0.2802381
000010 3e fc e5 bf 9e cf f5 3d d8 e0 c4 3e 90 94 b6 bf
       -1.7967603 0.120024905 0.38452792 -1.4264088
000020 76 16 28 be f9 2b 6c 3d 00 8b 2d bf 77 27 b9 3e
       -0.16414818 0.057659123 -0.6779022 0.36162922
000030 cd 3c a0 bf 9d 57 98 3f 66 47 ba bd 09 d8 f5 bd
       -1.2518555 1.1901737 -0.090956494 -0.12004096
000040 3c 63 02 c0 82 5f 3a bf c9 4e df 3e f3 4a d4 bf
       -2.0373068 -0.72801983 0.43614796 -1.6585373
000050 5c 2c 07 bd 67 dd a1 3f b4 2e 27 bf b6 ed 0b bf
       -0.03300129 1.2645692 -0.6530564 -0.54659593
000060 6d b7 d3 bd 2d ed f9 3f 5e 4a a6 bf f2 da 7f bd
       -0.1033772 1.9525505 -1.2991445 -0.062464662
000070 f9 d1 db 3d b5 46 a4 bd 40 ad f8 be 0b b1 d4 3e
       0.107334085 -0.08021299 -0.4856968 0.41541323
000080 1a 35 c1 3f 0b 7e c5 bf 6a 4a 40 3f 2b 32 c1 3f
       1.509433 -1.542909 0.75113547 1.5093435
000090 36 e4 49 3f d4 8d 05 40 de a7 cd 3e 5c 59 94 3f
       0.7886385 2.0867815 0.40167135 1.158977
0000a0 bf aa 26 40 e3 b6 8b bf ff 08 d9 be 6e 71 77 3e
       2.6041715 -1.0915188 -0.42389676 0.24164364
0000b0 19 86 ec 3e 58 5f b9 bf 30 e1 b6 bf 61 24 a5 3e
       0.46196058 -1.4482222 -1.4287472 0.32254317
0000c0 59 92 bf 3f fc 44 95 bf 04 44 cf 3e d3 02 5e 3e
       1.4966537 -1.1661677 0.4048158 0.21680765
0000d0 a0 82 d2 3f 9f 19 66 3e d7 c6 98 bf 00 b9 eb be
       1.6446114 0.22470711 -1.1935681 -0.4603958
0000e0 6c f1 ae 3d 8c 48 f0 be 16 6b 02 c0 5a dc 9a bf
       0.08542141 -0.4693035 -2.037786 -1.2098496
0000f0 cb 3a b4 bf 9d 60 4d be da 89 e0 3f e9 dd e3 3f
       -1.4080442 -0.20056386 1.7542069 1.7802097
000100 af f7 5f 3f f0 41 06 bf 69 aa e5 3e a4 de 8a bb
       0.8748731 -0.5244436 0.44856575 -0.0042379666
000110 9e fa a1 3e 80 25 3a bf 77 78 f4 be 4e f4 65 bf
       0.31636518 -0.7271347 -0.47748157 -0.89825904
000120 86 7f 81 3f 1a 75 6d bf cf 16 97 3e 4d ee a5 bd
       1.0117042 -0.9275681 0.2950959 -0.08102093
000130 86 6b d7 bf dc 81 dc be 9f d5 4d 3f d8 0a 96 3f
       -1.6829689 -0.43067825 0.80404085 1.1722059
000140 52 6d 88 bf 0b 12 96 3e 7c cb 30 bf 43 08 25 3d
       -1.0658362 0.2931064 -0.6906049 0.040291082
000150 80 33 b6 3e 31 d3 2e 3e b1 9d 3a 3f 9c 7b de 3f
       0.35586166 0.1707275 0.7289687 1.7381473
000160 bd b5 41 3f 8e c4 41 3f ea ab f1 bc 20 2e 9a 3f
       0.75667936 0.75690544 -0.02950092 1.2045326
000170 e2 52 2e 3f 43 5f 04 bf f6 1f 23 bf 9c f4 d2 3e
       0.6809522 -0.5170786 -0.63720644 0.41202247
000180 30 ec 31 c0 de ba b4 bf 62 a3 4e 3e 96 15 08 3d
       -2.7800407 -1.4119527 0.20179513 0.03322371
000190 f1 dc 1c bf 7a 88 e1 bf 42 68 59 bf 52 53 ef 3e
       -0.6127463 -1.7619774 -0.8492471 0.46743256
0001a0 d2 fc 68 3f 85 ee f2 3f 3e 29 40 3f 6a b0 ae bf
       0.91010773 1.897904 0.7506293 -1.3647587
0001b0 f7 e2 20 be 19 29 4c bd 5e 65 8f bf 5c 10 80 3d
       -0.1571158 -0.04984388 -1.120281 0.0625312
0001c0 c2 00 1a bf aa 3d be be 24 a5 4d bf 19 21 c2 be
       -0.60157406 -0.3715642 -0.8033011 -0.37915877
0001d0 ed 4c 02 3f 98 58 98 3f 6f 28 15 3e 3c 9c 12 c0
       0.5089863 1.1902037 0.14566205 -2.2907858
0001e0 6d fb 24 3c 0f 7f 18 bf 50 85 f6 bf 99 cd d6 3d
       0.01006971 -0.59568876 -1.9259434 0.104884334
0001f0 e3 f9 bc bf 11 3e 9f be 0f 79 0c c0 ff 6a c1 bf
       -1.4763759 -0.3110204 -2.1948888 -1.5110778
000200 b9 ac 15 3f 86 51 37 bf 3a eb 08 3e 4a f3 38 3f
       0.5846668 -0.7160877 0.13370982 0.7224623
000210 92 28 6f 3f 02 f0 2c be c5 51 8d 3f 40 27 17 3e
       0.9342128 -0.1688843 1.1040579 0.14761066
000220 2a fe 98 3e 75 81 4f be 58 5b 81 3f 99 e8 2f bf
       0.29881412 -0.20264228 1.0106001 -0.6871429
000230 d6 85 03 3f eb 50 56 3f f3 5b 42 bf 49 ef 54 bf
       0.5137609 0.8371722 -0.75921553 -0.8317762
000240 13 84 a9 3f d3 47 3c 3e 27 3d 8d 3f e1 58 0d bf
       1.3243431 0.18386774 1.1034287 -0.55213743
000250 36 15 46 bf ad 83 d4 3e 9c 24 fd be 9f 23 30 40
       -0.77376115 0.4150671 -0.49441993 2.7521741
000260 fa 3e 47 be e7 96 c8 bf e7 a8 1e bf b1 cd a4 be
       -0.19457617 -1.5671052 -0.61976475 -0.3218818
000270 14 76 40 be 1f 40 fc bf 40 d4 a7 bd c3 94 a8 3e
       -0.18795043 -1.9707068 -0.0819478 0.32925996
000280 b9 cf 8e 3f c7 e6 34 bf 9c 1a 9e 3e 8b 48 a0 3e
       1.1157142 -0.7066464 0.30879676 0.31305346
000290 16 fb 30 be 6d b6 31 bf 45 5b 67 3f 8d be 9e 3f
       -0.17283282 -0.69418985 0.9037364 1.2401901
0002a0 4d bc 0c be 5f 73 09 3f 6a 11 ec be c7 dc a2 3f
       -0.13743706 0.5369167 -0.46107036 1.2723626
0002b0 58 d6 8d be 35 51 8d 3f f6 ac 9c bf 84 12 c8 bf
       -0.27702594 1.1040407 -1.2240283 -1.563065
0002c0 5d 7c c3 be 60 e2 6e 3e c2 1f fc be 86 2f a3 bf
       -0.3818082 0.23328543 -0.4924298 -1.2748878
0002d0 5e 71 9c be 44 ce d2 be 62 9b 8b bd 7b 33 3a 3f
       -0.30555242 -0.41172993 -0.06816746 0.727348
0002e0 3a c2 54 3f 15 3e 05 bf 2f e0 f9 3e 13 5c a8 3f
       0.83108866 -0.52047855 0.4880385 1.3153099
0002f0 70 92 42 3c 9b 91 92 be fa 7e 71 be 94 c4 78 3e
       0.011875734 -0.28626713 -0.23583594 0.24293739
000300 7e f1 ae 3f 2f d0 06 3f f8 cc cf 3f 4e d1 4d 3e
       1.3667448 0.5266141 1.6234426 0.20099375
000310 8d 19 53 3e 6a cf f9 be e7 d8 4b bc 37 63 9b 3f
       0.20615216 -0.48791057 -0.01244185 1.2139653
000320 c2 be 31 3f e6 e7 05 3e 96 d1 b6 3e 37 87 74 bf
       0.694317 0.13076743 0.35706776 -0.9551882
000330 12 c0 33 bf 72 53 03 40 97 07 a7 bf c7 7f 07 c0
       -0.7021495 2.051968 -1.3049191 -2.117174
000340 bb 2f 9e 3f a8 55 ce 3e c2 63 5f 3f c3 d8 10 3f
       1.2358316 0.40299726 0.87261593 0.5658075
000350 44 72 4f be d4 87 d6 be a8 c0 07 3f bf 09 7f bf
       -0.20258433 -0.41900504 0.53028345 -0.99624246
000360 fd c3 b2 bf c6 34 8c bf 4c ea 39 3f 14 df 0c 3f
       -1.3966061 -1.0953605 0.72623134 0.5502789
000370 b3 4f de bd e4 62 5a 3f
       -0.10855045 0.85307145

5 f4 [5, 74]
000000 0a 90 b1 3f 0c c4 a9 bf 8e b4 e2 3f 2e 12 4e bd
       1.3872082 -1.3262954 1.7711351 -0.050310306
000010 60 ab 0c 3f c9 7c a1 bf d8 ae 30 3f 49 10 71 bf
       0.54949 -1.2616206 0.6901679 -0.94165474
000020 d4 42 3b 40 1f 4e b1 3f 46 64 6f 3f 95 30 d4 3e
       2.9259539 1.3851966 0.9351238 0.41443315
000030 37 f2 14 3f 3e 7c 87 bf ca 65 88 bf 22 31 de 3f
       0.5818209 -1.0584791 -1.0656064 1.7358744
000040 26 cd 8d 3e 3e 95 8f 3f 2b 48 ef 3e 32 f1 0c bf
       0.27695578 1.121742 0.46734747 -0.55055535
000050 b8 1e 96 3e 77 a7 50 bf d0 8e 40 3f 17 1b 5d bf
       0.29320312 -0.8150553 0.75217915 -0.8636946
000060 05 f7 ba bf 00 9f 18 c0 fb 4f 63 3f c5 4e 42 3f
       -1.4606634 -2.3847046 0.88793916 0.7590144
000070 e7 89 0f bf 80 75 36 c0 27 a2 15 c0 03 a7 36 3e
       -0.560698 -2.8509216 -2.338022 0.17837147
000080 60 43 13 c0 4c 7a 1d bf eb 1f bf be e4 f8 cb be
       -2.3009872 -0.61514735 -0.3732904 -0.39838326
000090 35 90 8a bf cd f7 04 40 d9 5f e0 3e f1 04 80 3f
       -1.0825258 2.0776246 0.43823126 1.0001508
0000a0 e5 46 60 be 14 9c e5 3f d5 85 3d bd 9b 02 53 3f
       -0.21902044 1.7938256 -0.04627021 0.8242585
0000b0 d6 3c b5 3d 7a af 89 be 55 a1 42 bf 9d bb 95 3f
       0.08849494 -0.2689169 -0.76027423 1.169788
0000c0 66 51 d7 be 15 7b 29 3f f8 63 5f bf 7a f9 cd 3d
       -0.4205429 0.66203433 -0.87261915 0.100573495
0000d0 40 2f f3 bf 86 e5 b5 bf 14 f3 17 bf b8 0f df be
       -1.8998795 -1.421067 -0.5935528 -0.4356668
0000e0 66 66 01 bf 50 86 d7 be af e7 11 3e 55 56 76 3e
       -0.5054687 -0.4209466 0.14248537 0.2405637
0000f0 2a 4c 46 bf 8e 35 04 3e 04 f5 0b 40 4e 04 de 3e
       -0.7745997 0.12911054 2.1868296 0.4336266
000100 cd be a7 3d 9c 61 9c 3f 39 f3 38 bf ed fe c1 3e
       0.08190689 1.2217288 -0.7224613 0.37889805
000110 17 25 4c bf 48 d0 0d 3f 34 fe 86 be 14 e5 32 3f
       -0.79744095 0.55395937 -0.26365817 0.69880795
000120 b5 eb 55 3f dd e9 c4 bf db b4 9b 3f b0 87 d9 bf
       0.83562785 -1.538387 1.2164568 -1.6994534
000130 82 bc ef 3e 32 43 42 3f 6c 1f a4 3f 8b 42 46 bf
       0.46823508 0.7588378 1.2822089 -0.77445287
000140 d7 65 72 bf b4 69 00 c0 c6 bc 56 bf 54 da 9e 3f
       -0.94686645 -2.0064516 -0.83881795 1.2410378
000150 60 a1 24 3f e1 16 9e bf f5 39 70 3f 0b 0f 9a 3e
       0.6430874 -1.2350732 0.93838435 0.30089602
000160 53 e0 aa be bb 2d 0b 3f 4d 27 69 3f 6e 57 a6 bf
       -0.3337427 0.54366654 0.91075593 -1.2995431
000170 fe 26 01 bf a4 25 c3 be cb d8 c9 be a1 3e d2 bf
       -0.5045012 -0.38114655 -0.39423212 -1.6425363
000180 56 80 8a bf a2 e9 21 c0 cb 63 29 3f 75 af c7 3f
       -1.0820415 -2.5298848 0.66167897 1.560042
000190 ce 5b 4e bf 49 03 87 be e5 9d f8 bd de 60 44 3f
       -0.8060883 -0.26369694 -0.12139491 0.7671031
0001a0 cc 89 cd 3e cc cf af 3e f5 2f bb be 17 5d 16 3f
       0.40144193 0.34338224 -0.36560026 0.58735794
0001b0 c8 48 55 bf 11 b3 16 40 f5 f5 6f 3f c2 19 1f 3f
       -0.8331418 2.3546793 0.93734676 0.6214868
0001c0 3f 62 d7 3f 2c b8 30 3f 6f 83 17 be 68 6e 41 bc
       1.6826857 0.69031024 -0.14796232 -0.011806108
0001d0 9b b8 ef 3f 3a 94 8a 3f 92 7a f4 be d3 c0 fa 3e
       1.8728212 1.0826485 -0.47749764 0.48975238
0001e0 38 a4 02 bf 19 fe 29 c0 9d f0 58 3e 7a 4d b0 be
       -0.5103183 -2.656134 0.21185537 -0.3443411
0001f0 a6 4e 58 bf d3 36 9a 3f 69 b8 1b be 9d df 82 bf
       -0.8449501 1.2047981 -0.15207066 -1.0224491
000200 ac 2a 82 3f e9 b3 26 be 9d 7e 1a be 80 bd b9 bf
       1.0169272 -0.16279568 -0.15087362 -1.4510956
000210 27 b3 73 3f 57 36 6d be 8d ac 42 3e 33 f8 f4 bd
       0.9519524 -0.2316526 0.19011135 -0.11961403
000220 21 2e 3c 3f 7d b8 97 3d 6c fa 30 3f cd d2 c7 be
       0.7350789 0.07408235 0.69132113 -0.39028016
000230 67 b2 ad 3e cf 6a d2 3f d6 db 21 be b2 c5 db bf
       0.33925173 1.6438845 -0.15806517 -1.7169707
000240 d6 71 ba 3f 09 af 9d 3e 32 7c 9c 3f ff 10 31 3e
       1.456599 0.30797604 1.2225401 0.1729164
000250 33 fd 44 3f 36 31 2e 3b 7b 4f 29 bf 8f e1 1c 3e
       0.7694885 0.0026579625 -0.661369 0.15320419
000260 ba 06 9d 3e 8e 52 0f 3d a9 00 76 3f 0b 6b 2a 3d
       0.30669194 0.03499084 0.9609476 0.04160599
000270 57 4b 83 bf 62 69 22 3f 82 7b 03 c0 e9 f5 99 bf
       -1.0257367 0.6344205 -2.0544133 -1.2028171
000280 7c 8a 65 3f e8 a2 70 3f 7b 49 12 bf 2f 87 cf 3e
       0.89664435 0.93998575 -0.5714337 0.40532824
000290 eb 25 3d bf a0 5d 9f be 8f f8 ef 3e f2 ca 82 bf
       -0.73885983 -0.31126118 0.46869323 -1.0218184
0002a0 60 67 08 c0 62 7d 70 3d 80 75 85 be 85 7a 28 3e
       -2.1313095 0.058713324 -0.26066208 0.16452987
0002b0 3b b5 5e bf e0 e8 a6 bd d1 8a d6 3e 0e c0 52 bf
       -0.86995286 -0.08149886 0.41902784 -0.823243
0002c0 6d bc 74 3f 9c 19 fc 3d b2 f7 73 bf 78 a7 b2 bf
       0.95600015 0.12309572 -0.9529983 -1.3957357
0002d0 c3 7d 72 bd b6 5f ff 3d 67 50 99 bf ef b8 35 bd
       -0.059201967 0.12469427 -1.1977662 -0.04436582
0002e0 47 97 e2 3d aa f1 f7 bd 77 38 97 3f 56 e8 e3 3e
       0.1106401 -0.12106641 1.1814107 0.44513196
0002f0 29 00 f5 3f 7f af 77 3f 8e 22 75 3f 07 6b 1d bc
       1.9140674 0.9675216 0.9575585 -0.009608037
000300 84 67 fc bf b3 02 09 be 30 c6 62 bf b8 5e a2 bd
       -1.971909 -0.13379936 -0.8858366 -0.079282224
000310 78 94 89 bf b4 16 48 3f 9d e9 08 bf 01 b3 8f 3f
       -1.0748434 0.7815964 -0.53481466 1.1226503
000320 3d e1 ba 3e 5e dd 9b 3d 06 87 04 40 a5 1d f0 be
       0.36499968 0.07610582 2.0707412 -0.46897617
000330 ea ef 97 3f e0 da 8e bf 66 8c dd 3e 84 ab c8 be
       1.1870091 -1.1160545 0.43271178 -0.39193356
000340 57 81 b1 bf 12 45 cf 3f 38 ac c9 3e 71 13 23 bf
       -1.3867596 1.6192954 0.39389205 -0.6370154
000350 bc 70 04 bf eb 54 87 be f2 a8 96 bf b2 f8 85 bf
       -0.5173452 -0.26431975 -1.1770308 -1.0466521
000360 9b 8d 6a 3f e3 b7 a1 bf fb 9c 6f bf 5d fc fa be
       0.9162232 -1.2634243 -0.9359891 -0.49020663
000370 77 57 18 3f ee bf 50 bf 44 b7 57 3d 34 76 57 bf
       0.5950846 -0.8154286 0.05266501 -0.8416474
000380 0a 05 66 3f 3d b1 99 3f 26 67 ae 3f 04 ad cc bf
       0.8985144 1.2007214 1.3625228 -1.59903
000390 14 f6 a1 bf c8 5e b9 3e 25 57 84 be 2d 64 a9 be
       -1.2653222 0.36205125 -0.25847736 -0.3308424
0003a0 c5 d3 a9 3f 30 1c ef 3f eb 0d 11 3f 53 71 85 3f
       1.3267752 1.8680477 0.5666186 1.0425209
0003b0 1d 98 a5 3e 9d 0a 3a c0 d3 3f 4c 3f 20 29 2d bf
       0.32342616 -2.9068978 0.7978489 -0.67640877
0003c0 b2 78 cd bb c1 72 f7 3e a7 b0 26 bf 1d 65 db 3f
       -0.0062704915 0.48329738 -0.651133 1.7140232
0003d0 ea 18 93 bf ee 2c 37 bf 94 f8 e4 3d cb c9 65 3f
       -1.1491978 -0.7155293 0.11180225 0.89761037
0003e0 f2 e1 02 be bf c3 a5 3e 70 ce ab bf d2 54 90 bf
       -0.12781504 0.32375905 -1.3422375 -1.1275885
0003f0 25 6b 3a 3f 7e 42 f4 bf 25 52 ac 3f e4 6d c6 bc
       0.7281974 -1.9082792 1.3462569 -0.024222322

6 f4 [3]
000000 0f 4e 95 3f 8c e0 48 bf 7d 1a 7d 3e
       1.1664447 -0.7846763 0.24717136

7 f4 [5]
000000 90 ab d0 3f e2 ed b7 3c c9 f4 dc be 1d 9e 19 3f
       1.6302357 0.022452299 -0.43155506 0.60006887
000010 22 6d 54 be
       -0.20744756

weight f4 [2, 2]
000000 01 07 ec bf e3 89 82 bf 64 e4 56 3f 3b 75 8d 3f
       -1.8439637 -1.019833 0.83942246 1.1051401

bias f4 [2]
000000 b6 bd 2d bf 06 cb b7 3f
       -0.678676 1.4358833
