src/pytorch_extension/tbcnn_2019-02-04T16:31:55.260679.pt (torch_old, 26392 bytes, 10 tensors)

0 f4 [3, 74]
0.09136586 0.8227031 1.295346 -0.5878561 -0.16464922 -0.75645477 0.22467177 -0.5829483
-2.2017612 -0.017467473 0.6621108 1.0439026 0.45484966 -0.55046654 -0.86128426 -0.1849447
0.64657414 -1.4713665 -0.9947459 -0.32418504 0.37113836 -0.9925271 2.0677114 0.31950375
0.37713507 0.2690415 0.5334893 -1.1838759 -0.8458059 -1.6368146 -0.4079026 -1.0081104
-0.80497044 0.12381438 -1.0668948 -1.3557582 -1.4601864 0.40849978 1.462989 -0.21619584
0.34621868 1.7061439 -1.3768914 -1.2554623 -0.63666457 0.83306676 -0.75372845 -0.45070347
-0.37292576 -1.0793811 0.66706866 1.0012048 0.96146053 1.1647503 0.5407279 -0.3685216
-0.42645836 0.4036128 0.7564306 -1.7972009 -0.50670403 1.683421 -0.4255837 -2.1707296
0.7817261 0.698606 -0.50917214 -0.96529144 0.65470374 -2.0570347 0.43686613 0.58795077
-1.4421487 -0.6181718 -0.50469327 -0.5163565 1.6609125 -0.9885593 0.4942453 0.8057461
-0.59200513 0.25938776 0.54259074 -1.2443569 1.238528 -0.7949461 -3.5439322 -0.48072323
0.6449341 -1.0519495 -1.332514 0.9344323 1.3574078 1.5623674 -0.24210288 -0.2136109
0.8587267 -1.625052 -0.29364792 -0.2077782 -0.3909362 0.13069758 0.43060344 -1.7680973
-1.7241023 -0.26771253 -1.0675812 1.5786128 0.5554307 0.98338896 0.78494024 -3.2162137
-0.34903693 -0.07805346 0.7342501 1.0455737 0.14788644 0.47608235 -0.037259903 1.1070547
0.25340852 0.9548591 -0.4710972 -0.43197498 0.49726468 -0.3373772 0.8306359 1.8423856
-0.33835366 -0.79387474 -0.32606652 1.3368889 0.38535058 -0.123144485 1.330059 -0.4306468
-0.5431695 1.2382102 0.24350499 -0.27835575 -0.50543004 -0.06640381 -0.58819646 0.24588768
0.9122512 -1.7639136 -0.96835935 0.3520038 -0.1428281 -0.58868444 -1.8045853 0.6899327
-1.2830558 -0.3781912 -0.22718002 0.05991383 -0.35868958 0.28971797 0.5558893 -1.4228475
-0.35041797 -1.0583302 -0.5754795 -1.1422303 -0.4879226 1.0903782 0.97440636 -1.3753788
0.25396436 -0.5577813 -1.1626018 -1.3190222 -1.0469192 0.39793587 -0.41932967 0.13173574
0.27103877 -0.9753772 0.01801381 0.8807472 0.41569307 1.3568735 -1.7387495 -0.21556865
-0.4506628 1.0779423 0.13690916 -0.7610409 0.9927776 0.490887 1.5321317 -0.5751681
0.24042921 0.9780831 0.57927215 1.6834458 1.1265502 -1.1874192 -1.875781 -1.2985995
2.7534623 1.2742523 -0.47811782 1.3590095 2.0717607 0.19224498 -1.0007343 1.1833638
0.9594113 0.9516331 -0.3156521 -0.48511443 0.4696866 0.8381889 -0.44981253 -0.7446032
0.9248328 -0.1471483 -1.0998088 0.84637046 -0.40893257 0.763547
00000000: 061e bb3d ac9c 523f e6cd a53f bd7d 16bf
00000010: ce99 28be 05a7 41bf 5b10 663e 1a3c 15bf
00000020: a8e9 0cc0 f217 8fbc 1880 293f 9a9e 853f
00000030: 0ee2 e83e 60eb 0cbf 207d 5cbf 2562 3dbe
00000040: e285 253f bd55 bcbf aba7 7ebf 95fb a5be
00000050: d905 be3e 4216 7ebf 6255 0440 ff95 a33e
00000060: d917 c13e cfbf 893e c192 083f 3f89 97bf
00000070: bc86 58bf 2483 d1bf 9cd8 d0be c309 81bf
00000080: 8b12 4ebf 6592 fd3d 0290 88bf 7c89 adbf
00000090: 63e7 babf e226 d13e 3943 bb3f 7162 5dbe
000000a0: 9343 b13e ec62 da3f fa3d b0bf fdb2 a0bf
000000b0: 73fc 22bf dd43 553f 59f4 40bf 9bc2 e6be
000000c0: 20f0 bebe 2929 8abf 03c5 2a3f 7b27 803f
000000d0: 4722 763f 8a16 953f 256d 0a3f ddae bcbe
000000e0: c058 dabe 56a6 ce3e 70a5 413f ae0a e6bf
000000f0: 5bb7 01bf 577a d73f 1be6 d9be 3ced 0ac0
00000100: 341f 483f d8d7 323f 1b59 02bf 571d 77bf
00000110: aa9a 273f 75a6 03c0 ebac df3e f183 163f
00000120: 5498 b8bf 8240 1ebf 9433 01bf f12f 04bf
00000130: c898 d43f 3912 7dbf b80d fd3e 6045 4e3f
00000140: a68d 17bf 79ce 843e 3ae7 0a3f 1647 9fbf
00000150: 1688 9e3f 9681 4bbf c9cf 62c0 5b21 f6be
00000160: 671a 253f 48a6 86bf d28f aabf f536 6f3f
00000170: 8abf ad3f a8fb c73f d1e9 77be d1bc 5abe
00000180: 83d5 5b3f b401 d0bf 0559 96be cfc3 54be
00000190: ca28 c8be 96d5 053e 0e78 dc3e 0351 e2bf
000001a0: 62af dcbf 9e11 89be 80a6 88bf fc0f ca3f
000001b0: b530 0e3f 61bf 7b3f d8f1 483f 72d6 4dc0
000001c0: f8b4 b2be 7eda 9fbd d1f7 3b3f 5cd5 853f
000001d0: 8b6f 173e 11c1 f33e d79d 18bd f8b3 8d3f
000001e0: c3be 813e a571 743f a733 f1be d32b ddbe
000001f0: 7a99 fe3e b4bc acbe 8ea4 543f 4bd3 eb3f
00000200: b13c adbe 603b 4bbf 31f2 a6be 2d1f ab3f
00000210: ac4c c53e 2d33 fcbd 603f aa3f bd7d dcbe
00000220: 280d 0bbf ac7d 9e3f 5f59 793e a584 8ebe
00000230: dd63 01bf b9fe 87bd 0b94 16bf fbc9 7b3e
00000240: 4b89 693f ecc7 e1bf 66e6 77bf d839 b43e
00000250: 8841 12be 06b4 16bf a7fc e6bf 6e9f 303f
00000260: 2c3b a4bf 47a2 c1be e1a1 68be 3468 753d
00000270: 29a6 b7be ea55 943e c34e 0e3f de1f b6bf
00000280: fc69 b3be 5d77 87bf a052 13bf 9a34 92bf
00000290: fed0 f9be 8391 8b3f b272 793f 6a0c b0bf
000002a0: 9e07 823e c1ca 0ebf 23d0 94bf b8d5 a8bf
000002b0: 7301 86bf 40be cb3e 61b2 d6be bce5 063e
000002c0: 98c5 8a3e 52b2 79bf b391 933c a678 613f
000002d0: b9d5 d43e 08ae ad3f 588f debf 07be 5cbe
000002e0: 46bd e6be 03fa 893f ea31 0c3e 94d3 42bf
000002f0: ac26 7e3f 8a55 fb3e e41c c43f 373e 13bf
00000300: 1333 763e a763 7a3f 2e4b 143f 277b d73f
00000310: cc32 903f 5afd 97bf 9819 f0bf 8238 a6bf
00000320: ba38 3040 b31a a33f dccb f4be 06f4 ad3f
00000330: ba97 0440 dedb 443e 1018 80bf 7778 973f
00000340: fb9b 753f 3a9e 733f 279d a1be eb60 f8be
00000350: c37a f03e 8c93 563f d44d e6be 519e 3ebf
00000360: d8c1 6c3f 0bae 16be 89c6 8cbf bcab 583f
00000370: 9c5f d1be d177 433f

1 f4 [5, 74]
-1.3228462 -1.8744932 0.105012536 1.4987924 -0.063928165 -1.1876673 0.32336634 1.5500549
0.24303898 0.74888927 1.5059536 0.22502692 -1.6613066 0.1936843 -0.32790896 0.7327101
-1.8116187 0.97732186 0.24431053 -0.8253201 0.38230956 0.6818186 0.7870601 -1.5820726
0.0028427648 -0.76696146 1.242629 1.1149294 -0.36884153 -0.57842976 -1.0275291 0.21465427
0.23984478 -0.72589654 -0.061613403 1.4106014 -0.61910653 0.6825354 -2.3446522 0.9706277
-0.32659695 0.8302943 -1.0164034 1.090623 -0.043238264 0.037676383 -0.40344226 -1.0708227
0.43298712 -0.39408928 -0.021674309 0.5294003 0.63510394 2.7158763 0.2896593 -1.8641688
-0.31791654 -1.0459905 -0.39127895 -2.1049547 -0.0014835105 1.0030291 1.1629145 -1.3616142
0.49948335 -0.67554396 0.80947995 0.9719181 -1.6706661 -1.2411267 -0.86381334 0.6674726
-0.86013466 1.4606242 -0.020392168 -1.8541006 0.15219341 -0.5430133 0.054316904 0.61361253
1.044221 -0.21482578 -0.19428723 0.96319824 0.75108236 -0.39509037 0.23694792 -0.17024124
0.3499049 2.1947777 0.9825448 -1.8072251 -0.7762154 1.1224905 -1.0227395 0.009381919
-0.42668682 0.9545517 -2.3639145 0.9558192 0.6211938 0.6392963 0.7634497 -0.7071721
0.81348556 -2.749156 -0.023070825 -2.3935578 -0.97373694 -0.29497987 -0.14280236 -1.1551514
0.36344784 -0.81760246 0.96945345 0.9127254 -1.1475722 0.23610204 0.8608651 -1.0838693
0.53488624 -0.28543302 1.5435278 -0.25338852 0.21669757 1.0186977 1.4453282 -2.5286841
-0.21125385 0.3492973 -0.82523453 -0.24639684 0.23685049 -0.17481695 1.2427515 0.4170564
-0.8882869 0.7467084 -0.2358324 -1.0633119 0.20856036 0.27061185 0.2032138 2.6048632
-1.3252598 -0.7427895 -0.13928628 -0.33832383 -1.5784798 1.5355836 0.09646249 -0.24627775
1.1878556 0.43565527 -1.9994336 0.5174827 -1.0891029 2.2436116 -0.5111125 0.32260147
0.51517695 1.9326248 -0.5232494 0.82810473 0.28740588 0.46302775 1.5911632 0.87069505
0.21528679 0.52139854 -0.18668626 0.68377966 -1.0433484 2.0453706 0.08143363 0.014563828
0.53446704 1.154447 -1.3126575 1.1166357 0.8385477 -2.1471698 -0.15362725 -1.7720817
-0.101607695 1.4841 -0.964689 0.07986875 1.1326267 1.229364 0.14718017 0.11764292
-0.36033154 0.63499707 -1.0167587 0.13360517 -0.14968503 -1.3231655 1.3468732 0.55412424
0.15127416 0.18188846 0.28270513 0.06167374 1.0970877 1.4876546 -0.39165863 -0.39641595
-0.2720118 0.1549367 -1.1964 -0.3082725 -0.39236295 0.5244815 -0.04276321 0.21658888
0.7580231 -1.4795548 0.14324377 -0.04070466 1.316355 -0.47828218 0.13218841 -0.8424785
-2.6306415 -1.2229327 -0.74060595 1.087614 0.7045432 0.35933575 -3.308818 -0.19499536
1.6433263 -0.3422749 0.60805106 -0.5060043 0.363578 0.010067001 -0.500621 2.060893
-0.35502803 -0.6876264 -0.9144976 -0.75463635 0.0792925 -0.10743278 -0.16060044 -1.195847
0.998728 -0.4742019 -0.16854037 -1.2293097 0.7593672 0.50216925 -1.3461317 0.82982445
00000000: 0653 a9bf 65ef efbf d010 d73d 6ed8 bf3f
00000010: c5ec 82bd 7b05 98bf 4690 a53e 3368 c63f
00000020: 36df 783e 35b7 3f3f 16c3 c03f 756d 663e
00000030: b2a5 d4bf 2d55 463e afe3 a7be e492 3b3f
00000040: 1fe3 e7bf c431 7a3f 8a2c 7a3e 2e48 53bf
00000050: 14be c33e aa8b 2e3f c57c 493f 5b81 cabf
00000060: ae4d 3a3b 9657 44bf 780e 9f3f 02b6 8e3f
00000070: ccd8 bcbe f913 14bf 1386 83bf 54ce 5b3e
00000080: df99 753e 5bd4 39bf 565e 7cbd 968e b43f
00000090: c47d 1ebf a4ba 2e3f c80e 16c0 0f7b 783f
000000a0: b737 a7be 2b8e 543f 8219 82bf 8999 8b3f
000000b0: 9b1a 31bd 8d52 1a3d fc8f cebe b810 89bf
000000c0: 7db0 dd3e 12c6 c9be 528e b1bc c786 073f
000000d0: 2c96 223f ebd0 2d40 394e 943e 159d eebf
000000e0: f5c5 a2be 04e3 85bf b755 c8be 94b7 06c0
000000f0: 5a72 c2ba 4263 803f 62da 943f 6049 aebf
00000100: 48bc ff3e 73f0 2cbf 143a 4f3f a0cf 783f
00000110: 63d8 d5bf 3ddd 9ebf df22 5dbf 7cdf 2a3f
00000120: c931 5cbf bcf5 ba3f 7a0d a7bc 2b53 edbf
00000130: 97d8 1b3e eb02 0bbf 677b 5e3d b615 1d3f
00000140: 09a9 853f 4afb 5bbe 3bf3 46be 2994 763f
00000150: ef46 403f 4949 cabe 7aa2 723e b853 2ebe
00000160: bc26 b33e 3d77 0c40 0e88 7b3f 2753 e7bf
00000170: 0db6 46bf c5ad 8f3f 21e9 82bf 9fb6 193c
00000180: b276 dabe 805d 743f 604a 17c0 91b0 743f
00000190: 8f06 1f3f eca8 233f 7171 433f 3b09 35bf
000001a0: 9740 503f 2cf2 2fc0 07ff bcbc 0d30 19c0
000001b0: d346 79bf 9a07 97be c83a 12be 00dc 93bf
000001c0: d615 ba3e 654e 51bf 1a2e 783f 5fa8 693f
000001d0: a5e3 92bf bcc4 713e a861 5c3f 3bbc 8abf
000001e0: 4eee 083f 4724 92be 5292 c53f 24bc 81be
000001f0: f8e5 5d3e b064 823f 8400 b93f f6d5 21c0
00000200: ee52 58be 19d7 b23e 9242 53bf 744f 7cbe
00000210: ef88 723e 3703 33be 7b12 9f3f 6b88 d53e
00000220: c566 63bf 4828 3f3f 0c7e 71be 9b1a 88bf
00000230: d990 553e a38d 8a3e 4717 503e 14b6 2640
00000240: 1da2 a9bf 7427 3ebf 10a1 0ebe c838 adbe
00000250: a00b cabf 018e c43f 208e c53d 3c30 7cbe
00000260: a70b 983f 350e df3e 71ed ffbf bf79 043f
00000270: b967 8bbf 5597 0f40 45d8 02bf 052c a53e
00000280: a3e2 033f 4060 f73f acf3 05bf acfe 533f
00000290: dd26 933e f911 ed3e 3cab cb3f dfe5 5e3f
000002a0: 2474 5c3e 607a 053f af2a 3fbe 2f0c 2f3f
000002b0: 718c 85bf 5ae7 0240 adc6 a63d 1f9d 6e3c
000002c0: d5d2 083f ebc4 933f 2905 a8bf ebed 8e3f
000002d0: 10ab 563f 3b6b 09c0 7650 1dbe 93d3 e2bf
000002e0: b217 d0bd fdf6 bd3f dcf5 76bf 3a92 a33d
000002f0: e9f9 903f cd5b 9d3f 66b6 163e c5ee f03d
00000300: 607d b8be 2b8f 223f 2625 82bf cbcf 083e
00000310: 0847 19be 7d5d a9bf 5766 ac3f 16db 0d3f
00000320: 9de7 1a3e f840 3a3e babe 903e 9b9d 7c3d
00000330: 5f6d 8c3f 776b be3f 7b87 c8be 08f7 cabe
00000340: 2145 8bbe baa7 1e3e a323 99bf e5d5 9dbe
00000350: cce3 c8be 6b44 063f 7a28 2fbd 7ac9 5d3e
00000360: cd0d 423f 0d62 bdbf 7fae 123e eeb9 26bd
00000370: 527e a83f 67e1 f4be 665c 073e acac 57bf
00000380: 6e5c 28c0 0f89 9cbf 5a98 3dbf f036 8b3f
00000390: f15c 343f dbfa b73e adc3 53c0 ddac 47be
000003a0: 8458 d23f a83e afbe 3ca9 1b3f 7f89 01bf
000003b0: e526 ba3e 10f0 243c b328 00bf ace5 0340
000003c0: 3cc6 b5be 4908 30bf 841c 6abf d92f 41bf
000003d0: 1b64 a23d b805 dcbd 7174 24be 8411 99bf
000003e0: a3ac 7f3f 97ca f2be d995 2cbe 055a 9dbf
000003f0: e465 423f 2a8e 003f 0b4e acbf 606f 543f

2 f4 [3, 74]
-0.32586327 -0.58595246 0.48684752 -0.67556465 -0.5051819 -0.19899598 -0.35291174 3.4721093
0.11317941 -0.7520628 -0.17924362 -0.5355796 0.6531184 -0.76632404 0.7568102 -0.3921513
0.37686294 -2.8026104 -1.8555973 -0.58199376 -0.5605106 -0.57562673 1.440185 -1.8076578
-0.9162577 -0.16030954 1.4154674 -0.25705463 -1.2291766 -0.24840423 1.7482916 -0.6884983
0.3592584 0.31065008 -0.7999424 -2.7352166 1.2385589 -0.79280746 -1.0404563 -0.75045663
1.3180436 0.61525196 -0.41428432 0.80723524 0.109564975 -1.812104 0.72592515 -0.33212385
0.16044137 0.78138345 0.7937429 -1.0147705 -0.9890541 -0.8711759 -1.0859805 -1.1630533
0.82838595 -0.56649673 1.7784092 0.45112428 0.81538427 -1.0111458 -0.0086375205 1.0200565
0.71976376 0.0957172 -0.9479268 -0.84466416 -1.7373022 -1.2375538 -1.3634158 -0.35026407
0.004505697 1.3653642 -0.1325159 -0.7078717 -1.7620546 -1.0277332 -0.23943017 0.42235747
0.5951632 0.7243325 1.3112327 -0.59652287 0.96981823 1.4701289 -1.5813372 -0.0051784962
0.7505613 -1.1410004 0.26664197 0.7671838 -0.80145335 -0.40284705 -2.939687 -0.012304837
-2.341847 1.0898395 -1.5403639 1.0359778 0.00075919204 0.72508425 0.6921666 -1.4781761
0.183587 -0.09524209 -2.1933107 1.4404413 2.3739972 -1.3113128 -0.4373642 -0.5761383
1.092608 -0.35985023 -0.8127617 -0.03454191 -1.5106314 -0.65488195 1.1039255 -1.9543086
0.44143546 0.8905493 -0.3182668 -0.4137206 1.1585076 -2.2586555 0.93367714 1.3678359
0.55390847 1.0709339 0.33069247 0.46744278 0.0642316 -1.4318619 0.56370926 1.6941162
-0.25109997 -1.532099 -2.026352 0.24470893 -0.6705159 0.6970333 -2.8910396 -1.258075
-0.0066668936 -1.2679834 0.6729642 0.808507 0.53693795 0.29029685 -0.78400856 0.68674713
-1.128712 0.7732562 -1.7957501 -1.4830147 0.33995306 0.76045895 -0.059086822 -1.1291454
0.96339464 -1.0196705 -1.3026845 -0.38719857 -0.29075584 0.98181534 -0.083219334 2.691547
0.9229402 0.66859335 1.5827973 0.10056703 -0.17549157 -1.6054581 0.07779045 2.202853
0.3377406 0.30515763 0.05424916 0.6324644 -0.35092333 0.7232877 -1.1836165 0.0930049
1.9892144 -1.8483214 1.680374 0.33610213 0.9639062 1.3349979 -0.26597762 -0.23334455
-1.3596104 -1.6733476 0.18739735 -1.5721703 0.58871853 -0.088828824 -0.03263884 -1.4430304
-0.8687922 0.5237285 -0.73269475 1.1759548 -0.9339643 -0.7162334 0.7044965 -0.19888933
0.46895644 -0.1270106 2.161294 -0.46542147 -0.050282203 -0.37324125 0.74528134 0.37696967
0.79640436 -0.33775583 -0.4146699 0.20089282 1.003847 -0.3954449
00000000: 8dd7 a6be fb00 16bf 1444 f93e cef1 2cbf
00000010: 9a53 01bf 9ac5 4bbe d9b0 b4be 0a37 5e40
00000020: 9bca e73d 3087 40bf a48b 37be bf1b 09bf
00000030: c432 273f d02d 44bf 50be 413f 0ec8 c8be
00000040: 2ef4 c03e f85d 33c0 3684 edbf 8bfd 14bf
00000050: 9f7d 0fbf 465c 13bf fb57 b83f 5561 e7bf
00000060: dd8f 6abf 2f28 24be 092e b53f aa9c 83be
00000070: a955 9dbf ae5d 7ebe 05c8 df3f 6d41 30bf
00000080: b8f0 b73e 870d 9f3e 06c9 4cbf ca0d 2fc0
00000090: 1989 9e3f 6ef5 4abf ac2d 85bf ed1d 40bf
000000a0: a7b5 a83f 2781 1d3f 131d d4be f8a6 4e3f
000000b0: 9a63 e03d 06f3 e7bf 3bd6 393f 230c aabe
000000c0: be4a 243e bf08 483f bc32 4b3f 00e4 81bf
000000d0: a632 7dbf 6205 5fbf 6901 8bbf eede 94bf
000000e0: 1a11 543f ee05 11bf eaa2 e33f c3f9 e63e
000000f0: 06bd 503f 3a6d 81bf 6384 0dbc 3691 823f
00000100: 7042 383f 6107 c43d 55ab 72bf e93b 58bf
00000110: eb5f debf 2a68 9ebf 6984 aebf d055 b3be
00000120: 87a4 933b 41c4 ae3f 40b2 07be 1437 35bf
00000130: 018b e1bf c38c 83bf 2f2d 75be 3d3f d83e
00000140: 9e5c 183f db6d 393f 79d6 a73f b9b5 18bf
00000150: 0246 783f 2f2d bc3f 4269 cabf 60b0 a9bb
00000160: c924 403f 4d0c 92bf 4c85 883e 2866 443f
00000170: 0c2c 4dbf f841 cebe d523 3cc0 3a9a 49bc
00000180: d2e0 15c0 dc7f 8b3f a52a c5bf ec9a 843f
00000190: 8404 473a 1f9f 393f d531 313f e034 bdbf
000001a0: 3bfe 3b3e 490e c3bd 345f 0cc0 6160 b83f
000001b0: 92ef 1740 19d9 a7bf 33ee dfbe cd7d 13bf
000001c0: 94da 8b3f 4a3e b8be 2711 50bf d17b 0dbd
000001d0: 5f5c c1bf 58a6 27bf 6e4d 8d3f c926 fabf
000001e0: d403 e23e 0afb 633f def3 a2be 30d3 d3be
000001f0: fa49 943f d08d 10c0 7705 6f3f 3f15 af3f
00000200: f2cc 0d3f 5d14 893f 8650 a93e a954 ef3e
00000210: db8b 833d 4047 b7bf 404f 103f cdd8 d83f
00000220: 2d90 80be d21b c4bf c0af 01c0 fa94 7a3e
00000230: eea6 2bbf c670 323f cb06 39c0 9a08 a1bf
00000240: f575 dabb 484d a2bf 6247 2c3f 51fa 4e3f
00000250: c474 093f caa1 943e c9b4 48bf a9ce 2f3f
00000260: a379 90bf 1ef4 453f 24db e5bf 6dd3 bdbf
00000270: 540e ae3e 70ad 423f 0605 72bd d687 90bf
00000280: 08a1 763f 9084 82bf 5ebe a6bf e43e c6be
00000290: f3dd 94be 4058 7b3f e66e aabd 4e42 2c40
000002a0: cf45 6c3f ef28 2b3f 1a99 ca3f 16f6 cd3d
000002b0: 10b4 33be a77f cdbf 9950 9f3d 8bfb 0c40
000002c0: 56ec ac3e 9f3d 9c3e 5e34 5e3d 30e9 213f
000002d0: 39ac b3be 6229 393f bf80 97bf 5a79 be3d
000002e0: 949e fe3f cc95 ecbf 7f16 d73f 9415 ac3e
000002f0: 8fc2 763f 36e1 aa3f 382e 88be e0f1 6ebe
00000300: b707 aebf 4130 d6bf 17e5 3f3e e03c c9bf
00000310: 42b6 163f e3eb b5bd 4eb0 05bd 38b5 b8bf
00000320: 2a69 5ebf 1213 063f e291 3bbf b085 963f
00000330: 4918 6fbf 125b 37bf e259 343f a5a9 4bbe
00000340: 0f1b f03e 110f 02be a452 0a40 b94b eebe
00000350: b6f4 4dbd 7a19 bfbe c2ca 3e3f 2b02 c13e
00000360: 28e1 4b3f 55ee acbe 9d4f d4be d9b6 4d3e
00000370: 0f7e 803f c177 cabe

3 f4 [5, 74]
1.1253519 1.1442275 1.7886215 -1.7417428 0.6194061 -1.4615476 -0.85721415 0.4430481
1.18006 -0.25937486 0.54738337 0.335258 0.45808828 0.20800827 0.2649418 -1.4848373
-1.171215 -0.50360274 0.962957 1.237683 0.009757597 -0.41780338 0.81817466 -0.47826323
-0.38571313 -0.11938376 1.3129958 0.9575825 1.5867443 -1.5123854 0.64481944 0.44903776
-1.3590968 1.8061384 -0.5859947 0.7614779 1.6139582 -1.9931978 -0.088671066 0.84940636
0.08276431 0.009259478 0.33135316 -1.0130706 -1.2423337 -0.26040643 -1.2331094 -0.83044416
0.30395678 0.14267693 1.1589891 -1.19537 1.1575408 1.2742779 -0.9133854 -0.0776662
-0.826373 -0.31956893 -1.7105988 0.24381278 0.17337072 -1.1662828 0.6528888 1.3404613
-1.3560294 -0.056819353 -0.9957858 -0.9724344 0.64491296 -1.1658714 1.6015143 -2.888858
1.1609755 -1.7511551 -1.875371 -0.22776695 1.5537297 0.15808281 -0.43873045 0.04552625
-0.6189176 0.64339745 -0.45288667 0.13162124 0.27863055 0.30362707 0.34203735 0.7601108
0.42621452 -1.3766689 -1.7176409 -1.1954236 1.285869 -0.5076129 0.21517983 -0.8818662
0.16794975 0.008322851 0.45062405 0.89982307 1.9452324 -1.7006893 0.35094926 -1.3026862
-0.3893296 -0.20090875 -0.33498707 -0.8751732 -1.4847573 0.9301039 0.34997648 2.3225513
1.3608258 0.120811954 0.8180758 -0.023391476 1.6588833 0.16896121 0.43017468 0.52270997
0.2394213 0.053016603 0.15604822 -1.1739552 0.5448552 1.1052972 -1.1779914 -1.0972725
-0.5511392 0.6972715 0.7302217 0.45572412 0.6247278 0.07637903 -0.37151867 -0.40788087
0.76501775 0.7537825 1.6737254 0.6835263 0.20164584 0.34162492 1.1258782 2.3209302
0.016504666 0.12384857 1.3889282 -0.84434617 -0.074153095 0.22905949 -0.663374 1.0663507
-0.5660741 0.34988835 -0.6688701 -1.0651773 0.38890472 -1.2251683 -0.19779052 0.260767
-0.7722035 1.417933 -0.31909713 1.1479701 1.1285362 -1.630252 0.48678774 -1.435718
0.663442 -0.38930833 0.5082218 0.91586614 -0.6145913 -0.4873924 -0.46356717 -0.05303035
-0.6822394 -2.6254704 -0.328756 -0.4169566 0.04004624 1.7549368 -0.5541308 0.7851823
0.26059258 -0.8072615 -0.27328157 0.49732354 0.4355225 0.4988791 1.2113428 -0.9911125
-1.22101 -1.6566316 -0.812048 -0.4606458 -0.42697123 -0.32130584 0.058318783 1.1360584
-0.5311825 -0.4144816 -1.9609431 1.4664419 -0.65025055 0.03957844 -0.27271712 0.74662167
0.68548346 -1.0713327 0.6649165 0.26664394 -1.0837579 -0.6496092 1.658827 0.07386228
0.8039584 -0.6966742 -1.4903162 -0.10901991 -0.1364103 -0.385151 -1.1817652 -0.48930508
0.37259963 0.59038955 -2.845606 0.94773304 0.14237073 -0.89526886 -0.6247965 1.6110562
0.20009075 -0.91684186 -1.2800646 -1.619733 2.0596235 2.5292113 -0.8522854 -3.337612
1.2308445 -0.8525545 -0.033231203 0.27431434 -0.15724204 0.17722633 -0.9935646 2.228034
1.3998846 1.4303156 0.5091004 -0.48765394 -1.149041 0.39271086 -0.7768738 -0.8540693
00000000: 880b 903f 0c76 923f 8df1 e43f 6ef1 debf
00000010: 6691 1e3f fe13 bbbf 6372 5bbf 33d7 e23e
00000020: 350c 973f c8cc 84be 5121 0c3f f0a6 ab3e
00000030: 8c8a ea3e 1f00 553e 74a6 873e 260f bebf
00000040: 60ea 95bf 1cec 00bf 5a84 763f 666c 9e3f
00000050: 54de 1f3c 53ea d5be e573 513f ebde f4be
00000060: 317c c5be 797f f4bd 3f10 a83f 2024 753f
00000070: 701a cb3f d895 c1bf e312 253f 47e8 e53e
00000080: e2f6 adbf 8b2f e73f c003 16bf 37f0 423f
00000090: 2f96 ce3f 1b21 ffbf 2d99 b5bd b272 593f
000000a0: 5680 a93d 11b5 173c 1fa7 a93e 4cac 81bf
000000b0: ca04 9fbf fe53 85be 87d6 9dbf fd97 54bf
000000c0: 39a0 9b3e e719 123e c159 943f e201 99bf
000000d0: 4c2a 943f 8a1b a33f a0d3 69bf 750f 9fbd
000000e0: 2e8d 53bf 8a9e a3be e7f4 dabf 0faa 793e
000000f0: 1888 313e c148 95bf b823 273f 3c94 ab3f
00000100: 5f92 adbf 69bb 68bd d1eb 7ebf 76f1 78bf
00000110: 0419 253f 463b 95bf 6cfe cc3f 0de3 38c0
00000120: d89a 943f da25 e0bf 280c f0bf bd3b 69be
00000130: 9de0 c63f 76e0 213e 47a1 e0be bc79 3a3d
00000140: 6271 1ebf b2b5 243f c3e0 e7be b8c7 063e
00000150: aaa8 8e3e 0275 9b3e 851f af3e 9f96 423f
00000160: ca38 da3e b036 b0bf a8db dbbf a403 99bf
00000170: 5b97 a43f ebf2 01bf 1a58 5c3e fcc1 61bf
00000180: 05fb 2b3e 915c 083c 32b8 e63e ce5a 663f
00000190: 60fd f83f 30b0 d9bf 9faf b33e 6cbe a6bf
000001a0: 3656 c7be 06bb 4dbe 6d83 abbe 5a0b 60bf
000001b0: 870c bebf 4a1b 6e3f 1e30 b33e aea4 1440
000001c0: 8a2f ae3f 426c f73d 6a6d 513f 7b9f bfbc
000001d0: 4a56 d43f 2b04 2d3e db3f dc3e 52d0 053f
000001e0: db2a 753e f027 593d 1bcb 1f3e 2a44 96bf
000001f0: a17b 0b3f 617a 8d3f 6cc8 96bf 6d73 8cbf
00000200: 7517 0dbf 6380 323f cfef 3a3f ac54 e93e
00000210: 29ee 1f3f 9c6c 9c3d b237 bebe c3d5 d0be
00000220: 34d8 433f e4f7 403f a23c d63f 94fb 2e3f
00000230: 3f7c 4e3e 76e9 ae3e c71c 903f 1f8a 1440
00000240: cb34 873c 52a4 fd3d 66c8 b13f 1227 58bf
00000250: 94dd 97bd 928e 6a3e e1d2 29bf 2e7e 883f
00000260: 3bea 10bf 9124 b33e 123b 2bbf bb57 88bf
00000270: 851e c73e 51d2 9cbf 9989 4abe 4183 853e
00000280: 21af 45bf d47e b53f b360 a3be aff0 923f
00000290: e073 903f 19ac d0bf 3e3c f93e 9cc5 b7bf
000002a0: 56d7 293f 6c53 c7be d31a 023f 3476 6a3f
000002b0: db55 1dbf 7f8b f9be ad58 edbe 5a36 59bd
000002c0: 3ea7 2ebf b507 28c0 b552 a8be 567b d5be
000002d0: 8707 243d c5a1 e03f 84db 0dbf b501 493f
000002e0: 646c 853e b1a8 4ebf 90eb 8bbe 31a1 fe3e
000002f0: cefc de3e 156d ff3e 480d 9b3f 8cb9 7dbf
00000300: 0e4a 9cbf 810c d4bf 61e2 4fbf c4d9 ebbe
00000310: f99b dabe 3382 a4be addf 6e3d 5d6a 913f
00000320: 94fb 07bf ef36 d4be 2f00 fbbf 5eb4 bb3f
00000330: d276 26bf 011d 223d 94a1 8bbe 9922 3f3f
00000340: d87b 2f3f 6e21 89bf f837 2a3f 8e85 883e
00000350: 94b8 8abf ca4c 26bf 7154 d43f 1b45 973d
00000360: 38d0 4d3f 3e59 32bf aec2 bebf d545 dfbd
00000370: 24af 0bbe 8332 c5be 1544 97bf 3286 fabe
00000380: 61c5 be3e c523 173f 691e 36c0 a29e 723f
00000390: a2c9 113e 5730 65bf aaf2 1fbf 1737 ce3f
000003a0: 97e4 4c3e 26b6 6abf 28d9 a3bf 6953 cfbf
000003b0: dfd0 0340 99de 2140 602f 5abf 6f9b 55c0
000003c0: 508c 9d3f 0341 5abf 711d 08bd ee72 8c3e
000003d0: 0f04 21be d27a 353e 405a 7ebf 1c98 0e40
000003e0: 6b2f b33f 9514 b73f 6754 023f c7ad f9be
000003f0: c713 93bf 6611 c93e 34e1 46bf 49a4 5abf

4 f4 [3, 74]
-0.11826816 -1.0497456 1.3260766 -2.6904197 -0.4993978 0.06849024 0.33445176 -1.1651139
-1.8534162 -0.40816048 1.8595301 -0.6929699 -0.76916325 -0.012439057 0.7745871 -0.9953883
0.41586944 0.17296845 0.26216415 -1.4094808 1.8000773 -0.1722051 -0.62468857 0.07985026
0.17089713 1.2823592 1.2603787 -0.86212415 0.9121002 -0.96938914 -0.8898648 -0.19519864
0.4551753 -0.0765465 0.9807625 -0.9763713 -0.7108738 0.740094 0.061521728 0.45924425
-1.8399578 -0.19770111 -0.86517245 -1.5106449 1.5934707 -0.124546155 -0.7509928 -0.57470405
0.25679472 -0.13600624 -0.032051828 1.1275984 -0.85952157 -0.6189664 1.3705506 -0.797143
-0.09983701 -0.072455145 0.32932767 1.687316 -0.060101278 -0.3316891 0.16604583 0.6021222
0.47927713 -0.9021256 -0.018548707 1.4185412 -1.5554384 1.2847109 0.3125092 -0.25753307
1.018928 -0.6414291 1.2993177 1.6763217 0.5105879 1.5071495 -1.2505296 -1.3628544
0.6081407 1.221033 0.47732502 -0.3360275 -1.1634164 0.30644476 0.6790555 -0.7375798
-1.1745607 0.45577034 -1.2637283 1.8501062 0.16626497 -1.3827497 0.09204834 -0.047166176
1.3379598 -0.775063 0.6417208 0.6163608 -2.213636 0.42846227 0.14302665 0.30963108
0.9560188 -0.83101016 0.5577083 -2.41774 -0.45091546 -1.7472177 -1.1708604 1.8090091
0.13858563 0.43037733 2.6386447 0.7226144 -0.26076716 -0.055846024 0.1573037 0.14453493
-0.40452287 1.0973991 -0.09894447 -0.598312 -0.88192934 0.3432007 0.34526122 1.7030023
0.7345586 1.9627517 0.15363444 -0.1550105 0.2809171 0.1117561 0.45818034 0.051882595
0.46933693 -0.9660816 -0.889124 0.78584355 1.4664435 0.64149475 -0.0828737 1.571484
-0.9178105 1.130888 0.26541677 -0.15912132 0.21869278 -0.13541107 -1.4349914 0.47213316
0.19802946 -0.104145154 -0.6281728 0.16002527 1.4422328 -0.7420048 -0.7801885 -1.0485274
-0.5687914 0.5275973 0.43084303 -0.50186807 -0.37983724 0.17403983 0.50056964 1.5633897
1.2497178 -0.5273137 -1.9292644 0.5476255 0.7472368 -0.09001658 -0.91006154 -2.2064722
1.2908223 -0.51194733 -0.90903306 -0.1332073 -0.116803415 -0.096245274 -0.7455845 -0.25756943
1.0671368 1.0013834 0.38862124 -0.6659234 -0.012983327 -1.0733795 -0.40789932 -1.4089582
1.4403844 3.3090959 -0.59620184 1.7504653 -1.3328199 1.0845356 0.7324224 -1.9093066
0.8916337 0.94105905 -1.2128665 -0.27482367 1.0716558 -0.9594903 0.3859208 -0.98206913
-0.2202807 -0.7671232 -1.2694571 0.49305654 1.7005337 -1.1681322 -0.23675339 1.754806
-0.21605594 0.17352022 0.4660642 -0.028584525 -1.4012189 -0.18952076
00000000: 9436 f2bd 105e 86bf e1bc a93f d62f 2cc0
00000010: 12b1 ffbe 9c44 8c3d 433d ab3e 7422 95bf
00000020: be3c edbf 69fa d0be 1505 ee3f 7a66 31bf
00000030: e2e7 44bf 30cd 4bbc 574b 463f c5d1 7ebf
00000040: d7ec d43e a41e 313e 613a 863e de69 b4bf
00000050: ef68 e63f 8956 30be 97eb 1fbf 8888 a33d
00000060: a8ff 2e3e 5924 a43f 1754 a13f 2bb4 5cbf
00000070: 667f 693f e329 78bf 2ece 63bf 27e2 47be
00000080: bd0c e93e 69c4 9cbd 4013 7b3f 78f3 79bf
00000090: d3fb 35bf cd76 3d3f 35fe 7b3d 1022 eb3e
000000a0: bd83 ebbf 2972 4abe f17b 5dbf d05c c1bf
000000b0: d9f6 cb3f 0e12 ffbd 1041 40bf ce1f 13bf
000000c0: 997a 833e 3845 0bbe c748 03bd 2555 903f
000000d0: 9b09 5cbf 9574 1ebf 346e af3f 9011 4cbf
000000e0: 5977 ccbd 5d63 94bd a39d a83e f8f9 d73f
000000f0: c22c 76bd 27d3 a9be eb07 2a3e ae24 1a3f
00000100: d063 f53e b4f1 66bf 75f3 97bc c292 b53f
00000110: 9b18 c7bf 6871 a43f 3501 a03e 60db 83be
00000120: 3c6c 823f b334 24bf 0b50 a63f b691 d63f
00000130: e3b5 023f 46ea c03f 5b11 a0bf 0372 aebf
00000140: 1caf 1b3f cf4a 9c3f f263 f43e cc0b acbe
00000150: d4ea 94bf 54e6 9c3e 95d6 2d3f 08d2 3cbf
00000160: 0158 96bf bb5a e93e d9c1 a1bf 48d0 ec3f
00000170: 5d41 2a3e f1fd b0bf d783 bc3d 5231 41bd
00000180: 4442 ab3f 876a 46bf d047 243f d2c9 1d3f
00000190: 36ac 0dc0 685f db3e 9475 123e f787 9e3e
000001a0: a6bd 743f 15bd 54bf f9c5 0e3f 41bc 1ac0
000001b0: 64de e6be d4a4 dfbf c1de 95bf 9c8d e73f
000001c0: 64e9 0d3e 6b5a dc3e 8edf 2840 42fd 383f
000001d0: 4683 85be cdbe 64bd 3914 213e f700 143e
000001e0: 9f1d cfbe 9377 8c3f 66a3 cabd fa2a 19bf
000001f0: 1fc6 61bf 01b8 af3e 14c6 b03e fbfb d93f
00000200: 080c 3c3f 733b fb3f 5952 1d3e 13bb 1ebe
00000210: 5ed4 8f3e 62e0 e43d 9d96 ea3e d882 543d
00000220: ee4c f03e 2051 77bf a19d 63bf 0b2d 493f
00000230: 6cb4 bb3f 0039 243f b0b9 a9bd 6326 c93f
00000240: a1f5 6abf f0c0 903f b5e4 873e b3f0 22be
00000250: 00f1 5f3e 33a9 0abe ccad b7bf 70bb f13e
00000260: 3cc8 4a3e 0e4a d5bd efcf 20bf aadd 233e
00000270: 169b b83f 07f4 3dbf 6fba 47bf 2536 86bf
00000280: 509c 11bf 9e10 073f 7597 dc3e 6d7a 00bf
00000290: 077a c2be 7f37 323e 5525 003f 271d c83f
000002a0: c1f6 9f3f 08fe 06bf 23f2 f6bf 2f31 0c3f
000002b0: e94a 3f3f 9d5a b8bd cbf9 68bf d736 0dc0
000002c0: aa39 a53f fb0e 03bf 64b6 68bf 7f67 08be
000002d0: a136 efbd 3e1c c5bd a0de 3ebf 24e0 83be
000002e0: f097 883f 552d 803f 5df9 c63e f579 2abf
000002f0: 05b8 54bc 8064 89bf 2ed8 d0be be58 b4bf
00000300: 845e b83f 3ac8 5340 afa0 18bf 3f0f e03f
00000310: d899 aabf 10d2 8a3f 0980 3b3f 2964 f4bf
00000320: 1b42 643f 3fe9 703f 363f 9bbf b0b5 8cbe
00000330: 042c 893f 28a1 75bf 6997 c53e e268 7bbf
00000340: 4491 61be 3062 44bf 927d a2bf e871 fc3e
00000350: 17ab d93f 5b85 95bf 7b6f 72be 7c9d e03f
00000360: c53d 5dbe 49af 313e f89f ee3e 182a eabc
00000370: 245b b3bf bb11 42be

5 f4 [5, 74]
1.2288876 -0.10451051 -0.3103751 0.58380646 -0.20447777 0.27946305 -2.0472686 2.1984532
-1.4513916 -1.7555984 0.9321501 -2.1407323 -0.0066688284 -0.18571293 -0.13383156 0.87572134
-1.083276 0.39782545 -0.7788421 -1.4796082 -0.70172924 -0.38381246 -0.5838703 2.285059
-0.006663626 -0.7304383 1.3106229 -0.99054766 -0.6237732 -1.3154765 0.51862055 0.25525537
1.1487623 -0.58647573 -0.22047132 -0.46690986 1.079584 1.0875334 -0.23382615 1.3313794
0.37824482 -1.4401016 -1.4364446 1.3594972 -0.55173975 1.7923731 -2.1525373 -1.3951195
-0.5228146 -0.24636646 1.3037452 -1.8967849 -1.3967261 0.23463362 1.9422855 -0.0140103
-0.117272586 -0.019219935 -0.2199841 -0.18323073 -0.9584966 -2.0472386 0.76089793 -0.7157509
-1.9413172 -0.3457962 0.21537149 0.037757825 1.3717263 -0.7222068 0.47953525 -0.11415477
-0.48275682 -1.0965898 -0.7365339 0.63335115 0.7084626 0.2196081 -0.407706 -1.4276339
-0.03691692 -0.47470054 1.493859 0.38995522 -1.276723 -0.5929754 0.2113595 -0.6955446
-0.855653 -0.53172004 1.5458523 -0.61725813 -0.32362604 -0.23311332 0.514406 -1.4379753
1.3264991 0.9049733 1.020181 -0.798999 -0.42308983 0.25340462 2.657307 1.0629615
-0.797508 0.7336837 0.9143839 0.5749237 -0.8588134 -0.25345567 -0.17066145 -0.113341585
-0.7656639 -0.49034104 0.15814312 -0.6629922 1.2666099 -0.3846883 -0.24381915 1.0909079
-0.10094072 -0.6793931 -1.3422574 0.374234 1.4819572 0.20863587 -0.9622834 -0.9898277
-0.12043723 2.092612 0.44505283 0.422063 1.5736253 -1.273795 -1.4972777 0.79527
0.44611704 0.101098776 0.0655001 1.0882628 0.4226879 0.99461675 0.61729485 -0.15692115
0.3644194 0.27546638 0.34996492 0.6930317 0.60432106 0.11908261 1.0380499 1.7125477
-0.029788462 -0.79598814 0.2055721 -1.2263373 -0.4649386 0.54616964 -0.25340348 0.05213182
1.4773389 0.76146835 -0.114061855 1.9107482 -1.1092155 -1.7223897 0.74284285 1.6692024
-0.18352295 -0.034587495 0.82423186 -1.16181 0.1329418 -0.8594145 -1.0920848 0.22682774
-0.9468402 1.2276239 0.43361923 -0.03243064 0.31076908 -0.27229932 -1.0529807 -0.52084434
-0.1941874 -0.6977362 -1.657102 -0.6003779 1.2414135 -1.3959087 -0.53590083 -0.4455085
-0.11292675 -0.25470126 1.8448646 -1.6471219 0.06475018 -1.5551542 -0.5775659 -0.6244583
-0.7057452 0.84248304 -1.1372685 1.3813134 0.831935 -2.2352912 0.71663797 0.5835338
0.32636765 0.83658135 1.6730386 0.38776866 0.15807895 1.1782278 0.1257023 0.039260212
0.69672984 1.610191 1.4547844 0.49503696 -0.13967635 -0.27125317 -0.5395824 -1.1212974
0.9454243 1.2383119 -0.61692894 0.73258525 -0.26948535 -0.63147825 0.38243398 -1.2996742
0.66202116 1.5336299 -0.8122254 -0.48878375 -0.9821403 0.7788289 0.6382749 0.37979192
-0.32447058 0.0004985009 0.84275514 -0.519073 -2.7096117 -0.6014537 -0.9540521 -0.938023
-0.27368346 0.18830097 -0.25386608 -0.2525801 -2.0600958 1.4161465 0.9919118 -1.2493795
00000000: 304c 9d3f 9b09 d6bd 7ce9 9ebe 5774 153f
00000010: 9f62 51be c815 8f3e 7306 03c0 75b3 0c40
00000020: 33c7 b9bf 73b7 e0bf 64a1 6e3f c201 09c0
00000030: 3086 dabb 882b 3ebe 240b 09be 462f 603f
00000040: caa8 8abf c7af cb3e 3262 47bf cd63 bdbf
00000050: 87a4 33bf 1183 c4be 8678 15bf 683e 1240
00000060: 8c5a dabb 01fe 3abf 7ec2 a73f 8894 7dbf
00000070: 9aaf 1fbf 8961 a8bf 51c4 043f d5b0 823e
00000080: a50a 933f 4623 16bf 3cc3 61be cf0e efbe
00000090: cf2f 8a3f 4b34 8b3f 1f70 6fbe a46a aa3f
000000a0: 4ea9 c13e 4055 b8bf 6bdd b7bf 0104 ae3f
000000b0: d13e 0dbf 7b6c e53f 2cc3 09c0 4793 b2bf
000000c0: 2dd7 05bf 7d47 7cbe 1fe1 a63f d9c9 f2bf
000000d0: ecc7 b2bf cc43 703e d09c f83f 758b 65bc
000000e0: 9c2c f0bd 2073 9dbc 8343 61be d6a0 3bbe
000000f0: 0860 75bf f505 03c0 35ca 423f 733b 37bf
00000100: 157d f8bf 330c b1be 588a 5c3e f3a7 1a3d
00000110: ba94 af3f 8be2 38bf a585 f53e fac9 e9bd
00000120: e72b f7be 0e5d 8cbf 7c8d 3cbf 4d23 223f
00000130: ce5d 353f f2e0 603e d7be d0be b5bc b6bf
00000140: 3236 17bd f30b f3be c636 bf3f 36a8 c73e
00000150: a96b a3bf 3ccd 17bf a06e 583e 360f 32bf
00000160: 130c 5bbf ce1e 08bf 7dde c53f a104 1ebf
00000170: 50b2 a5be 42b5 6ebe 1db0 033f 930f b8bf
00000180: b9ca a93f 55ac 673f 4a95 823f 338b 4cbf
00000190: 3b9f d8be 40be 813e 5111 2a40 1f0f 883f
000001a0: 7c29 4cbf b2d2 3b3f 1015 6a3f 332e 133f
000001b0: 32db 5bbf f1c4 81be e0c1 2ebe a21f e8bd
000001c0: 8d02 44bf fb0d fbbe 45f0 213e dbb9 29bf
000001d0: 4620 a23f ddf5 c4be baab 79be dfa2 8b3f
000001e0: 02ba cebd b5ec 2dbf 17cf abbf 999b bf3e
000001f0: c6b0 bd3f a4a4 553e 3458 76bf 5965 7dbf
00000200: cba7 f6bd 5bed 0540 f7dd e33e a418 d83e
00000210: 8e6c c93f b70b a3bf cca6 bfbf d196 4b3f
00000220: 7469 e43e e00c cf3d eb24 863d 324c 8b3f
00000230: 8c6a d83e 349f 7e3f 0907 1e3f f0af 20be
00000240: 2e95 ba3e ee09 8d3e 9a2e b33e 876a 313f
00000250: c9b4 1a3f 95e1 f33d d2de 843f c334 db3f
00000260: ef06 f4bc e1c5 4bbf 7e81 523e 9ff8 9cbf
00000270: 6f0c eebe c6d1 0b3f 1abe 81be 2d88 553d
00000280: 7119 bd3f 97ef 423f 4399 e9bd 6693 f43f
00000290: c6fa 8dbf 4477 dcbf f32a 3e3f 6da8 d53f
000002a0: 71ed 3bbe 9eab 0dbd dc00 533f 31b6 94bf
000002b0: e521 083e 9702 5cbf 6fc9 8bbf 8845 683e
000002c0: 1f64 72bf c822 9d3f 5703 de3e fed5 04bd
000002d0: 201d 9f3e d16a 8bbe 12c8 86bf 0e56 05bf
000002e0: 10d9 46be d79e 32bf eb1b d4bf 5eb2 19bf
000002f0: a3e6 9e3f 23ad b2bf cc30 09bf b119 e4be
00000300: 2446 e7bd 3468 82be 8624 ec3f e4d4 d2bf
00000310: be9b 843d 4b0f c7bf 5cdb 13bf 80dc 1fbf
00000320: b8ab 34bf f8ac 573f 0492 91bf e1ce b03f
00000330: b1f9 543f 030f 0fc0 9675 373f 7962 153f
00000340: a919 a73e 322a 563f 2126 d63f 9d89 c63e
00000350: 73df 213e 2bd0 963f 1bb8 003e 51cf 203d
00000360: e35c 323f bd1a ce3f 6036 ba3f 7c75 fd3e
00000370: 5107 0fbe b2e1 8abe 1222 0abf ac86 8fbf
00000380: 5407 723f 0181 9e3f 0eef 1dbf b58a 3b3f
00000390: fcf9 89be 8fa8 21bf 63ce c33e b95b a6bf
000003a0: 387a 293f fc4d c43f 01ee 4fbf dd41 fabe
000003b0: 8c6d 7bbf 5561 473f fc65 233f 1674 c23e
000003c0: 0221 a6be d4ad 023a cdbe 573f f8e1 04bf
000003d0: 476a 2dc0 dff8 19bf c23c 74bf 4622 70bf
000003e0: 3d20 8cbe f8d1 403e bcfa 81be 2e52 81be
000003f0: 9cd8 03c0 4a44 b53f efed 7d3f abeb 9fbf

6 f4 [3]
-0.95361245 0.26341423 0.90141666
00000000: f21f 74bf 3bde 863e 3ec3 663f

7 f4 [5]
-0.24547471 -0.23643546 0.50784343 -0.5826535 1.5272549
00000000: b95d 7bbe 231c 72be 0702 023f c828 15bf
00000010: 177d c33f

weight f4 [2, 2]
0.53293735 -0.540381 0.18050018 -0.3104941
00000000: 956e 083f 6956 0abf 0ad5 383e 15f9 9ebe

bias f4 [2]
0.20635274 0.049476065
00000000: 224e 533e 6aa7 4a3d
