src/pytorch_extension/tbcnn_2019-02-04T16:37:16.717893.pt (torch_old, 26392 bytes, 10 tensors)

0 f4 [3, 74]
000000 dd e3 15 3f d1 94 54 bf 7f a3 83 3f c7 dd ef 3e
       0.58550817 -0.83039576 1.028427 0.4684889
000010 95 a5 5c bf 9a b8 f9 3e d5 f1 cc be f1 a0 ad 3f
       -0.8619016 0.48773652 -0.40028253 1.356474
000020 f4 81 3e 3f 61 e5 f3 3e 98 10 9b 3f a2 f8 4e be
       0.7441704 0.4763594 1.2114439 -0.20212033
000030 67 06 1b be f6 e3 56 bd e5 6d 10 3f 73 10 1b 3e
       -0.15139161 -0.052463494 0.56417686 0.15142994
000040 5d b1 c7 3f 3b ff 06 be 79 c1 a8 3f ca 08 3c 3f
       1.5601002 -0.131833 1.3184043 0.7345091
000050 c1 80 a2 bf 46 c6 c0 3f 73 cb fa 3d ca dd de 3f
       -1.2695543 1.5060508 0.12245836 1.7411435
000060 ca a0 9b bd ff 46 54 3e 83 6b 0e 3f 6d 1a aa bd
       -0.075990275 0.20730208 0.556328 -0.083058216
000070 33 be 1d 3f 37 49 dd 3f 06 7a 91 3f 53 e9 53 3f
       0.61618346 1.7287968 1.1365364 0.827779
000080 31 32 1d 3f 7d 75 d7 be b7 d2 52 bf a6 06 ff be
       0.6140471 -0.42081824 -0.82352775 -0.4980976
000090 bd 4e 6f bf f8 34 30 3f be 89 19 c0 86 01 b6 be
       -0.9347952 0.68830824 -2.399032 -0.35548037
0000a0 88 d3 b6 3e 7d e0 4d 3e f3 56 2b 3f 4f c8 92 3e
       0.3570826 0.20105167 0.6692955 0.28668448
0000b0 25 64 59 3f 2b 4c a1 bf 35 b5 54 c0 47 de 46 bf
       0.84918433 -1.260137 -3.32356 -0.7768292
0000c0 a7 7f 0c 3f 0e bd a4 3f d5 e0 1b bf 20 c7 6f bf
       0.5488228 1.2870195 -0.6088994 -0.93663216
0000d0 c6 b4 c0 bf 17 94 ce 3e 74 22 80 be 29 f7 bd be
       -1.5055168 0.4034736 -0.25026286 -0.3710263
0000e0 30 fa d7 bf a8 f3 50 be 74 c0 50 be 7a 24 cf 3d
       -1.6873226 -0.20405447 -0.20385915 0.10114379
0000f0 b8 af b0 be bb 9a 6e be 8e 99 29 3f 71 e2 d7 bf
       -0.34509063 -0.23301212 0.6624993 -1.686598
000100 69 a7 b6 3e 7a c9 69 c0 89 c0 0e c0 d8 36 1f be
       0.356746 -3.6529222 -2.2305014 -0.15548265
000110 91 cc 9d bf 81 dd 7d bf f4 9c 79 bf 95 5e b7 3f
       -1.2328054 -0.99166113 -0.97505116 1.4325739
000120 56 e6 af 3f 24 51 1c bf 7d e4 43 3f 4a 28 8d 3f
       1.3742168 -0.6106131 0.7652052 1.102792
000130 cb 5c 92 bf 49 08 da 3f 58 a9 a0 bf 43 d9 a4 3f
       -1.1434568 1.7033778 -1.255168 1.2878803
000140 4e 9b eb 3e e6 65 2d bf 5e 1f 1f bf 1e 11 85 3e
       0.46016926 -0.6773361 -0.6215724 0.25989622
000150 f4 a8 c6 be e2 de 81 3f 5b da 9d bf 2a 32 27 3f
       -0.38800776 1.0146143 -1.2332262 0.6531092
000160 09 22 e0 be 02 8d 23 bf 7a b5 f1 bf 2e ef 9d be
       -0.43775967 -0.63887036 -1.8883507 -0.30846542
000170 49 a9 6c bf 64 8d 6b bf b4 8b 92 bf 74 d4 81 3f
       -0.9244581 -0.9201262 -1.1448884 1.014296
000180 c7 57 79 bf 75 26 3e 3e 0d 8c b3 bf e6 85 7b bf
       -0.9739956 0.18569358 -1.4027115 -0.9825119
000190 98 67 08 bf 18 b1 eb 3e 0f 16 0c be 5a c7 f1 bd
       -0.5328307 0.4603355 -0.1368029 -0.118056014
0001a0 df 80 4e bf 66 bc 14 40 86 8d 2f bf 08 63 8a bf
       -0.8066539 2.323999 -0.6857532 -1.0811472
0001b0 0f 2b 91 3e a1 7c 0e 3f 94 0c 8d bf 8f 94 e5 3e
       0.28353164 0.5565892 -1.1019464 0.44839904
0001c0 23 69 38 3e c7 99 d2 bf 72 d3 f3 3e d0 c5 f3 3f
       0.18008856 -1.6453179 0.47622257 1.9044743
0001d0 fb a5 24 3f 87 d3 9c 3f a1 90 df 3f 78 53 36 3f
       0.64315766 1.2252053 1.7466012 0.71221113
0001e0 37 1b 42 be fb 65 29 bf 55 3c f9 3e c8 a9 cd bf
       -0.18955694 -0.66171235 0.48678842 -1.6067438
0001f0 a3 20 5c bf 63 ab 15 bf 29 1d 20 3f fb 8c 14 bf
       -0.859873 -0.5846464 0.62544495 -0.5802762
000200 e9 a3 87 3e 1c 43 60 be b4 22 b3 bd e4 c7 37 bf
       0.2649224 -0.219006 -0.087468535 -0.71789384
000210 d4 4a aa be b3 be 6c bf 0d 12 ef 3d 44 2c d3 3f
       -0.33260214 -0.92478484 0.11673365 1.6497884
000220 29 d9 1d c0 93 96 5e be f3 49 55 3f 4b 5a b7 3f
       -2.4663794 -0.21737127 0.8331596 1.432443
000230 a6 8e 91 3e 76 ca 09 bf 09 ca 09 3f 03 33 1f 3f
       0.28429145 -0.53824556 0.53823906 0.6218721
000240 11 72 19 40 e0 e2 ff be 8e 5d 92 bf 45 74 ba bf
       2.397587 -0.4997778 -1.1434801 -1.4566733
000250 c2 66 c1 3e 2b fb c5 bf 87 6e 98 be 21 8b c5 3e
       0.3777371 -1.5467275 -0.29771826 0.3858271
000260 a3 3d 9e bd a9 cc 0c 3f de 1c a5 be c6 8a b4 3f
       -0.077266 0.54999787 -0.32248586 1.410485
000270 15 94 57 3f fc 9e e8 3f 43 4d b5 be 49 d3 4f 3f
       0.8421033 1.8173518 -0.3541051 0.8118177
000280 08 ce 0d bf ec 10 a9 3f 6e 58 05 3d 21 8f 1f c0
       -0.55392504 1.3208289 0.032555036 -2.493111
000290 e3 d5 28 3f 2e 03 4b 3f ed 39 d6 3e 2f 12 44 3f
       0.65951365 0.79301727 0.4184107 0.76590246
0002a0 65 0e f5 3d d5 82 c2 3d 9c b6 09 3f 29 e4 db bf
       0.11965636 0.094976105 0.53794265 -1.7179004
0002b0 d0 7f af 3f 03 d9 8e bf 7a 6e c5 3e f5 67 a1 bd
       1.371088 -1.1159977 0.3856085 -0.07881156
0002c0 8a 10 15 be 73 cf de bf 0e 4e 2c 3f 5d 7c 04 bf
       -0.1455709 -1.7407058 0.673066 -0.51752263
0002d0 69 f8 fe 3f 67 c7 a3 bc 89 2b 0a be fb fc 05 3e
       1.9919559 -0.019992543 -0.1349317 0.13084786
0002e0 e9 93 2c be 2a 83 a5 bf 3a 2e cd be 24 6b 1d 3e
       -0.16853298 -1.2930653 -0.4007433 0.15372902
0002f0 d4 10 86 3f 52 e9 b1 bf 1e 7f 9c 3f 2e f1 94 bf
       1.0473886 -1.3899329 1.2226293 -1.1636102
000300 b0 04 bd bf 0b 0d 5c bc ff a0 e2 bf b9 d3 9e bf
       -1.4767056 -0.013430844 -1.7705382 -1.2408363
000310 30 82 e6 3f 84 0c ef bd 20 8d 3a be 73 11 1d be
       1.800848 -0.11672309 -0.18217897 -0.15338688
000320 f8 5c 95 bf 4f 64 ae bf 8b d9 94 3f 79 51 72 be
       -1.1668997 -1.3624362 1.1628889 -0.23663892
000330 ba c6 54 bf f6 e5 46 bf 4b 1f 93 3e 01 ba d3 3e
       -0.8311573 -0.7769464 0.28734812 0.41352847
000340 9d e2 92 3e d3 41 90 3e 4b 35 05 3f 0a 92 8d 3d
       0.28688517 0.2817522 0.52034444 0.0691262
000350 90 06 12 bf 0b 4d 1b bf 47 6d 00 3f 6c b7 c8 be
       -0.57041264 -0.60664433 0.50166744 -0.3920244
000360 6c 51 a9 be c7 50 01 bf 3b 6a 89 bf f3 94 d7 3f
       -0.33069932 -0.5051388 -1.0735544 1.6842331
000370 da a7 77 3e 72 cd 1a bf
       0.24185124 -0.60469735

1 f4 [5, 74]
000000 2e 56 8f be ff 6b 2a 3f 82 4d 12 bf 1f da fd 3f
       -0.27995437 0.6657104 -0.5714952 1.983219
000010 d5 1d 05 40 1c 16 b1 be a7 12 e4 bf aa ef a8 be
       2.0799458 -0.3458718 -1.7818192 -0.3299535
000020 b6 cc 91 3f 28 da 36 3f 60 9f 2b 3e fd 4d fa 3f
       1.1390598 0.7142663 0.16760015 1.955505
000030 0d 8c 1e bf 1b 07 02 be 44 93 e6 bd db 3f 01 bf
       -0.6193245 -0.12698023 -0.112585574 -0.5048806
000040 34 87 8a 3f 98 45 6d bf 6d 1d 47 bf 45 e0 b5 3f
       1.0822511 -0.92684317 -0.77779275 1.4209067
000050 72 be 1e be 64 81 cf be dc 6c 6b bf de b5 be 3d
       -0.15502337 -0.40528405 -0.9196298 0.09312032
000060 d8 d6 a3 3f d6 0f cd be 94 a1 f6 3c 9b 32 e1 bf
       1.279994 -0.40051144 0.030106343 -1.7593569
000070 24 81 12 3e a3 94 b0 3f 5c 8a 21 be c9 fe a8 3f
       0.14307076 1.379536 -0.15775436 1.3202754
000080 33 bd 9e 3f 4d 41 6a 3f 5d 14 d2 be 55 35 32 be
       1.2401489 0.9150589 -0.4103116 -0.17403157
000090 bb 32 1d 3f 9f d2 08 bf 9f 37 ff be d8 00 32 bf
       0.61405534 -0.5344638 -0.49847123 -0.6953254
0000a0 0a 7f 1a bf 4c 96 56 be 36 53 4c 3e c0 a6 5c be
       -0.60350096 -0.20955771 0.19953617 -0.21547985
0000b0 80 d3 f4 3f b5 47 16 bf 62 f1 89 3f 0c b7 89 bf
       1.9127045 -0.58703166 1.0776789 -1.0758986
0000c0 cf d5 ab 3f 58 c1 33 3c 99 e0 21 bf 92 3e b1 bf
       1.3424624 0.01097139 -0.63233334 -1.384722
0000d0 db 85 f7 3f e8 54 cf 3d 77 58 50 bf 70 14 01 3f
       1.9337724 0.101236165 -0.81384987 0.5042181
0000e0 aa 7e 33 3f ac e4 89 3f 47 a5 98 be de 43 d9 3e
       0.7011515 1.077291 -0.29813597 0.4243459
0000f0 0d 61 a9 3f 37 da 8f bf 47 e4 1a bd fb b1 e7 bf
       1.3232743 -1.1238469 -0.03781536 -1.810119
000100 c6 87 c7 bc 5b 7a 40 3f 31 0e 3c 3e 59 7f 1b bf
       -0.024356734 0.751867 0.18364789 -0.6074119
000110 fc f5 62 3f e8 a1 ed be 08 b8 9b 3e c9 0e b9 bf
       0.8865659 -0.46412587 0.30413842 -1.4457637
000120 56 ab b9 bf 92 c9 8a be 8e 7f 2f 3d 17 00 b5 bf
       -1.4505413 -0.2710691 0.042846255 -1.4140652
000130 58 7f ad 3e 67 ce 64 3f 38 77 f1 3e cb ab 1c 3e
       0.33886218 0.89377445 0.4716127 0.15299909
000140 5c 83 48 3f d9 3e 11 3f 74 2d 31 3f 58 a3 9c be
       0.7832544 0.5673652 0.6920998 -0.3059337
000150 69 23 51 3f e4 55 81 be f8 de ff bf ae 9f 1f 40
       0.81694657 -0.25260842 -1.998992 2.494121
000160 c2 51 ab bf 4e c8 18 bf a4 b4 d6 bf 72 ea 25 3f
       -1.3384326 -0.5968064 -1.6773877 0.6481086
000170 9c f7 af 3f a4 85 89 3c 04 a5 24 c0 a8 42 a9 bf
       1.3747439 0.016787358 -2.5725718 -1.3223467
000180 01 82 64 3f 8f 10 b3 3f 3d d5 04 3d ca 42 8f bf
       0.8926087 1.3989428 0.032429922 -1.1192257
000190 b8 ab 8f bf 4e 1f c2 3e 94 37 8a bf 8b a5 db 3e
       -1.1224279 0.3791451 -1.0798211 0.42899737
0001a0 d6 70 ab 3e dd b4 88 be fe b3 87 3f 73 57 cb bd
       0.33484524 -0.26700488 1.0601804 -0.09928789
0001b0 c4 2f 77 3e e5 04 09 3e ba e8 17 3f 8e f0 a1 bf
       0.24139315 0.13380773 0.5933949 -1.2651536
0001c0 bd 63 f1 bd 0d f9 3e 3f 38 65 8e 3f ce fc 53 bf
       -0.11786602 0.7459877 1.112464 -0.82807624
0001d0 73 e5 6e be 2e d0 a0 bf 03 79 99 bf 6f 32 18 bf
       -0.23329715 -1.2563531 -1.1990055 -0.59451956
0001e0 fc 25 48 3f ac c9 fb bf 3c f5 68 3f c2 69 b1 3f
       0.7818296 -1.967092 0.909992 1.38604
0001f0 13 0d b1 3f 7c 25 97 be 72 d5 51 be 2f 14 68 3e
       1.3832115 -0.29520786 -0.20491579 0.2266395
000200 ae 6a 8f bf 11 4e b3 bd f4 97 39 3f 2a 51 e8 be
       -1.1204431 -0.08755124 0.7249749 -0.45374423
000210 18 ab 7e bf af 5d be be 63 a5 ed 3e 1b f5 21 40
       -0.9947982 -0.3718085 0.46415243 2.530585
000220 f2 74 9d 3f f1 47 32 3f 42 a6 a0 3f 4f c9 da 3e
       1.2301314 0.69641024 1.2550738 0.4273171
000230 af 39 c4 3d 22 29 29 bf 7a 8a d5 bf a0 18 a1 be
       0.09581315 -0.6607839 -1.6682885 -0.314641
000240 c8 62 84 be 66 68 c5 bf db 6c 91 3f 8b 5b cf 3f
       -0.25856614 -1.5422485 1.1361345 1.6199812
000250 e1 4f 56 3f ae 3a b1 bf ef 80 ba bf a6 f3 4a be
       0.83715636 -1.3846033 -1.4570597 -0.19819507
000260 93 23 e4 be ed f4 08 40 fd 2c 44 3f 00 f3 13 bf
       -0.4455839 2.139949 0.76631147 -0.57792664
000270 72 0a 27 bf 8c 5f a3 3f e5 f5 3f bf 04 2c e3 3e
       -0.65250313 1.2763534 -0.7498458 0.4436952
000280 0f 3e af 3f c3 ef c8 3f ca 92 95 3f ca e5 bb 3e
       1.3690814 1.569817 1.1685421 0.36698753
000290 56 a2 68 3f 52 c3 fd 3f 06 05 60 bf 03 e5 9e 3f
       0.90872705 1.9825232 -0.87507665 1.2413639
0002a0 22 0d 7d 3e f5 23 59 bf 57 6e 23 be 8d bd ef 3e
       0.24712041 -0.8482049 -0.1596006 0.46824303
0002b0 74 a3 74 3f 5c bd 62 bf 42 5a cc 3f af 0a 81 bf
       0.9556191 -0.8857019 1.5965044 -1.0081385
0002c0 fb e0 c8 3c 2f 1a 19 3f 89 9d 31 bf 7b a8 35 40
       0.024521342 0.5980558 -0.69381005 2.8384082
0002d0 85 7b 20 3d b2 5d 8f 3e 9e 3a 32 3d 67 70 57 bf
       0.039180297 0.2800117 0.043512933 -0.8415589
0002e0 a0 4f c7 bf 50 91 54 be 8a 50 d2 3e 55 57 16 3f
       -1.5571175 -0.20758557 0.4107707 0.5872701
0002f0 14 0a 0e 3f 74 83 66 bf 50 f1 25 3f 50 dc dd 3f
       0.5548413 -0.9004433 0.6482134 1.7332859
000300 11 94 80 3e 79 7d 72 3e 86 e5 cd 3f 44 95 2e 3d
       0.25112966 0.23680677 1.608567 0.04262282
000310 60 3e 16 3f 93 a6 7f 3e a6 8b ef be 46 3b 3d 3f
       0.58688927 0.24965887 -0.4678623 0.7391857
000320 1e f4 95 bf 1b 67 09 3f 79 88 50 bf dc 91 ed bf
       -1.1715124 0.5367295 -0.8145824 -1.8560138
000330 3c 41 42 be 12 29 05 3f 4f ca 8c 3f 86 87 8b bd
       -0.18970197 0.52015793 1.099924 -0.068129584
000340 d0 64 2e 3f 09 a8 d4 3e ad c4 63 bf 47 e7 f5 3f
       0.6812258 0.4153445 -0.8897198 1.9211205
000350 76 f1 b6 bf 9d aa a7 3e dd a8 71 be 5a d9 81 3f
       -1.4292438 0.32747355 -0.23599572 1.0144455
000360 e4 a8 8a 3f 6b 43 83 bf 18 ca 1f bf bf ee a1 3d
       1.0832791 -1.0254949 -0.62417746 0.07906865
000370 22 08 72 3e dc 97 f2 3e dc ab 10 c0 ec 4b ad 3e
       0.23635915 0.47381485 -2.2604895 0.33846986
000380 f0 3f 08 3f 0f 4b 8a be 68 b4 da 3f 9e 4e 85 40
       0.5322256 -0.2701039 1.7086306 4.165847
000390 d5 65 07 3f e2 27 70 bf cb 58 e4 be 4e bb a4 3d
       0.5288976 -0.93810856 -0.44598994 0.08043538
0003a0 ad c1 2e 3f 78 bc ab be 30 23 ad 3f 41 57 0a 3f
       0.68264276 -0.33542228 1.3526363 0.5403939
0003b0 12 3b b8 bf 53 dc d7 3f 4b da 7e 3f c4 60 aa be
       -1.4393027 1.6864113 0.9955184 -0.3327695
0003c0 41 aa ca 3f 4a ff ed 3f 14 d6 18 be f1 03 27 bf
       1.5833207 1.8593533 -0.14925414 -0.6524039
0003d0 22 6d f6 bf cc 06 fa 3f ac fc 96 be fa df a5 3d
       -1.9252055 1.9533324 -0.29489648 0.08099361
0003e0 13 df 17 bf 6f 50 80 3f 90 53 d0 be f6 90 ad 3f
       -0.5932476 1.0024546 -0.40688753 1.3559864
0003f0 2c 82 86 3f 99 82 3e 3e 77 a0 ab bf 93 ec 88 bf
       1.0508475 0.18604507 -1.3408345 -1.0697197

2 f4 [3, 74]
000000 9d df a1 3e e2 33 71 3f 6f db 06 bf 5d f1 e6 bf
       0.31615916 0.9421979 -0.5267858 -1.8042408
000010 ed bf 5a 3d fe 7b f9 3d 40 58 42 bf c9 d9 9d bf
       0.05340569 0.12181853 -0.7591591 -1.2332088
000020 91 40 06 3f 57 74 ce 3e b7 52 7e 3f a5 68 b9 3f
       0.5244227 0.40323135 0.9934496 1.448506
000030 ad 3b b9 3f b2 af f6 3e 3f 3f 05 bf 14 59 21 40
       1.4471337 0.4818092 -0.5204963 2.521062
000040 c9 48 af 3d ab 9d 58 3e ca 1e ed 3e 34 18 98 be
       0.085588045 0.21153896 0.46312553 -0.29705966
000050 ae 42 9f bf df bd 90 bf c1 f2 cf bd 78 72 a7 be
       -1.2442224 -1.1307944 -0.101537235 -0.3270452
000060 8a 5b f0 be fe 78 53 3f c8 af 7b be a3 dd 00 3f
       -0.4694484 0.82606494 -0.24578774 0.5033819
000070 e2 f4 15 bf 09 cd ac 3e 24 52 a9 be e7 21 6d be
       -0.58576787 0.3375018 -0.3307048 -0.23157464
000080 ca a9 25 3e 1c eb 1f 40 ad 7d 62 bf cb 07 36 be
       0.1617805 2.498725 -0.88473016 -0.1777641
000090 d5 7a 6f 3f 66 7d bc 3f 52 6d b0 3f 2e e5 aa bf
       0.935468 1.4725769 1.3783362 -1.335119
0000a0 bc 9e 84 3f 3f 13 50 3f 45 4f b6 3f fa 63 d3 bf
       1.0360942 0.8127937 1.4242941 -1.6514885
0000b0 de f9 54 3f 0e 36 cc 3f c3 6e 97 3f e1 02 83 3c
       0.8319377 1.5953996 1.1830677 0.015992584
0000c0 db 4b a1 bf c2 34 43 3f 01 ce c2 be 16 b0 77 3f
       -1.2601274 0.7625238 -0.38047794 0.9675306
0000d0 96 a3 94 bf f3 5d f6 bf 94 17 60 be cc 95 01 be
       -1.1612422 -1.9247421 -0.21883994 -0.12654799
0000e0 35 73 67 be 18 ce 75 3d 00 27 6a 3f b9 e9 5c bf
       -0.22602542 0.060011 0.9146576 -0.8629413
0000f0 35 1e 38 bf 3f bc 5f 3f 61 fa 79 3e 1f ad 0b bf
       -0.7192109 0.87396616 0.24411918 -0.54561037
000100 b2 b3 9b 3d 91 e8 1c 3e 49 0a d6 3d 8b de b9 3d
       0.076026335 0.15323092 0.104511805 0.0907565
000110 04 94 67 bf 19 8c b1 be 7e a2 61 bf 60 5a 12 bf
       -0.9046023 -0.346772 -0.8813857 -0.5716915
000120 ac ef 0e 3d 03 bf 8d bf 1b c8 be be f1 82 f6 3e
       0.034896538 -1.1073917 -0.37262043 0.48146775
000130 c1 f8 ce be cc 7f 71 3e 27 6a 3b bd 64 0d 70 3e
       -0.4042416 0.23583907 -0.04575553 0.23442608
000140 dd 29 73 bf 69 13 ca 3d d7 fe ae 3f 68 f3 93 3f
       -0.94985753 0.098669834 1.3671521 1.1558657
000150 ed 6a 94 3e 44 4c 1b bf 15 48 e1 3f 14 f9 44 be
       0.28987828 -0.6066325 1.7600123 -0.19235641
000160 73 db 2e 40 a9 11 07 3f 80 03 9b 3f dd 8f 28 3f
       2.732144 0.5276132 1.2110443 0.6584452
000170 07 da d7 3f 93 01 a9 3f b0 03 ec 3f 10 7b d1 be
       1.6863412 1.3203605 1.8438625 -0.40914202
000180 57 7d c1 3f d3 0b f6 be b5 9d 3d be d9 33 28 3f
       1.5116376 -0.48055896 -0.18517192 0.65704113
000190 83 23 05 c0 3f fa 01 bd 19 3b 11 bf 49 7f 1a be
       -2.0802925 -0.031732794 -0.567308 -0.15087618
0001a0 00 77 8f 3f 49 24 e4 bd ed 41 1e 3f 62 6e 5a bf
       1.1208191 -0.11139733 0.61819345 -0.8532468
0001b0 8e 72 65 bf e5 c6 9b 3e 0e 61 ae 3f 2a 5b cf 3f
       -0.8962792 0.30425182 1.3623369 1.6199696
0001c0 73 9b 37 bf 6a a8 8b 3e 7a 57 33 bf 65 ac 0b ba
       -0.7172157 0.27276927 -0.70055354 -0.0005328118
0001d0 52 bf 14 3f ae ce 9c bf b9 6f 62 3f a5 99 e3 bf
       0.5810443 -1.2250574 0.88451725 -1.7781264
0001e0 c8 e4 f2 3e cf 0e c6 bf be 25 f3 3d 59 51 2e bf
       0.4744017 -1.5473269 0.11872433 -0.68092877
0001f0 07 d8 d1 bb ae 1c cd bf e0 77 77 bf 4b 2f 3c 3f
       -0.0064039263 -1.6024377 -0.9666729 0.73509663
000200 bb 71 7f 3f 38 88 cd 3f 65 94 99 bd f9 f2 fa bf
       0.99782914 1.6057196 -0.07499007 -1.9605399
000210 30 1e 0f bf f4 2c c7 3f a3 fb cc 3f f5 2f 7e 3f
       -0.5590544 1.5560594 1.6014293 0.99291927
000220 50 c8 35 3f 1b fa 86 3e 87 e6 bb 3f c3 94 b2 be
       0.7100878 0.2636269 1.4679726 -0.3487912
000230 22 7f bf bd 4f 7d 9d bf 62 5b 01 bf 49 33 90 be
       -0.093504205 -1.2303866 -0.50530064 -0.28164127
000240 1c fa 83 3f 14 0a 90 3f 85 9b 2e 3f 95 61 26 bf
       1.0310702 1.1253076 0.68206054 -0.6499265
000250 8b cb 82 be 2e de ed 3f 93 3d a0 bf e1 ff 0d 40
       -0.25545916 1.8583429 -1.2518791 2.2187426
000260 6f 25 76 3f ff d7 c8 3f 99 b4 52 bf fc 75 0f c0
       0.9615087 1.5690917 -0.8230682 -2.2415762
000270 e5 b8 59 3f 65 49 c1 bf 92 35 21 bf f7 23 0e 3f
       0.8504775 -1.5100523 -0.62972367 0.5552363
000280 b7 49 37 3f 5f 67 5d bf b9 5b 46 be 92 5d 6e 3e
       0.71596855 -0.86485857 -0.19370927 0.23277882
000290 a9 96 41 bf fa 32 26 c0 34 4c 88 bc f5 3b a3 3f
       -0.75620514 -2.5968614 -0.016637899 1.2752672
0002a0 7e b7 01 40 ed bf 12 3f 90 bb d2 be de 3d cf bf
       2.0268245 0.57324106 -0.41158724 -1.6190755
0002b0 a3 00 f4 3f 8b 09 f6 3f d3 46 9e be ce 79 a4 bf
       1.9062694 1.9221662 -0.3091341 -1.2849672
0002c0 f2 aa 57 bf b9 e0 4b 3f 33 3f a4 bf da 66 58 bf
       -0.84245217 0.79639775 -1.2831787 -0.8453194
0002d0 99 fe a2 3e af 8f 51 bf b8 c3 c9 3c 9d b0 78 3f
       0.31834868 -0.8185987 0.024629459 0.9714449
0002e0 b6 c7 93 bf f2 94 58 be 74 84 e8 bd 34 30 ae 3f
       -1.1545322 -0.21150568 -0.113533884 1.360846
0002f0 71 18 00 3e 8a bb cb 3f c0 36 cc 3f 7e 33 23 be
       0.12509324 1.5916607 1.5954208 -0.15937611
000300 fc dc d1 be 24 52 f5 be d2 9e 81 3d a4 e0 38 3f
       -0.4098891 -0.4791423 0.06329121 0.72217774
000310 a6 d1 a5 be 76 67 2f bf 4c fa e3 bc 2f 90 06 be
       -0.32386512 -0.68517244 -0.027829312 -0.13140939
000320 3f b0 f1 bf f8 4e 12 3f 8d b2 6a 3f b7 8e 46 bf
       -1.8881911 0.57151747 0.91678697 -0.77561516
000330 37 d5 73 be 98 7a 8f bf 18 7a 64 bd 38 0f 31 be
       -0.23811804 -1.1209288 -0.0557805 -0.17290962
000340 2c 02 02 3f a1 06 c5 bf 60 32 63 3f 2a be de be
       0.50784564 -1.5392648 0.8874874 -0.4350446
000350 3b 18 9d 3e 77 ba 39 bf 20 b7 3e be b1 a0 b6 bf
       0.3068255 -0.7255015 -0.18624544 -1.4267789
000360 21 a7 0f be 91 5a 59 3f d6 4f c8 3d 47 94 39 3e
       -0.14028598 0.8490382 0.097808525 0.1812297
000370 17 18 84 bf 54 ba f7 3f
       -1.0319852 1.9353738

3 f4 [5, 74]
000000 e2 9a 89 bf f1 8d ec be f6 5b 79 3e 3b 71 58 3f
       -1.0750391 -0.46202043 0.24351487 0.84547776
000010 45 26 3c bc 89 23 3a 3f 21 be 41 3f 0d 58 ac be
       -0.011483734 0.7271047 0.7568074 -0.33660927
000020 0b 65 d6 bf 27 2e 33 be 95 30 eb bf 65 00 d2 3d
       -1.6749586 -0.17498074 -1.8374201 0.102539815
000030 fc 72 82 be b6 b5 98 3e 4f 44 94 bc 63 88 8c 3f
       -0.2547835 0.29826134 -0.018098978 1.0979122
000040 80 5a b6 bf ff c9 83 3e a0 92 0e bf 8c 51 59 be
       -1.4246368 0.25740048 -0.5569248 -0.21222514
000050 1a 2e 93 3f f7 bf 17 bf f3 9e 7e bf 1e b3 73 3f
       1.1498444 -0.5927729 -0.9946129 0.95195186
000060 0b 4c e2 bf fb f2 0e 40 2c 2c ce 3e 53 58 8e bf
       -1.7679456 2.2335804 0.40268075 -1.1120704
000070 74 6c 87 3e e3 c1 85 bf 73 eb 00 c0 92 fa 10 bf
       0.2644993 -1.0449795 -2.0143707 -0.5663234
000080 fe fd 36 bf 64 00 1c 3e 28 aa 0d 3f b3 93 7f bf
       -0.7148131 0.15234524 0.5533776 -0.99834746
000090 ee 7a 32 3e a0 bf a7 bf 1b c5 80 3f 42 5c 0b be
       0.17429706 -1.3105354 1.0060152 -0.13609412
0000a0 db 7d ca be bf 7b a9 3e 5d a4 70 bd c9 94 93 3f
       -0.39549145 0.33102223 -0.0587505 1.1529781
0000b0 1a d1 c6 3f 11 09 2f bf 07 48 c2 be 44 5e 42 bf
       1.5532563 -0.6837321 -0.37945578 -0.7592509
0000c0 80 3e cf be 00 30 13 be 58 36 dd bf 75 fe c1 3f
       -0.4047737 -0.1437378 -1.7282209 1.5155779
0000d0 51 4c e2 3f c6 55 9c be e5 c9 8e be 65 81 b4 be
       1.767954 -0.3053419 -0.27888408 -0.3525497
0000e0 5e 35 a4 3f 09 77 b2 bf 2e 58 77 bf e8 36 79 3f
       1.2828786 -1.3942577 -0.96618927 0.97349405
0000f0 e9 81 03 bf 70 7f 10 3f 77 1e 1b be b6 79 07 3e
       -0.513701 0.56444454 -0.1514834 0.13230023
000100 69 9c b3 be 94 2a 4c 3f 84 91 dd 3f f4 63 23 be
       -0.3508027 0.7975247 1.7310033 -0.15956098
000110 51 21 96 3f ad a9 ce be 90 c4 3f bf 0c c0 3e bf
       1.1728917 -0.40363827 -0.74909306 -0.7451179
000120 e6 cf 40 3e 80 3a 11 be 1e 5c 78 3f 44 6d 8e be
       0.18829307 -0.14182472 0.9701556 -0.27817738
000130 58 87 74 bf d7 b3 69 3f 7b bd 7c bf 46 e9 6c 3f
       -0.9551902 0.9129004 -0.98726624 0.92543447
000140 74 30 1d bf fc fc 7f bf 81 44 89 3f f6 3a c4 3f
       -0.6140206 -0.999954 1.0724031 1.5330493
000150 4b 4f 8e bf ee 65 ef 3f 33 a4 49 3e 8c 55 b5 bf
       -1.1117948 1.8702981 0.19691543 -1.4166732
000160 5c ea 01 3f 87 14 80 bf 8c d1 5a be fe a1 09 be
       0.5074823 -1.0006264 -0.21368998 -0.13440701
000170 a8 99 58 bf 7c a6 9f 3f 47 7d 10 3f bc 31 be bf
       -0.8460946 1.2472682 0.5644116 -1.4858928
000180 1d f7 be bf 4d bb 0c be d2 7b 94 3f c8 1b 59 3f
       -1.4919163 -0.13743325 1.1600287 0.84808016
000190 1f 02 bd 3d 02 9f 3a 3e b7 c1 4f bf d4 14 fb be
       0.0922892 0.18224719 -0.8115496 -0.49039328
0001a0 bb ea 78 3f df a3 e1 ba 8a 55 7b be 3d 49 9e 3f
       0.9723317 -0.0017214975 -0.2454435 1.23661
0001b0 f4 c4 03 3f fd 9a 4d 3c 15 79 5e 3f 51 f4 82 bf
       0.514724 0.012549159 0.86903507 -1.023081
0001c0 f5 14 c7 be 01 92 df 3f c2 09 a8 be 0a 40 8d bf
       -0.38883176 1.7466432 -0.32819945 -1.1035168
0001d0 4f 38 45 bf 11 20 b7 bf 8a f5 9b bf ec e1 ce 3e
       -0.77039045 -1.4306661 -1.2184308 0.4040674
0001e0 68 41 0a bf f1 48 15 3f 81 07 d7 3f a0 8b 02 40
       -0.5400605 0.58314425 1.6799165 2.039772
0001f0 7f b0 33 3f 40 8d c5 3e 00 f0 26 3e 47 9b 08 3f
       0.70191187 0.38584328 0.1630249 0.53361934
000200 c0 5e 82 bf 10 63 9a 3f 29 b4 38 3d 5f da cc be
       -1.0185165 1.2061481 0.04509369 -0.40010354
000210 8e 07 0f 40 b7 72 4f bf b6 38 3d 3e 71 06 6b bf
       2.234836 -0.81034416 0.18478665 -0.91806704
000220 1c 37 8c 3f fc 03 6b be 39 af 00 3f 31 d4 e4 3e
       1.0954318 -0.22950739 0.5026737 0.4469314
000230 8a 38 11 3e d4 b0 a5 bf 2e 17 8a 3f 41 13 2e 3f
       0.14181724 -1.2944589 1.0788324 0.6799813
000240 7d 89 c1 bf b3 2e 70 bf 0f aa d7 be bc 9a 6b bf
       -1.5120083 -0.9382126 -0.42121932 -0.9203298
000250 c8 be 63 bf 43 78 15 be 51 33 a3 3f 14 91 23 c0
       -0.88962984 -0.14596657 1.2750036 -2.5557299
000260 a8 b5 44 3f fc 22 d8 bf d7 3c 3e 3e af 4b 9f 3f
       0.76839685 -1.6885676 0.18577896 1.2444972
000270 03 9f e3 3f fb 25 49 bf c2 72 84 bf 5a 50 d2 3c
       1.7782902 -0.7857358 -1.0347521 0.02567308
000280 c2 bc c5 bf ca 28 99 bf 59 68 12 bf 61 c3 07 be
       -1.5448229 -1.1965573 -0.5719047 -0.13258125
000290 ff d1 fc bf 43 80 b4 3f 19 0b a6 bf 8c d8 95 3e
       -1.9751586 1.4101642 -1.2972137 0.29266775
0002a0 7e 69 38 bf 90 e1 cc be 0c 7d a0 3f 07 73 38 bf
       -0.7203597 -0.4001584 1.2538161 -0.7205052
0002b0 ab 9a 18 3d 09 a7 0d bd fd 12 ed 3f 48 e2 13 3e
       0.037256878 -0.034583125 1.852142 0.14441788
0002c0 c9 70 9e be 55 e1 19 be b7 0a 25 3f cd 8a c0 be
       -0.30945423 -0.15027364 0.64469475 -0.37605897
0002d0 70 70 3c be b0 65 e4 3f f1 b7 1f bf c0 98 41 bf
       -0.18402267 1.7843533 -0.6239005 -0.75623703
0002e0 52 5b c5 3d 99 7c 0a 40 11 32 b6 3e 0a 6f a9 3f
       0.096365586 2.1638548 0.35585073 1.3237011
0002f0 fe 12 d2 3e 72 7d bd 3f 6a ce b8 bf 3e 77 a9 bf
       0.41030115 1.4803908 -1.4437993 -1.3239515
000300 25 a8 e2 bd 1f 13 4e 40 bd 15 eb bf 83 7d 97 be
       -0.11067227 3.219917 -1.8366009 -0.29587945
000310 60 92 5d 3f 51 ff 16 bf 47 34 96 3f a1 92 85 bf
       0.86551476 -0.5898333 1.1734704 -1.0435373
000320 4b 11 b2 bf e6 8d ab 3f ef f2 37 3f 14 dc 17 bf
       -1.3911527 1.3402679 0.7185506 -0.5932019
000330 ca 2c e5 3f 05 95 b1 bc 63 e8 ea bf c8 44 b7 3f
       1.7904294 -0.021677503 -1.8352169 1.4317865
000340 0b 94 08 3f 82 c9 89 3f 95 00 7c 3e 32 88 64 be
       0.53350896 1.076462 0.24609597 -0.2231758
000350 79 27 a8 3e a9 9a 89 3e ee 87 98 be 42 cd 43 bf
       0.32842615 0.2687581 -0.29791206 -0.76485074
000360 3b c5 9c bf 8c ff f0 3e 3d f5 5e bd 40 e9 56 3f
       -1.224769 0.47069967 -0.054433096 0.8394966
000370 68 3e 5d 3f cc c9 a3 be c8 3a 99 be 14 a5 a3 be
       0.8642335 -0.31989896 -0.2992766 -0.31961882
000380 b8 0f 35 3f 03 94 14 bf 5a 95 90 bf da f0 46 bc
       0.7072711 -0.5803835 -1.1295578 -0.012142384
000390 c1 23 2b 3e cf 98 21 3f 00 19 bf 3d 6f 6e cb 3f
       0.16712858 0.6312379 0.0933094 1.5893077
0003a0 d7 b8 cd bf 28 de 34 3f 00 23 29 bf 59 97 d7 bd
       -1.6072034 0.70651484 -0.6606903 -0.10526914
0003b0 34 e9 4c be 3d f9 c3 3f ff 6b 0c 3e 88 71 83 3f
       -0.20010835 1.5310436 0.13713072 1.0269022
0003c0 1e ca 9b bf 6e e8 85 bf 13 26 9b 3e 62 c8 dc 3f
       -1.2171056 -1.0461557 0.30302486 1.7248652
0003d0 26 60 af bf 91 96 c9 3f 61 17 57 be 10 d8 1d bf
       -1.3701217 1.5749074 -0.21005012 -0.6165781
0003e0 1b de dc 3e 94 d5 00 bf cd 10 f6 bf fb 4f 69 bf
       0.43138203 -0.50325894 -1.9223877 -0.91137666
0003f0 ff 9e 8b be 62 68 2c 3f 8e e2 36 3f 06 40 be bf
       -0.27269742 0.67346776 0.71439445 -1.4863288

4 f4 [3, 74]
000000 e6 e3 63 3f 82 f1 c2 bf 46 60 48 3e 69 b0 28 3f
       0.8901962 -1.5229952 0.19567975 0.6589418
000010 c3 f7 db bf ea 0a 32 3f c3 6d a2 bf e6 5a 79 bf
       -1.7184986 0.69547904 -1.2689747 -0.97404325
000020 39 07 fd be 77 48 82 3f 7a 05 73 bf bc 4a 72 bf
       -0.49419573 1.0178365 -0.9493023 -0.94645286
000030 4e 3d 3c 3e c1 ed 6a be 7d 3c 84 bf 63 32 e3 3e
       0.18382761 -0.22942258 -1.033096 0.4437438
000040 61 ef 16 3f 85 b9 e5 bf 4d 52 b7 bf bc 38 cf bf
       0.58959013 -1.7947241 -1.4321991 -1.6189189
000050 e0 fc be bf f2 c9 b3 bd 23 8f 08 bf 7f 0a 23 bf
       -1.4920921 -0.087787524 -0.5334341 -0.6368789
000060 1c 99 0d 3f a1 4c 46 3f a2 5c 7f bf 8e c7 62 3e
       0.5531175 0.77460676 -0.9975072 0.22146437
000070 dd 3a 91 3f c4 ac b9 be 6a 01 a4 3f 5f 20 87 be
       1.1346089 -0.36264622 1.2812932 -0.26391885
000080 ac d7 c8 3d 6e b5 35 3f 1c 24 a2 be 03 6d 88 3e
       0.09806761 0.70979965 -0.31668174 0.2664567
000090 f0 ac ce be 91 56 97 3f f5 37 22 be bc 8d ed 3f
       -0.40366316 1.1823293 -0.15841658 1.8558879
0000a0 0c 58 46 be 16 b7 42 3f 96 d4 05 40 b1 09 a7 3b
       -0.19369525 0.76060617 2.0911002 0.005097591
0000b0 44 8e 53 3d 57 6f df bd db f2 47 3f 34 e7 f8 be
       0.051649347 -0.10909908 0.78104943 -0.48613894
0000c0 0d 78 0d 3f b1 93 b9 be d6 49 b4 3f 85 d4 63 bd
       0.5526131 -0.36245492 1.4085033 -0.055622596
0000d0 02 0a ae 3e c1 c8 79 be c3 d9 b3 bc e5 01 9e 3e
       0.3399201 -0.24392988 -0.021954423 0.3086082
0000e0 5f f4 6b 3f fb 99 f3 bd ff b0 73 bf f0 ce 02 bf
       0.92169756 -0.11894604 -0.9519195 -0.5109701
0000f0 5e ee 0a 3f 67 20 b5 3e 85 3b b4 3e d5 da 8d be
       0.5426997 0.35376284 0.3520166 -0.27706018
000100 8c dc 16 bf d0 65 d2 bf d6 30 97 3f c9 63 9b 3f
       -0.5893028 -1.6437321 1.1811779 1.2139827
000110 54 df 87 3f f3 d0 f3 be c3 42 15 c0 e5 31 19 3f
       1.0615029 -0.47620353 -2.3321998 0.5984176
000120 26 2a 92 bf 77 f1 0c 3e a9 b0 78 bf 16 88 00 bf
       -1.1419113 0.13763987 -0.9714456 -0.5020765
000130 18 70 b2 bd e4 77 d6 bf 4e 75 d6 bf 00 64 da bf
       -0.087127864 -1.6755338 -1.6754549 -1.7061768
000140 b5 6e b6 bf 37 33 91 bd 41 e0 7b bd 95 5b 82 3f
       -1.4252535 -0.070898466 -0.061493162 1.0184199
000150 71 10 17 3f 54 6d 9c bf c0 c4 09 3f bd b9 19 bf
       0.5900946 -1.2220864 0.5381584 -0.6004904
000160 0b 46 a3 3e 96 c6 c0 be 67 26 2a 3f 94 98 3a be
       0.31889376 -0.3765151 0.6646485 -0.18222266
000170 95 32 3d 3d 08 d6 9f 3e b4 10 0e 3f 37 5a e4 be
       0.046190817 0.3121798 0.55494237 -0.44600078
000180 4a bc f4 3e f9 5c 25 3f 37 4f 79 3d 11 b3 8f bf
       0.47799903 0.6459499 0.06086656 -1.1226522
000190 ad 1a 82 3c b7 66 ed be 29 8e 84 3f 7d 58 72 3f
       0.01588186 -0.46367428 1.0355884 0.9466627
0001a0 02 ce 98 bf 85 08 aa 3f 9c 6a cb 3f ec ed 03 3f
       -1.1937869 1.328385 1.589191 0.51534915
0001b0 5c bd 65 3f a4 e2 a3 be 19 d6 0e 3f 29 78 03 bd
       0.89742064 -0.3200885 0.5579544 -0.032097016
0001c0 eb 03 96 3f 88 28 0a 3f 0a 60 f3 3e 26 de 9a bf
       1.1719946 0.53968096 0.4753421 -1.2099044
0001d0 cd a5 9e 3f d7 d4 62 be 12 53 cc be c7 28 ea 3e
       1.2394348 -0.22151504 -0.39907128 0.45734236
0001e0 e2 a6 05 3c 81 95 07 c0 e3 25 eb bf ac 01 ad 3e
       0.008157464 -2.1185 -1.8370937 0.33790338
0001f0 7d 36 02 40 05 0b cc bf 8e 46 3b 3f 29 16 16 bf
       2.0345757 -1.5940863 0.7315453 -0.58627564
000200 cc 96 b2 bf 04 d9 a9 bf 63 20 9c 3f 40 86 58 be
       -1.395227 -1.3269353 1.2197384 -0.21144962
000210 11 ca 7c bf 69 29 f4 bf 5d b6 5d 3c 04 55 a3 bf
       -0.9874583 -1.9075137 0.013532248 -1.276032
000220 2a 13 89 be c9 95 56 bf 6c 77 85 3e c4 9a ba 3d
       -0.26772434 -0.83822304 0.26067674 0.091115505
000230 47 5e 61 3f 24 3f 6e 3f b7 f0 86 bd ea 0d ca bd
       0.8803448 0.93065095 -0.065888815 -0.09865935
000240 b9 f4 f7 bf 35 76 2d 40 dd e5 c3 be 0a a3 de bc
       -1.9371558 2.7103398 -0.3826131 -0.027177352
000250 09 a3 89 be 32 b0 6e 3f cd 00 20 bf 2c 00 91 3d
       -0.26882198 0.932376 -0.6250122 0.07080111
000260 a8 22 83 3f 2e a3 56 3f f0 a7 59 be 0c 5d 7f bf
       1.0244951 0.8384274 -0.2125547 -0.99751353
000270 03 8f 4e 3f b3 47 13 3f dc 2a 47 3f 28 0e 59 c0
       0.8068697 0.5753128 0.77799773 -3.391489
000280 a8 07 af bf 9a e8 84 bf a5 85 94 3f 6a 17 4a c0
       -1.3674212 -1.0383484 1.1603285 -3.157679
000290 d1 b1 7f 3f 65 6f e4 3f 1d c1 bf 3f 68 90 47 3f
       0.998807 1.7846495 1.4980808 0.7795472
0002a0 c0 cb 8c bf 43 6b 80 3f c1 c4 86 3d 78 a5 d3 3f
       -1.099968 1.0032734 0.065804966 1.6534872
0002b0 3c 7e de 3e df ad c8 bd 9c 56 55 bf 18 ed bc 3e
       0.43455684 -0.09798788 -0.8333528 0.36899638
0002c0 04 ad 37 bf b1 df 97 3e 31 2f c1 3d 75 f4 10 c0
       -0.71748376 0.2966285 0.09432829 -2.2649205
0002d0 43 e5 c4 be e7 d5 1a 3f e6 24 05 3f df df ce 3e
       -0.38456163 0.6048264 0.5200943 0.40405175
0002e0 df 7c 92 3d 54 96 a9 be f8 0d 03 3f cf a0 97 3f
       0.071527235 -0.33122504 0.5119319 1.184595
0002f0 6a 60 20 bf 82 5b 07 3f 90 6f 2a 3e b9 b1 a5 3f
       -0.62647116 0.52874005 0.1664412 1.2944862
000300 5d 8d ce be 94 88 ac 3e 0a 7a 50 bf 40 92 20 3f
       -0.40342227 0.3369795 -0.81436217 0.6272316
000310 5b d2 6a bf 7e 61 8d 3c 53 bb ca 3f 98 d2 42 bf
       -0.91727227 0.017258402 1.5838417 -0.7610259
000320 62 c0 11 be 18 5c fe bf 82 f7 b3 3f 17 80 98 bf
       -0.14233544 -1.9871855 1.4059908 -1.191409
000330 55 d0 ee bf f5 ff 0a 3f 46 91 b2 bf 6e 3b 13 bf
       -1.8657328 0.5429681 -1.3950584 -0.5751256
000340 84 0e 33 bf 31 d9 10 bf 22 a2 2f 3f ff 20 32 bf
       -0.69944024 -0.5658141 0.6860677 -0.695816
000350 7a 6b 8c 3f 0e e9 a7 bf 2f 14 3c 3f 77 33 19 3f
       1.0970299 -1.3117998 0.734683 0.59844154
000360 ab 57 c0 be 03 ea 17 3d ac 2f 1f 3f 58 a6 2d c0
       -0.37566885 0.037088405 0.62182117 -2.7132778
000370 bf 21 ee 3d de 1b bc 3e
       0.1162753 0.3674001

5 f4 [5, 74]
000000 c6 40 1a bd f0 32 31 3d be 4e f8 3e 2f f7 d7 bf
       -0.03765943 0.04326147 0.48497576 -1.687231
000010 93 d2 db be 8b 63 45 bd d4 61 a9 bf 24 10 1d be
       -0.42934093 -0.048190635 -1.323298 -0.15338188
000020 f6 3d 83 bf 17 77 9c bd fa b8 66 3f 7e 9d 37 3f
       -1.0253284 -0.07639902 0.90126 0.7172469
000030 e1 6c 2c 40 3c 95 bd be 22 69 11 be 58 81 77 3f
       2.6941454 -0.3702792 -0.14200261 0.9668174
000040 3a 95 ea be c9 43 e2 3e 4e 53 5d 3f c6 47 5c bf
       -0.45816976 0.4419234 0.8645524 -0.8604702
000050 5a f4 b7 bf 6e 44 b0 3f 97 dd 38 bc 9f cb d0 3f
       -1.4371445 1.3770883 -0.0112833 1.631214
000060 52 61 d2 bf 9c 43 f0 bf 1d 02 a6 bf 33 86 c3 bf
       -1.643595 -1.8770633 -1.2969395 -1.5275329
000070 00 44 9c bf 2a 65 b3 3f a5 8f a8 3f 6f a0 9a bf
       -1.2208252 1.4015248 1.3168837 -1.208021
000080 90 ba d0 be e7 0f 8a 3f 2f e5 29 bc 07 9a 17 3f
       -0.40767336 1.0786103 -0.010369583 0.592194
000090 37 af b3 3e fa e1 43 bf e9 d5 4d 3f 04 e6 88 be
       0.35094616 -0.7651669 0.80404526 -0.26737988
0000a0 95 b7 6e bf c4 1c 0c 3f cb 10 99 bf 7e 4e 1c 3f
       -0.93248874 0.5473139 -1.195825 0.6105727
0000b0 d1 e5 d2 3f c0 e7 be 3f c6 c1 9d bc c6 fd 2f 3e
       1.6476384 1.4914474 -0.019257437 0.1718665
0000c0 59 a9 81 3f ee 06 53 bd 27 b2 38 3f bc b7 a5 bf
       1.0129806 -0.05152028 0.7214684 -1.2946696
0000d0 45 31 1d bf 54 f4 2e c0 3c bf da bd 85 d1 51 bf
       -0.61403304 -2.7336626 -0.10681006 -0.81960326
0000e0 c5 fa ca 3e 6b 1a 49 3f c9 1f bf bf b4 9f 9e bf
       0.39644447 0.78555936 -1.4931575 -1.2392488
0000f0 8b fc 18 bf 52 f8 fa be 3e fd e0 bf ed b5 ac bf
       -0.5976035 -0.49017578 -1.7577283 -1.3493019
000100 fa c5 34 3f 41 eb 5c 3e 8d 2e 01 39 09 62 dd 3e
       0.7061459 0.21574117 0.0001231974 0.43238857
000110 c3 c1 bc 3d 68 b4 03 3f 6c d5 0c 3f 5a f1 54 3f
       0.092166446 0.51447153 0.55013156 0.83180773
000120 2d f5 3f bf 98 c5 c4 3d e8 aa 5e 3e 0c 6d 09 3f
       -0.74983484 0.096080005 0.21744883 0.5368202
000130 73 87 e6 bf 8b ad 23 bf 5a c0 90 3e 2e e3 34 bd
       -1.8010086 -0.6393668 0.28271753 -0.044161968
000140 48 59 27 3f 94 ec a2 3e af a1 57 3e 5d 97 c0 bf
       0.6537061 0.3182112 0.21057771 -1.5046192
000150 fb 9b 8e 3e c5 1c ed 3e 77 e3 f3 bf cf d6 53 be
       0.2785338 0.46311012 -1.9053792 -0.20687412
000160 ed 27 24 be 80 5c b9 bd a7 07 7a be da 38 f0 be
       -0.16030855 -0.09050846 -0.24416982 -0.46918374
000170 23 b0 40 bf ca d2 ba 3e c5 f5 ad be 52 ef b9 3e
       -0.75268763 0.36488944 -0.3397657 0.363154
000180 13 9a fa be 1d a2 5d 3f 75 5c 92 bf ae ac 12 40
       -0.48945674 0.8657549 -1.1434466 2.2917895
000190 6f 1d 88 be 72 50 8e 3f 1d 8e de bf 75 27 8f bf
       -0.26584956 1.11183 -1.738712 -1.1183916
0001a0 c9 5c 86 3f 0b 98 fb bf 9c 09 7e 3f ea 85 5f bf
       1.0497066 -1.9655775 0.9923341 -0.8731371
0001b0 78 74 75 3f 5e 7d a3 bc 7d 0a a6 bd ef 6c 13 be
       0.9588084 -0.01995724 -0.08107469 -0.14397024
0001c0 db 58 23 3e d4 a7 d7 bc 03 41 37 bf 32 a3 f5 3e
       0.15951864 -0.026325144 -0.71583575 0.4797607
0001d0 52 c8 91 3f fb 35 20 3e 68 ca 41 bf ea 09 30 be
       1.1389258 0.15645592 -0.7569947 -0.17191282
0001e0 a6 a7 dd be 5e 14 aa 3e b0 db bc bb 56 dd 1d bf
       -0.43291968 0.33218664 -0.0057634935 -0.61665857
0001f0 81 45 1e 40 b2 82 17 3e 46 9d 25 be b5 96 9c be
       2.4729922 0.1479595 -0.16173276 -0.3058373
000200 99 29 2a 3f 21 fa f0 be 0a b8 09 3f 9a a8 b3 be
       0.66469723 -0.47065833 0.53796446 -0.3508957
000210 79 4b 7a 3f 12 3b 1b c0 37 a7 14 3f 0c 62 1a bf
       0.9777141 -2.4254804 0.5806765 -0.6030586
000220 62 85 ee be 31 b7 ac bf a4 fb 82 3f 81 e5 f3 3f
       -0.46586138 -1.3493406 1.0233045 1.9054414
000230 9f 96 53 3f b9 a6 94 bf 40 e2 03 3f 7e 50 29 c0
       0.82651705 -1.161338 0.51517105 -2.6455379
000240 4c 41 d6 3f 1f 84 cb bc 16 2b ac bf ff dc bd bf
       1.6738677 -0.024843274 -1.3450649 -1.4833068
000250 54 5b 59 bf b2 cf 4a be af eb 93 bf 25 70 f6 3d
       -0.8490498 -0.19805792 -1.15563 0.120331086
000260 58 ab df be 41 b8 36 3e 91 d2 3c 3d 21 83 f8 be
       -0.43685412 0.17843725 0.04609925 -0.48537543
000270 e7 7f 75 3f 16 c3 6e 3f 41 09 cd 3f 13 dd 17 3d
       0.9589829 0.9326643 1.6018449 0.037076067
000280 3c 66 08 40 27 c9 38 bf 4f 63 8e bf 1a 2f 76 3f
       2.13124 -0.72181934 -1.1124057 0.9616562
000290 40 bc f2 3e 11 76 1e bf be c3 54 be 00 60 39 3f
       0.47409248 -0.61898905 -0.20777795 0.7241211
0002a0 61 e5 07 c0 00 df c7 bf da 10 76 be 60 49 af be
       -2.1233752 -1.5614929 -0.24029866 -0.34235668
0002b0 ac 59 73 3f 92 b8 bd 3f e1 5f 37 bf 3d 21 cb be
       0.95058703 1.4821951 -0.71630675 -0.39673796
0002c0 ab f1 a2 bf e4 14 9d 3f 36 66 1c 3f 3f 61 c0 3f
       -1.2730001 1.2272 0.6109346 1.5029677
0002d0 a7 14 2a 3f 6a e7 68 bf 69 87 8d 3e 88 d3 f2 3e
       0.6643776 -0.9097811 0.27642372 0.4742701
0002e0 4d 25 85 3f ad dc 3e 3f 3a c7 25 bf 15 d8 f9 3f
       1.0402008 0.74555475 -0.6475712 1.9519068
0002f0 60 7c e4 bf 90 63 83 be 3f 5a a5 bf 96 ae df 3e
       -1.7850456 -0.25661898 -1.2918166 0.43687886
000300 13 e3 2f 40 93 9a 06 bf b1 89 21 3f 3c 15 b8 3f
       2.7482345 -0.5257961 0.63100725 1.438148
000310 2c d2 20 3c 40 1d bf 3e 7e 91 08 3f ab ca 0b bf
       0.009815734 0.37327003 0.53347003 -0.5460612
000320 51 9f 9b 3f 09 b1 6a 3f 28 5f d0 bf 26 de b7 be
       1.2157995 0.91676384 -1.6279039 -0.35911673
000330 92 76 c1 3f b2 6b 87 be 22 dd 2c 3f 1a 01 08 c0
       1.511431 -0.26449353 0.6752492 -2.1250672
000340 ba 7f 23 bf 55 ea 05 bf d7 56 49 40 b4 c8 60 bf
       -0.6386677 -0.5231069 3.1459253 -0.8780625
000350 1b 05 ee bf c7 79 26 c0 11 cf 88 3f 30 86 85 be
       -1.8595308 -2.6011827 1.0688192 -0.2607894
000360 e5 84 22 bf 8c 79 34 bf e2 a6 12 be 2b 88 c8 be
       -0.6348403 -0.70497966 -0.14321473 -0.39166388
000370 6c 34 8c 3f 21 a4 d7 bf e2 60 90 3f ed d9 59 3f
       1.0953498 -1.6846963 1.1279566 0.85098153
000380 80 04 02 c0 33 3a 03 bf 1b 0c 8f 3f 4c 95 e1 3f
       -2.0315247 -0.5126068 1.1175569 1.7623687
000390 47 64 89 3e 33 81 0a be 5b e8 38 bf a5 f2 50 3f
       0.26834318 -0.13525848 -0.72229546 0.81620246
0003a0 c2 ed 11 c0 72 ef 28 be 5b d2 dc bf fa 90 79 bf
       -2.2801366 -0.16497591 -1.7251695 -0.9748684
0003b0 c0 2f dc 3d bc d0 a3 3f 68 4d 71 bd a1 4f dd 3c
       0.10751295 1.2798076 -0.05891171 0.02701551
0003c0 8d 11 d0 be 4c bf c7 bd 8f f2 4d bf ca 49 14 3e
       -0.4063839 -0.09753284 -0.8044824 0.14481273
0003d0 b0 7c 0c 3d 2d 6f 84 bd b0 e3 47 3e dc 78 39 bf
       0.0342986 -0.064665176 0.1952045 -0.7245004
0003e0 ff 56 f5 be 75 b4 8a bf ba e2 53 bf 7f 7c 34 bf
       -0.47917935 -1.0836321 -0.8276783 -0.70502466
0003f0 15 fe 3e 3f df 86 b4 bf 54 50 67 3f 35 60 e1 be
       0.7460645 -1.4103659 0.90356946 -0.44018713

6 f4 [3]
000000 b2 8c 50 be 16 26 5f 3f 94 24 f6 be
       -0.20366171 0.8716749 -0.48074782

7 f4 [5]
000000 80 f4 c1 3d 96 09 95 bf 1a 49 c8 bf d4 48 2e 3e
       0.09470463 -1.164355 -1.5647309 0.17019969
000010 99 dd 7d 3f
       0.99166256

weight f4 [2, 2]
000000 e0 24 91 bc d6 71 86 3f 2a 5b f5 3f 26 03 ec 3f
       -0.017717779 1.050349 1.9168446 1.8438461

bias f4 [2]
000000 10 11 be 3e a6 c1 d6 3f
       0.37122393 1.6777847
