src/pytorch_extension/tbcnn_keep.pt (torch_old, 25608 bytes, 6 tensors)

0 f4 [2, 5]
000000 b1 8a 10 bf 5c 2b 40 3f 69 28 59 3f 35 8d 6a 3e
       -0.56461626 0.7506616 0.84827286 0.22905429
000010 9d 5c b1 3f f4 a0 e2 bf 5e ad c0 3e 08 aa 84 bf
       1.3856388 -1.7705369 0.3763227 -1.036439
000020 f5 4e 94 3e 47 ee 87 bf
       0.2896649 -1.0619591

1 f4 [2, 5]
000000 35 3c 9d bf 73 70 06 bf 8c 2b 50 3f 4e 65 24 be
       -1.2283999 -0.52515334 0.8131645 -0.1605427
000010 26 12 8f bf dd e1 0a 3f 0c 95 27 bf 95 e1 9b bf
       -1.1177413 0.5425089 -0.654618 -1.2178217
000020 57 b2 d1 be 89 50 16 bf
       -0.40956375 -0.58716637

2 f4 [2, 5]
000000 11 32 0c 40 af d2 b5 3e 39 09 46 bf c7 c6 76 bf
       2.1905558 0.355123 -0.7735782 -0.9639706
000010 78 a2 84 be 97 11 b7 3f 25 bb 54 3f c2 c1 b7 be
       -0.25905204 1.4302243 0.8309806 -0.35890013
000020 77 aa 47 3f b6 96 3f bf
       0.77994484 -0.7483934

3 f4 [2]
000000 09 8f c5 3f de 62 bf bf
       1.5434276 -1.4952047

weight f4 [2, 1]
000000 ae b3 c3 bf 40 ef 1f 40
       -1.5289209 2.4989777

bias f4 [2]
000000 6f a4 b0 bf fc c1 17 3f
       -1.3800181 0.5928037
