src/pytorch_extension/tbcnn_2019-02-04T16:26:00.128844.pt (torch_old, 32032 bytes, 10 tensors)

0 f4 [3, 74]
00000000: 0bd6 183f 47f3 3a3f 1825 8a3f 9341 30bf
00000010: 9f3b e73f 7535 c03e 5dd2 ba3f a4d5 2940
00000020: 7295 1cbc 9916 f5be fd8b 9f3f f9a7 2c3d
00000030: d484 a63f 623e 883f a63a cdbe 1c06 ab3e
00000040: aed0 35bf ed4d b53f 08cb 23bf 0524 dcbf
00000050: c619 853f a59d 1ebf d178 0e40 fbec 8f3f
00000060: 1db8 0b3e 945e 4d3e 2e0e a33f 6bcb 77bd
00000070: f51a 2abf aa10 94bf 2868 0c3f 2cb4 dabf
00000080: 256f fa3e 5c36 e33e 2ab9 953e 65e1 af3e
00000090: 296c a5bf 6f24 c5bf b877 5b3f 9e95 f73c
000000a0: 143e 9cbf 84fc efbf eec2 2fbf 6a68 9b3f
000000b0: d650 ebbf f54d 63bf 4732 fd3f 0172 8b3e
000000c0: 8e3a 853f c330 3dbe cd45 b53f c37e 323f
000000d0: c96e 64bf a49b 33c0 86d2 163f 29de 6dbe
000000e0: 5306 3bc0 b2a5 603e b83d 0abf d429 ebbf
000000f0: 6c7b 333f 4f58 af3e b99a adbe 77f6 903e
00000100: 4a76 c6bf 90d3 823d bed0 973f 6bdd 79be
00000110: 0661 b9bf 5c8f 18bf a363 163f 5780 d5bf
00000120: bb0d 893e da2f 853d d8ac a73e 5cdb 00be
00000130: 1ce2 1d3f 3790 91bd 40ae 343e a660 333f
00000140: fed3 90bf 4068 3abf 8cfe bf3d b2aa 61bf
00000150: add9 26c0 07eb 8d3e c4f8 28bd ab0d 51bf
00000160: 9b93 a23f 3d5e b8be 7f60 d9be 9a18 ba3e
00000170: 8262 3cbf 57ea cd3f df95 b2bf fa6d b23f
00000180: ef85 0740 fd59 343f 5852 e5be 9b0b a53f
00000190: 2148 e63f dcaa b23f 4b68 2ebe 9e52 9ebe
000001a0: 8d44 91bf 9118 4fbf 4a5c 8bbc aa7c 1e3f
000001b0: 4762 433f 5aba 01bf 799b ccbe 2762 b53f
000001c0: c5b9 16c0 a366 bc3f 7184 5fbf 9456 fabe
000001d0: 6b46 5b3f ac55 00c0 b6a5 f33e 5920 c33f
000001e0: 9633 b13f 9d70 b33d b745 3dbf f889 f7bd
000001f0: b0dd 8e3e 173b 353f c55a 933e 5962 3cbf
00000200: ac58 7c3f 4866 e63f fe5a 89be f3fb e13e
00000210: d554 9cbf d801 62be eb93 0c40 1c9a a03f
00000220: 842c 193f a58c ce3e c4c6 57bf adb3 e6be
00000230: 95dd 873e b1e4 1cbe 8814 ad3e 2d50 773d
00000240: 9150 23bf d9b4 e6be 0746 85bf 8ac2 33be
00000250: b74b 863d 729f f1be ff09 b03f 49d9 a43f
00000260: d661 20be d496 b5be f65d c0be 93e3 4ec0
00000270: a4cc a5be 596b 2abf 64c5 413f 7995 c1bf
00000280: fe6a 3840 b98e 823f bebd 553f 3fda 42bf
00000290: dd24 28bf a44c 6fbf 3133 cb3e e331 bc3f
000002a0: b1b4 083f 84f1 5a3f fc07 393e 8b5d 893f
000002b0: 5c76 223e ea8e 563f aca0 353f 41f5 533f
000002c0: be4f dcbe b625 32be 4e37 47be f999 ce3f
000002d0: cb1e b23e b8b1 abbe 16ae 37bf e995 003f
000002e0: 1dd5 c23f ed61 60bf 4797 c73e 5d89 8f3e
000002f0: 7831 123e c59f bfbf d204 38bf 82d0 11bf
00000300: 4d44 8dbf 6921 a73f 1569 e9bf b11d ec3e
00000310: 8989 013f b9a6 c5bf fc7d a1be b2e6 b9bf
00000320: 7f44 c93e 4846 4abe aad1 38bf b751 13bf
00000330: 0d5e 1d3f 7859 85bf 95ff 1ebd 10db e73c
00000340: f6ea c63f 1a91 8cbf 3445 863d a0e8 b7bf
00000350: 8f37 bc3f 6f9a 193e 1bea f23e b890 a73f
00000360: 6f5f 5cbf cbff e6be ff35 85bf 45c7 37bf
00000370: 6ea6 b93e 75f8 18bf
0.59701604 0.7302746 1.079257 -0.6885006 1.806507 0.37540784 1.4595448 2.6536646
-0.009557115 -0.47868803 1.2464596 0.04215238 1.3009286 1.0644038 -0.40083808 0.334031
-0.71021545 1.4164406 -0.63981676 -1.7198492 1.039849 -0.61959296 2.226124 1.1244196
0.13644452 0.2005561 1.2738702 -0.06049673 -0.66447383 -1.1567585 0.5484643 -1.7086234
0.48912922 0.4437741 0.2924283 0.3435165 -1.2923633 -1.5401744 0.8572955 0.03022271
-1.2206445 -1.8748937 -0.68656814 1.214124 -1.8384044 -0.8879083 1.9780968 0.27235416
1.0408494 -0.18475632 1.4161927 0.69724673 -0.89231545 -2.8063745 0.58914983 -0.23229279
-2.922261 0.21938208 -0.54000425 -1.837214 0.701102 0.34247062 -0.33907107 0.28313038
-1.5504849 0.063880086 1.1860578 -0.2440087 -1.4482734 -0.5959375 0.58745784 -1.6679791
0.26768288 0.065032676 0.32749057 -0.12583679 0.6167314 -0.07107585 0.17644596 0.7006935
-1.1314695 -0.7281532 0.09374723 -0.88151085 -2.6070359 0.27718374 -0.041252866 -0.8166148
1.2701296 -0.36009398 -0.42456433 0.36346895 -0.7358781 1.608714 -1.3951987 1.3939812
2.1175497 0.7044981 -0.44789386 1.2894167 1.7990762 1.3958392 -0.17031972 -0.30922407
-1.1349045 -0.8089686 -0.01701178 0.6190897 0.76321834 -0.50674975 -0.39962366 1.4170579
-2.3550885 1.4718822 -0.87311465 -0.4889418 0.85654324 -2.005229 0.47587365 1.5244247
1.3843868 0.08761714 -0.739345 -0.12086862 0.2790351 0.7079329 0.2878019 -0.73587567
0.985728 1.7999964 -0.26827234 0.44137534 -1.2213389 -0.22071016 2.1965282 1.254703
0.5983355 0.40341678 -0.8428767 -0.45058957 0.2653624 -0.15321614 0.33804727 0.060379196
-0.6379481 -0.4505985 -1.0411996 -0.1755468 0.0655741 -0.4719196 1.375305 1.287881
-0.15662321 -0.35466635 -0.37571687 -3.23264 -0.3238269 -0.6657005 0.7569182 -1.512374
2.8815303 1.0199805 0.8349265 -0.7611427 -0.6568125 -0.9347632 0.39687493 1.4702724
0.53400713 0.85524774 0.18069452 1.0731672 0.15865463 0.8381182 0.7094829 0.827961
-0.43029588 -0.17397198 -0.19454691 1.6140739 0.34789118 -0.33534026 -0.7175001 0.50228745
1.5221287 -0.8764942 0.38982603 0.28034487 0.14276683 -1.4970633 -0.71882355 -0.5695878
-1.1036469 1.3057071 -1.8235193 0.46116403 0.50600487 -1.5441505 -0.3154143 -1.4523528
0.3931007 -0.19753373 -0.7219492 -0.5754656 0.61471635 -1.0417929 -0.03881796 0.0283027
1.5540454 -1.0981781 0.06556168 -1.4367867 1.4704455 0.15000318 0.47444233 1.309104
-0.8608312 -0.4511703 -1.0407103 -0.71788436 0.36259788 -0.59754115

1 f4 [5, 74]
00000000: 7dec 823f 78a0 b9be 2f37 9dbe 5000 3a3f
00000010: 8744 bfbe b837 5bbe 53cf 483f 986a 96bf
00000020: 6918 6fbf 0a63 92be 8435 b83e a305 d83e
00000030: 13a6 a03f c8fc 67bd 29ad 3ebf 8629 da3e
00000040: 5360 37bf fa85 15bf 074d 713f eb29 1abf
00000050: ec99 d43c 2cac f5bf 246d 853f c2f5 d7bf
00000060: 98bf a83f fb8d 8fbd 22ae 54bf 3cb6 7f3f
00000070: 179f 0640 669e 5fbf dff1 6fbd f652 fdbd
00000080: 4c33 c5be b039 fe3f 7ce0 01bf 6f44 dc3e
00000090: 4c39 3340 60d1 ac3f f944 103f 115d 2e3f
000000a0: 6af5 c5bf d5ec 563f 272f 73bd 417b 233f
000000b0: 624c ce3d 7793 373e ba0d 44be 2ac1 873f
000000c0: 1e2c 633f 7f1e aebe f57e 363f 3fd1 0dbf
000000d0: 2c4c e03d 5ba6 9bbe bd61 bfbe 6212 0d40
000000e0: def1 0ec0 b6cf 4c3d 1e9a 42bf 9f97 60bf
000000f0: fa1d 3abf 7cf4 a03f bcfb 54be 8740 a8bd
00000100: f9b8 9fbe 0b47 0b40 5c5e 9b3e 1505 6f3f
00000110: 031d 92bd 8264 18bf 631f b6bf 7853 e83f
00000120: 92b2 133f 4509 7bbe 4e91 853f 7f09 f9bd
00000130: 983c 96bf d302 d5be 21a4 c4bf 6c29 acbf
00000140: 50ac 443f 69c4 7b3f b703 48be ed9f 9f3f
00000150: e739 2bbf 85c1 c6bf 61ea cd3f 09c0 06bf
00000160: 115b 093f ecb6 09bf d376 423f c9f8 f73d
00000170: b335 cfbf bc3b 05c0 1c3c 153f 8693 26bf
00000180: 5ed7 be3f fbd1 1c3f e58a b1bd e1be 443e
00000190: 0ae7 d23f 8843 2a3f fcdf 5bbf a2ed eebe
000001a0: 424c d8be 1821 343f 457e 13bf 64af 9f3e
000001b0: d6b2 debd ec27 d83e 2a62 ec3f 6988 0cc0
000001c0: 9b7f 23bf 2726 7a3f fd58 ef3f 5b95 d7bf
000001d0: 5ae3 c53f bba1 0bbf 35a9 5abf 6e7f 953f
000001e0: 1d8f 9f3e 7ecc cb3f 7b9f 24bd 1fd9 293f
000001f0: 652c 2cbe 87fa 173f 4580 923f dcef dbbe
00000200: 5a5c d03e 1fcb 2dbd ff86 d03e 621d df3f
00000210: a2e4 503d 256f b1be 2bcb 0ac0 d093 93bf
00000220: 9a05 d6bf feee 8bbf 6848 a3be caa4 67bf
00000230: 496c 8ebf bd12 bcbe 836b 943f ccb5 6c3e
00000240: 5bb1 ba3e 9693 cdbe 5e22 fe3f a003 753e
00000250: acea ad3e 26b5 84be b20e 3d3f 1d61 4cbb
00000260: f71d a83e 54a2 92bf 4eb7 553e 8ce0 4e3e
00000270: 8441 043f cd6f f23e 5f4a 363f 2830 5abe
00000280: 29bf 3e3f 68f2 c13d 79f4 2bbf 6754 6cbf
00000290: ddf9 dabd 7398 99bf 7337 a8ba 52b5 ba3d
000002a0: a0cd 2f40 e0cc 673f e9e4 af3e cc75 ccbf
000002b0: a677 b63c 98ff 99be 76f0 163f 6163 c43f
000002c0: 6d7c fa3f 5b10 273f cf61 77bf 39cb 78bf
000002d0: 28a2 09bf ee57 fbbf 9243 e1be 2103 86bc
000002e0: 17c2 063e 25c6 3dbe 39b1 2ebf c5bc 17c0
000002f0: 0d53 82be 599e 74bf 9950 b93f 277c 9bbf
00000300: 26e8 063f bb36 473f 7df0 343f 3de8 9ebf
00000310: 045b 273f 0e81 fd3e e14e f83e d042 aebf
00000320: 5c94 32bc 4c97 3bbf a05d 1bbd 9240 863e
00000330: 4e67 90bf 6b65 16bf 0cd7 f1bf 5c81 7bbe
00000340: a0ad bd3e 030c 80bf deeb f33f dc79 d23f
00000350: cee0 d8be 45e9 cc3e 3dde 123f a614 8e3f
00000360: 3b59 a33f 4513 5f3e 1521 96bf 239c 973e
00000370: 86c2 213f f605 033e 9c9b f53e 25b4 243f
00000380: 0d88 3140 b2cf 6cbf cc71 3dbf 1b8c 843f
00000390: 0280 a93f e5ac b93f aa4d ea3f 93d1 50bf
000003a0: 06da 35be 5192 feba a2d9 963e c75a 06c0
000003b0: 82ae 72bd c401 893f 5c62 56bf d2cf 9cbd
000003c0: cdf8 c93f 69ad cebc 3a6f 65bf a794 f23c
000003d0: fc92 5cbf fb83 1cbf 5613 3c3e bc8d ccbf
000003e0: 4389 a8bf a08f 1a3f aa90 26bf 2205 06bf
000003f0: d2ff 893e af19 b6be 8c83 603f 2029 12bf
1.022842 -0.3625524 -0.30706164 0.72656727 -0.3735697 -0.21407974 0.7844135 -1.175128
-0.9339662 -0.28591186 0.3597833 0.421918 1.2550682 -0.056637555 -0.7448297 0.42609805
-0.71631354 -0.58407557 0.9425816 -0.6022021 0.025952302 -1.9193168 1.0423932 -1.6871874
1.318347 -0.070095025 -0.83078206 0.9988744 2.10346 -0.8735107 -0.058580276 -0.12369339
-0.385157 1.9861355 -0.5073316 0.4302096 2.8003721 1.3501396 0.56355244 0.6811076
-1.546552 0.83955127 -0.05937114 0.63859946 0.100731626 0.17927347 -0.19145861 1.0605824
0.8873919 -0.34007642 0.7128747 -0.5539741 0.10952029 -0.30400357 -0.37379256 2.204247
-2.2335124 0.050002776 -0.76016414 -0.87731355 -0.7270199 1.2574611 -0.20799154 -0.082154326
-0.3119581 2.176211 0.30345428 0.9336713 -0.0713444 -0.5952836 -1.4228328 1.8150473
0.5769435 -0.24515255 1.0434968 -0.12160014 -1.1737242 -0.41603717 -1.5362588 -1.3450141
0.7682543 0.98346573 -0.19532667 1.247068 -0.66885227 -1.5527807 1.6087152 -0.5263677
0.5365458 -0.5379474 0.7596256 0.12107999 -1.6188263 -2.081771 0.58294845 -0.6506885
1.4909475 0.61257905 -0.0866907 0.1921344 1.6476758 0.66509295 -0.8588865 -0.46665674
-0.4224568 0.70363 -0.57614547 0.311885 -0.10873954 0.42217958 1.8467457 -2.1958258
-0.63866585 0.97714466 1.8699032 -1.6842455 1.5460007 -0.54543656 -0.8541444 1.1679513
0.31163874 1.5921781 -0.040191155 0.66346925 -0.1681381 0.5936665 1.1445395 -0.42956436
0.4069546 -0.04243004 0.40727994 1.7430842 0.05099929 -0.3465511 -2.1686504 -1.1529484
-1.672046 -1.093231 -0.3189118 -0.90485823 -1.1126796 -0.36733046 1.159531 0.23116225
0.36463436 -0.40151662 1.9854238 0.23927164 0.33968103 -0.25919455 0.7385055 -0.0031185814
0.3283536 -1.1455789 0.20870706 0.20202845 0.5166247 0.47350922 0.7120723 -0.21307433
0.7451044 0.094700634 -0.6716991 -0.9231629 -0.10692189 -1.1999649 -0.0012833908 0.09116615
2.7469254 0.9054699 0.34354332 -1.5973449 0.02227385 -0.30077815 0.58960664 1.5342828
1.9569222 0.6525933 -0.9663362 -0.97185093 -0.53763056 -1.9636209 -0.43996865 -0.016358914
0.13159977 -0.18532617 -0.6823917 -2.3708966 -0.25453988 -0.9555412 1.4477721 -1.2147263
0.5269798 0.7781789 0.70679456 -1.2414623 0.65373254 0.49512523 0.4849768 -1.361414
-0.010899629 -0.73277736 -0.037931085 0.26221138 -1.1281526 -0.587485 -1.8893752 -0.24561065
0.37046528 -1.0003666 1.9056356 1.6443439 -0.42359012 0.4002172 0.5737036 1.1100051
1.2761606 0.21784694 -1.1728846 0.2961131 0.63187444 0.12795243 0.47970283 0.6433738
2.7739289 -0.9250442 -0.74001765 1.0355257 1.324219 1.4505888 1.8304951 -0.81569785
-0.1775895 -0.0019422268 0.29462916 -2.0992906 -0.059248455 1.0703664 -0.83743834 -0.07656826
1.5779053 -0.025229173 -0.89622843 0.029611899 -0.8616178 -0.61138886 0.18366751 -1.5980754
-1.3166889 0.60375404 -0.6506449 -0.5235158 0.26952988 -0.3556647 0.87700725 -0.57094

2 f4 [3, 74]
00000000: f1a2 1a3b 5de4 923f c9df f1bd b471 96bf
00000010: 004f 883c 852f 7fbf ed56 e73e 9ac9 993f
00000020: 5da2 ebbf 7fcd 98bf 10b5 e63f bce7 0bc0
00000030: 2ac0 b4bf 3986 dbbf bafd 36be 1250 193f
00000040: 235c 4bbf af4c 7cbd 488f 80be 8b28 94be
00000050: ab0b aa3f 2bf4 d63f ba60 82bf 21d9 0d3f
00000060: e6cc 27bf a27c bfbe 505e 0c3f dd20 773f
00000070: 67d3 103f 11ac 863e 552e 833f 7510 c0be
00000080: 32b2 2b3e f60c 58c0 f6a1 0ac0 ab9f c4be
00000090: e3c9 b63f e40d 203f 620d 9f3e 4e9f ea3f
000000a0: eef7 013f a9da 8e3e 646f 0abe 983c 8fbf
000000b0: bb6f b5be 28fb 3e3d 1a78 d03e fc97 5e3f
000000c0: 260a b7bf a8c1 9bbe 4bdd 8a3f 7a07 b03e
000000d0: 583d 82be a032 a4bf ed76 c3bf e2bc 5dbe
000000e0: 917c 8f3f faae 9f3f b118 c3be ea90 7f3f
000000f0: ced1 d43f e5c3 93be 49c7 c93f a4ef 77bf
00000100: 69bb 73bf d374 143d de04 ffbd 5346 35be
00000110: 2b8a 2c3f 8d89 4ebe 2f74 db3e 31fc f43c
00000120: 269c dd3f 2bac 72bf 6cee 233f e6c2 08bf
00000130: 1f23 83be fb53 273f 70a9 56bf b38c 02bf
00000140: 929f 88be 6451 f03f c95e ccbf 8fce a23f
00000150: 3590 f4bd e0bd 6abf 4cb3 b4bf 1e6f 0cc0
00000160: 31de 163f 074b 13bf e721 d03e 1e11 853e
00000170: ffec 86bd c704 0f3d 7f04 653f 25f2 6bbf
00000180: 1a50 803e fbef fbbd f62b 873f 5808 6fbf
00000190: 4aea 163f 906c a0bd c362 94be 39ca 8abe
000001a0: 0f57 2f3d a106 cbbf 8ee3 11bf 7e43 63bf
000001b0: dd57 2340 1fae 25bf fa92 5bbf db38 4a3f
000001c0: df80 c23d 0365 81be 6c77 25bf 4370 6bbf
000001d0: 59cd 56bf ce7c 6b3f cc80 263c 667d 5b3f
000001e0: 95b3 96bf 6670 8e3d 01d0 c0bf e475 64bf
000001f0: 44d4 e83d 1d1d 5a3e 1efd 9c3e ffbc 41bf
00000200: 28ed e0be d339 f6be 9c8e 813f 47a4 aabe
00000210: e5d2 563e da3e ed3d 3146 40bf 4d11 09be
00000220: 6128 cebf 41b4 12be 067f d9bf 957e eebf
00000230: 3424 aabe ef95 32bc 5ebb 7dbd e09b c03f
00000240: f750 883c 7d15 5f3d 84ca 91bf 87f7 5d3e
00000250: 483d 80bf 2503 59bf 4a58 00bf aabd 8abf
00000260: 8430 e7be 3a33 1b3f 555d 12bf 91dc cd3e
00000270: 0ea9 f43e ed6f 37bf a31b 01bf 50bd 98be
00000280: aec9 bbbe 8ce6 0cbf 22e0 3340 a0ff 0ac0
00000290: cc01 86bf 7ae6 bbbf 299c 4a3f 9016 6f3e
000002a0: 922d a5bf 2ddb fa3b 97f4 e1bf 4fdf 59bf
000002b0: 03dc 90bf c091 943f 6fe8 37bf 3fb5 be3f
000002c0: 9b55 abbd 2891 283f f9ce f43f 11a8 753f
000002d0: 6d0f 41bf f1e2 43be 223c b83f 3ad4 8b3e
000002e0: bff6 bb3f 8efb ac3d 8b1c 8fbe 33bb 853f
000002f0: 3cba 9d3e bcf6 973f 660f 70bf a007 8dbf
00000300: c99f ce3e a01a c1be 26a5 e3bd dcde b03e
00000310: 1fce 233e 8c76 83be 5f7f 3cbf 17f9 62be
00000320: 4204 8b3f 6580 9d3f ec1a e8bd 0058 c2bf
00000330: 2563 93bf 3314 32bf 6898 de3f 082e acbf
00000340: 67cc 4240 3cd8 f33d d085 263f 004d 233f
00000350: 1397 02bf d9d4 c53f 3851 f9be cf0f 663f
00000360: 2504 d0bf 2ded 45bf ac3a 36c0 995f fe3f
00000370: 8848 27bf 143f 103f
0.0023595656 1.1475941 -0.11810262 -1.175345 0.016639233 -0.99681884 0.45183507 1.2014649
-1.8408924 -1.1937712 1.8024006 -2.186019 -1.4121144 -1.7150337 -0.17870227 0.598878
-0.79437464 -0.06159657 -0.25109315 -0.28937182 1.3284811 1.6793264 -1.0185769 0.5540944
-0.65547025 -0.37399775 0.5483141 0.9653452 0.56572574 0.2630315 1.0248514 -0.37512556
0.16767195 -3.375791 -2.1661353 -0.38403067 1.4280361 0.62521195 0.31064898 1.8329866
0.50768936 0.279012 -0.13519055 -1.1190367 -0.35436806 0.04662624 0.4071663 0.8695066
-1.4299972 -0.30421185 1.0848783 0.34380704 -0.25437427 -1.282795 -1.5270668 -0.21654084
1.120989 1.2475274 -0.38104776 0.99830496 1.6626527 -0.28860393 1.5763942 -0.9685004
-0.9520784 0.036244225 -0.124521 -0.17702608 0.6739833 -0.20169659 0.4286208 0.02990541
1.7313278 -0.9479396 0.6403568 -0.5342239 -0.25612733 0.6536252 -0.8385229 -0.5099594
-0.26684242 1.8774838 -1.5966426 1.2719287 -0.11941568 -0.91695976 -1.4117217 -2.194282
0.5893279 -0.5753636 0.40650865 0.25989622 -0.06588172 0.034916665 0.89459985 -0.9216636
0.25061113 -0.12301632 1.0560291 -0.93372107 0.58951247 -0.07833207 -0.289816 -0.2710741
0.042807635 -1.5861398 -0.56987846 -0.8877486 2.5522377 -0.6471881 -0.85771143 0.78993005
0.094972365 -0.25272378 -0.6463535 -0.9196817 -0.83907086 0.9198731 0.0101625435 0.8573822
-1.1773554 0.06955032 -1.5063478 -0.89242387 0.113686115 0.21300168 0.30661863 -0.7567901
-0.43930936 -0.4809099 1.0121646 -0.3332846 0.20978887 0.115842536 -0.75107104 -0.13385506
-1.6106073 -0.14326574 -1.699189 -1.863238 -0.33230746 -0.010900005 -0.061946265 1.5047569
0.01664017 0.054463852 -1.1389928 0.21676455 -1.0018702 -0.84770423 -0.5013472 -1.0839131
-0.45154202 0.6062504 -0.57173663 0.4020734 0.47785228 -0.7165516 -0.50432795 -0.29831934
-0.36677307 -0.55039287 2.810555 -2.171852 -1.0469298 -1.4679711 0.7914453 0.2334845
-1.2904532 0.0076555223 -1.7652768 -0.85106367 -1.1317142 1.1606979 -0.7183904 1.4899062
-0.08365937 0.6584649 1.9125663 0.95959574 -0.7541416 -0.1912954 1.4393351 0.27310354
1.4684676 0.08446418 -0.27951464 1.0447754 0.30806148 1.1872172 -0.93773496 -1.1017952
0.4035628 -0.37715626 -0.11115484 0.34545028 0.15996598 -0.25676382 -0.7363185 -0.22165333
1.0860674 1.2304808 -0.1133326 -1.5183105 -1.1514632 -0.6956207 1.7390261 -1.3451548
3.0437257 0.11906478 0.6504793 0.6378937 -0.5101177 1.5455581 -0.48694777 0.8986787
-1.6251265 -0.77315027 -2.847331 1.9872924 -0.6534505 0.5634625

3 f4 [5, 74]
00000000: b6e1 b2be 4be3 1a3f 309d 033d 5783 483f
00000010: ff56 bb3f 027e af3f f56f 7e3f b046 4dbf
00000020: 3659 b73f 97ec 983c 7628 eb3f b0a1 7e3f
00000030: 536f ee3e 07f7 fc3e 7c33 e6be 87ba 493e
00000040: ca80 2f3f 097a 713f 29cb 82be 6fe7 7ebf
00000050: 1b9e 813f 52c1 0f3f 7d19 ed3f 172a 9dbf
00000060: 42e8 913f edde 47bc d570 1d40 84fc a2be
00000070: eca4 ee3e d323 883f a375 04bf 381f a3bf
00000080: 42d6 a43d ab59 183f 7569 9cbf 7c01 513f
00000090: 9836 cdbd db88 0240 1001 9b3e ad70 8c3e
000000a0: 02c5 753e 18db 983e b23d d0bf 123d 973e
000000b0: 57b8 373f fcc5 b3be 90c7 19bf 74cf 5abe
000000c0: afcb a43e 2101 9fbf c9fd 92be af4b ce3f
000000d0: f7db b13e 32ad 9dbf 6ae9 26bf a6f7 b73e
000000e0: dc18 253f fa31 d1bf b1a0 7dbd c117 1f3f
000000f0: 5ad6 713f 331c 3bbf d8ff f53e da40 0c40
00000100: f233 223f fb11 c43e 5417 91bf e5ef 6dbf
00000110: 4f76 223f 7aae af3c 729d 213f 5870 b3be
00000120: 5571 0b3f 8b08 00be 7732 d23e a9f2 0f3f
00000130: 59ef 40be 338d debe e044 2d3f e7ce 32bf
00000140: c98d a83d cf7d 13bf 86f6 d8bd 3421 57bf
00000150: 0d98 153f fcf0 93bf c971 6c3f b000 dfbe
00000160: 9f68 7cbf f94a 553f c30e 2ebe 63f7 263f
00000170: 4dfd 16bd f056 b4be 4143 943e 69a5 afbe
00000180: 3a7c 72bf 4ec9 ae3f 0d45 643e 9591 89bf
00000190: e67d 31bf 7555 f4bf b395 b5bf 7b34 75bf
000001a0: dcb0 86bd f6d3 dcbd 9a52 d83e 9e5b 80bf
000001b0: ae5d ec3f c344 303f 805d ed3e d681 02c0
000001c0: 66d4 a5bf 8a44 dfbd fe8c ac3d 851c 18c0
000001d0: 2f57 143f 0e89 21bf 0453 093f 9629 2fbe
000001e0: 2db6 4dbf 19b4 f7be ad99 913f 3d22 44bf
000001f0: 5fde e03f 1be6 62bf 19cd 2dbf 870d 933f
00000200: 1130 c1bf 0823 b73e 6ea4 76be e9d0 c83e
00000210: c8ad d63f f35c 523f 1cc6 cf3f bcb6 d7bd
00000220: 3fc4 8cbf b392 033f 40bb a53e 4fa4 03be
00000230: e73f dc3f 1baf 02bf 7c53 a73f a17a 87bf
00000240: 539d 78bf 929b 26be 1e20 e0bf 9e87 e7bd
00000250: 5f0a 973e 07c7 6d3e 1671 d9bd 8126 01c0
00000260: 525d e23e 8fcc ae3d 6237 ba3f f953 bebd
00000270: 4804 39c0 cf97 88bf 9356 c73f 312e aabf
00000280: 4d22 1bc0 854d d43f ef7e c2bf 8784 91bd
00000290: 4b59 ae3f e60a 0940 4b3e 603f 9472 d43f
000002a0: 4720 08bf 4817 4abc eb3a 273f 3ab2 24bf
000002b0: ae6d 153f 9727 b8bc 8f87 b23e 4ddc 2d3f
000002c0: 9d67 133e c6d4 81bf 601a 50bf b3a7 943b
000002d0: b315 6abf 764a b73f 56e1 9f3e 76fd 453f
000002e0: 9171 96bf e1c4 153f 4ea8 06c0 33b4 bf3e
000002f0: e91a c9be 1639 8b3f 0585 14c0 6c72 89bf
00000300: da71 9fbf 96e9 ccbf 7ab7 f6be edad 243f
00000310: 98d6 bbbe 0c33 9cbf 5a36 0cbf 5bf1 933e
00000320: e610 993f e972 743f dcc2 fd3e ea35 3abe
00000330: 0d7f 0140 eb9d 0dbf 87df 9d3e d55f a93f
00000340: 6032 283e 87fc 30bf 22ab 4bbf d779 42bf
00000350: 69ae 9fbf fe59 f0bf 2f3b 9e3f 56d7 853f
00000360: cc1c ac3e ffd6 d53d 690d 89be 9a09 74bf
00000370: 5390 91bf 386b 7fbf 8a9e 0440 e52a 1abe
00000380: dd35 a3be c546 93bf 1fc9 ff3f fe9c 0dbf
00000390: a0dd 5e3f 5f99 843e edf2 52bf 7bcf 063f
000003a0: c45c df3e cf9d 4fbe a26c 5c3d 83b6 54be
000003b0: 357a 75be a42f 563e 47bb c73f f8c9 64be
000003c0: 664f 4a3f 7a86 30bd cf9f cc3e aa62 a33f
000003d0: dab0 60bf 2378 adbf c2b0 c9be abc5 1a3e
000003e0: 3352 5f3f 3d45 d43f 3f6b 243f 3c17 4abe
000003f0: 7022 7fbf ad88 08bf 4dc8 31be 1cfb d73f
-0.3493783 0.6050307 0.032132328 0.7832541 1.4635924 1.371033 0.9938958 -0.80185986
1.43241 0.018667502 1.8371723 0.99465466 0.4656931 0.49407217 -0.44961154 0.19700061
0.6855589 0.94326836 -0.25545624 -0.9957189 1.0126375 0.5615436 1.8523403 -1.227847
1.1399004 -0.012199146 2.4600117 -0.3183328 0.466102 1.0635933 -0.51742 -1.2743902
0.08048679 0.5951182 -1.2219683 0.8164289 -0.100201786 2.039603 0.30274248 0.27429715
0.24000934 0.29854655 -1.6268828 0.2953878 0.71765655 -0.35111988 -0.60070133 -0.213682
0.32186648 -1.242222 -0.28709248 1.6116847 0.34738132 -1.231848 -0.6519991 0.35931128
0.6449106 -1.6343377 -0.061920825 0.6214562 0.944677 -0.73089904 0.48046756 2.1914582
0.6336051 0.38294968 -1.1335244 -0.92944175 0.63461775 0.021445502 0.6313087 -0.3504665
0.54469806 -0.12503259 0.41054127 0.56229645 -0.18841304 -0.434671 0.6768322 -0.6984696
0.08230168 -0.57613844 -0.105938956 -0.8403504 0.58435136 -1.1557918 0.9236112 -0.43555212
-0.9859714 0.83317524 -0.16997819 0.6522123 -0.03686266 -0.35222578 0.2895756 -0.34305885
-0.94720805 1.3655183 0.22291966 -1.0747553 -0.6933273 -1.908858 -1.418631 -0.95783204
-0.06576702 -0.10782616 0.4225052 -1.0027959 1.8466089 0.6885492 0.46360397 -2.0391746
-1.2955444 -0.10901745 0.084253296 -2.3767407 0.5794553 -0.63099754 0.53642297 -0.17105708
-0.80356103 -0.4837959 1.1375023 -0.76614743 1.7567862 -0.88632363 -0.6789108 1.1488503
-1.5092794 0.35768914 -0.24086162 0.39221886 1.6771784 0.8217308 1.6232333 -0.10532901
-1.099739 0.5139572 0.32369423 -0.12855648 1.7207001 -0.5104844 1.3072352 -1.0584298
-0.9711506 -0.16270283 -1.7509801 -0.11305164 0.295001 0.23220454 -0.106172726 -2.017975
0.44211823 0.0853511 1.4548151 -0.0929336 -2.8908863 -1.0671328 1.5573295 -1.3295346
-2.4239686 1.6586157 -1.5194987 -0.07105356 1.3621 2.1412902 0.8759505 1.6597466
-0.5317425 -0.012334652 0.65324277 -0.6433445 0.5837048 -0.022479815 0.34869048 0.6791428
0.14394994 -1.0143058 -0.81290245 0.004536593 -0.9143936 1.4319599 0.31226605 0.77339876
-1.1753408 0.5850354 -2.1040225 0.3744217 -0.39278343 1.0876796 -2.3206189 -1.0738044
-1.245662 -1.6008785 -0.48186857 0.6432789 -0.3668716 -1.2203078 -0.54770434 0.28895077
1.1958282 0.9548784 0.49562728 -0.18184629 2.0233796 -0.5531909 0.308346 1.3232371
0.16425467 -0.69135326 -0.79558 -0.7596716 -1.2475101 -1.8777463 1.2361811 1.045634
0.3361572 0.10441398 -0.26768044 -0.9532715 -1.1372169 -0.9977298 2.0721765 -0.15055425
-0.31877032 -1.1505972 1.9983252 -0.55317676 0.8705692 0.25898263 -0.82401925 0.5266034
0.43625462 -0.20275043 0.053814538 -0.20772748 -0.239724 0.20916611 1.5604028 -0.2234267
0.790274 -0.043096997 0.39965674 1.2764485 -0.87769854 -1.3552288 -0.39392668 0.15114467
0.872348 1.658363 0.64226145 -0.19735426 -0.9966192 -0.5333355 -0.17361565 1.6873507

4 f4 [3, 74]
00000000: dac2 d1be bfae 16c0 5eb4 3c3f cd8e b4bf
00000010: d0ec 53bf 265b 1340 74ae febe 22f0 cbbd
00000020: 034c 8fbf c610 0f3f 5e0e 0fc0 8f63 063e
00000030: 2060 bc3e 2731 e23f 860e aebf 0dc2 fc3c
00000040: 6745 40be 0441 1c40 b023 24be 687d 9d3d
00000050: 5bd1 8a3e d5d8 74bc 2731 08bf 3d49 9f3d
00000060: 7d25 02c0 154a 9bbf 6844 e23e d0a7 813e
00000070: 5d76 9fbf 6445 f53f 966a bfbf 964c 713d
00000080: 534e ad3d 0431 74bf cb83 963e 2d9b 9b3e
00000090: 7ed7 66be 6498 f13f 1c8f f1bf cdde 8abf
000000a0: b632 31bf 16a3 9c3f 86e4 1dc0 049a f53e
000000b0: 27ed 3dbf 42fd 253f 134a 603f 07c7 743d
000000c0: d1bb 753f 9a54 2cbf 8acc f93d d873 bcbf
000000d0: 3c6e 9b3f de49 14bf 054e 9dbf 8af5 81bf
000000e0: 37a8 3bbf 6f9a 18bf 38a9 b73e 1520 87bf
000000f0: 610c 3f3f 539e 2cbf a1cd 1640 df0d 78bf
00000100: a2b9 36bf cea1 36bf a4f6 1bc0 6e1b abbe
00000110: 6602 02bf 9b0e 023f a206 81bf 3b6b b23f
00000120: bb1f 5d3f bf8e d73f f5b3 83be c406 cd3e
00000130: ef17 b23f 831b a9bf a5d0 a93f 490e 45bf
00000140: 0f92 06bf c313 af3f 9b07 693f 17d6 aebf
00000150: bd6a 57bf 88a2 1f3f a7f5 f1be 0d4f c7be
00000160: 75df 9bbf 19f0 4cbf a30b 89bf cd9f 38bf
00000170: b587 23bf d130 bfbf f2a0 a63e e2c6 46bf
00000180: 5ae1 733f f51f 853f afea 8cbf 4de4 6fbd
00000190: 34b8 f63f 5cf6 8bbf e5a0 643f b52a aabe
000001a0: 8bd4 02c0 f224 2d3f 5c56 1fbf f325 bbbf
000001b0: ed21 9dbf 8ba8 2bbf a401 76bf d4b8 983f
000001c0: 6335 163e 7cdd d53f 57f5 c73e 3555 0d3f
000001d0: e6d1 17bf c6d9 0f3f c25e c93d 4e42 973f
000001e0: 91ea 813f 5a93 ce3e 63af 2740 3644 013f
000001f0: 8e40 853f 230e 103f 87da 8dbf 1daf 1cbf
00000200: edb5 ee39 6e27 9d3e 3209 233f 365c 7c3f
00000210: e43d 6c3f 2565 9f3e 6759 993f 78b2 b93e
00000220: 3e8b c3bf 07ef 643e 8059 ea3e b6bd 0abd
00000230: 3bd1 abbf f6f8 adbe bfa8 acbf d0e7 0e40
00000240: 0988 a43f 3cc3 f3be 3bd5 6b3f 1b2b 8a3f
00000250: 1fa0 3d3d 96b6 903f 439f a6bf b6b7 aebe
00000260: 3745 a6bf 417b b3be 956f 20bf 9200 063f
00000270: bdf3 a5bf 260c 8a3f a545 f13e b534 71be
00000280: a8b7 dc3f 7ed2 cbbd 01ef 52be a5d5 f4be
00000290: 855e 383f d135 8a3f 97a9 90bf 8e3a 713f
000002a0: 1ee4 2cbe 3aee 96bf 2413 953f fc62 d4be
000002b0: a708 fe3e aa54 80bf cc47 ffbe f97b a7bf
000002c0: 89f3 96bf 3a02 c8bf 91e9 c03e 5a38 b9bf
000002d0: 2358 823c 1d6e 393f cbb6 ad3f 50f7 383e
000002e0: a00d b33c 71d8 da3f 16d5 b6bf f4d2 89bd
000002f0: ba0e 93bf ff19 4c3e 1e5e 64be db79 d33e
00000300: 663f 27c0 187f 903f 61a8 8c3f 05f8 b8be
00000310: 988f 17bf e1cd 1140 06ed d43e 9d69 96bf
00000320: cdf9 babf 149f 06c0 8407 37bf d14a e8bf
00000330: e4e2 08bf b7c7 023f 52ec a23f 75de 1cbf
00000340: 9a23 d13e b07d a1be dc98 ad3e bb00 c3be
00000350: 9401 c2bf f2aa bbbd 72fa 10bf 6632 233c
00000360: f118 17bf 6687 103f 8022 42bf b4b8 df3e
00000370: a2a9 d7be f09d c33e
-0.40968972 -2.3544157 0.7371272 -1.4106079 -0.8278322 2.3024383 -0.49742472 -0.09957911
-1.1195072 0.5588497 -2.235252 0.13123916 0.36792088 1.767125 -1.3598182 0.03085425
-0.18776475 2.4414682 -0.16029239 0.07689935 0.2711285 -0.014944275 -0.532 0.07777641
-2.033538 -1.2131983 0.44192815 0.25323343 -1.2457997 1.9161801 -1.4954402 0.05891093
0.08462205 -0.9538729 0.29397425 0.30391827 -0.22543141 1.8874631 -1.8871799 -1.0849243
-0.69218004 1.223727 -2.467073 0.47969067 -0.7418999 0.64839566 0.8761303 0.05976012
0.9598971 -0.6731659 0.12197216 -1.4722853 1.2143016 -0.5792521 -1.2289435 -1.0153058
-0.7330355 -0.59610647 0.3587129 -1.0556666 0.74628264 -0.67429084 2.3563006 -0.96896166
-0.71377003 -0.71340644 -2.4369287 -0.33419365 -0.5078491 0.50803536 -1.0080149 1.3938974
0.8637654 1.6840438 -0.25723234 0.40044224 1.3913554 -1.3211521 1.3266798 -0.7697492
-0.5256662 1.3677906 0.9102723 -1.3659085 -0.84147245 0.6235738 -0.4725773 -0.38927498
-1.2177569 -0.8005386 -1.0706676 -0.72118837 -0.6387895 -1.4936773 0.32544667 -0.7764722
0.95265734 1.0400378 -1.100912 -0.058567334 1.9274964 -1.0934558 0.89308006 -0.33235708
-2.0442226 0.676345 -0.6224115 -1.4620956 -1.2275978 -0.6705405 -0.96096253 1.1931405
0.14668803 1.6708217 0.39054367 0.5520814 -0.59304655 0.5619167 0.09832527 1.181711
1.0149709 0.40346795 2.6200798 0.50494707 1.0410326 0.5627157 -1.1082314 -0.612047
0.00045530443 0.30694145 0.63685906 0.985782 0.9228194 0.31131855 1.1980408 0.36268973
-1.5276868 0.22356807 0.45771408 -0.03387233 -1.3423227 -0.33979005 -1.3488997 2.2328987
1.2854015 -0.4760989 0.9212224 1.0794405 0.04629528 1.1305721 -1.3017353 -0.34124535
-1.2989873 -0.35054973 -0.6267026 0.5234462 -1.2965008 1.0784957 0.47123447 -0.23555262
1.7243547 -0.099522576 -0.20598985 -0.47819248 0.72019225 1.0797673 -1.1301755 0.9422997
-0.16883895 -1.1791451 1.1646466 -0.4148177 0.49615976 -1.0025837 -0.49859464 -1.3084708
-1.1793071 -1.562568 0.37678197 -1.4470322 0.015911167 0.72433645 1.3571409 0.18063092
0.021857083 1.7097303 -1.4283779 -0.06729689 -1.1488869 0.19931792 -0.22301528 0.41303906
-2.6132445 1.1288786 1.0988885 -0.36126724 -0.5920348 2.2781909 0.41587085 -1.1750981
-1.4607483 -2.1034594 -0.7149584 -1.8147832 -0.5347121 0.5108599 1.2728369 -0.6127694
0.40847474 -0.31541204 0.33905685 -0.38086495 -1.5156732 -0.091634646 -0.5663215 0.009960746
-0.5902243 0.564566 -0.7583389 0.43695605 -0.42121607 0.38206434

5 f4 [5, 74]
00000000: fe82 383f 5e51 cdbf 74b5 d1be c520 7fbf
00000010: 19d3 883f 305d 7c3e 36db 7d3f d900 8a3e
00000020: e7f3 8ebf 785b f33f ebf6 1540 b2ab 0dbf
00000030: 7890 3abf 331b fcbe 1377 4a3f aa1d 093f
00000040: d3e5 493f 7bff 803e 261b 26bf d125 c93f
00000050: c03c 7a3f fcd0 3cc0 d6d2 92bf ead8 463f
00000060: 2d0b 8b3e 956e 9bbf 35dd 263f 2ae3 453f
00000070: d294 3fbe 8885 be3f e52f 96bf 6a10 88bf
00000080: 2712 18be 1585 423f 3393 a6bf 53d2 bf3f
00000090: 5fc7 18bf 44a2 01bf 8a26 643e 0d02 bebf
000000a0: db87 fdbe c56c b03e 95b9 d9be 7a03 1340
000000b0: 5b57 53be 9b0a 2abf 5a7c 0c3f dd60 c83f
000000c0: 505a 0bbf e3f1 e43d 2451 99be 4a9f 98bf
000000d0: 6086 253f e1a9 08bf 2aa3 713f 747c e8bf
000000e0: 4571 aebf efd1 843f 9a2a 8ebf b5f2 86be
000000f0: b8f6 b4be af9d b03d 2d53 01c0 f6ac cbbf
00000100: 0507 06bf 1ae5 8e3f 5503 4dbf 4002 803f
00000110: 6f1b 363e 4bd7 ae3d 6a49 10c0 9776 d83f
00000120: f56c 743f f91e 0540 0e64 f5bf 7a39 b7bf
00000130: 8dba 71bf a971 623e f201 09bc 48ec 80bf
00000140: 4af6 cfbd aed4 9abf 53e1 493e cdd1 613e
00000150: 819c 6fbc 9356 90bf e5e8 2f3e b8e8 673e
00000160: 6a53 6ebf 59ea c53f 7041 1a3f a148 963f
00000170: 3e8d eabe 37b2 1dbf 80a8 84bd 4644 b1be
00000180: f92c a3be efc2 6cbf b2bb b5be d353 3abd
00000190: 690d 69bf 1e94 233f 18a1 b2be 4144 563f
000001a0: 7cf6 0c3f 57d9 453f 5bc2 2f3f 37c5 a8bf
000001b0: 695d ea3d 3fc4 30be b112 933f 0dbc afbe
000001c0: a77d 5dbf a924 843f 5d8a e8bf f3af c13e
000001d0: ac25 393e c6bd 073e f439 0d3f 1e90 abbf
000001e0: 0bb0 ebbf e957 36bd af9f ccbf 4454 843f
000001f0: 562d a3be c912 75be 3f9e 49bf 346e ee3e
00000200: 5732 65bf 179b 2ebf 5bb7 c0bf 9483 e8be
00000210: 021d 8f3e 480a 933f 8f63 983e 0607 263d
00000220: 1f71 a33f f208 b9bf d916 783e eaf3 623f
00000230: d6b1 a53f 2a6d c23f 52c1 ebbf a6c3 0d3f
00000240: 777b 123f 1249 5b3f 237b 51bf b3e7 8d3f
00000250: a100 16bf 7e6c 923f ab01 5f3f 5ba4 b43e
00000260: d3cd 1dbe ec7b 66be 0d69 a3bf 0e55 30be
00000270: 0c88 bb3f 86cd 383f f85e 7e3f 7cfa 943f
00000280: 8fb3 893e dd7c e2be 4560 7e3f a937 173e
00000290: f446 073e 46bb a63f 59d4 843f dda2 28bf
000002a0: 1965 f13d c0c7 98bf 4ae1 0440 81f7 683e
000002b0: 1522 c73f 7b5c 273f a5b1 8ebf ac87 703f
000002c0: 0869 ba3e 8846 97bf b747 d0be f2b9 83bf
000002d0: 9ad9 2ebf ae72 17bf fa8b 5d3e 2a90 90bd
000002e0: 549a 8e3f 2d5a 4c40 f9fb 773f 07de 37bf
000002f0: 782e 6fbe 3fc9 f13e 3a47 0d40 4c12 c1be
00000300: 27d9 aabf baa6 bb3f 5ddf 53bf ae51 edbc
00000310: dd2f 933e 6754 87be 2d3f f3be ac20 3dbe
00000320: 8e64 5e3e 19e0 283f 8382 c83e fd1a c9be
00000330: a209 243e a863 a83d ecae 2c3f 6a07 18be
00000340: 29ff 283f 6aa3 093f 70f7 0ebe 2d92 7bbf
00000350: 6fde ddbf f254 0e40 fafe a6bf 0ff3 aebe
00000360: e294 ff3e 36eb 663f cfd7 913f 166f cbbc
00000370: afc6 30bf 93bd cc3e a15c 1dc0 8ed4 da3d
00000380: 0d2a 443e 2b1f cf3c 9ea4 b6bf f295 3ebe
00000390: 83cc cebe b35b 333f 7b18 44be 7d4c 7dbe
000003a0: 0607 8f3e cedd 90bf c6e0 593f 3a99 87bf
000003b0: de34 3ebe 969b d7be 9b2e e33f ae0e ff3e
000003c0: 4745 173e 69f1 94bf 5e79 c5bf 7af0 943f
000003d0: 3161 25c0 8dd6 4d3e fb20 ac3e b7a2 da3f
000003e0: d08a a03f 7d03 e3be 69b5 823f 073c 9f3f
000003f0: f5c6 823d d3e0 b5bf ab1a 29bf 34d9 8e3f
0.7207488 -1.6040456 -0.4095875 -0.9965938 1.0689422 0.24644923 0.99162614 0.26953772
-1.1168183 1.9012289 2.3431957 -0.5534011 -0.7287669 -0.492395 0.7908794 0.5356089
0.7886631 0.25194916 -0.64885175 1.5714666 0.9774895 -2.9502554 -1.1470592 0.77674735
0.27156964 -1.2143122 0.65181285 0.7729975 -0.18709114 1.48845 -1.1733366 -1.0630009
-0.14850675 0.7598432 -1.3013672 1.4986061 -0.59679216 -0.5063822 0.22280326 -1.4844376
-0.49517712 0.34457985 -0.425244 2.2970872 -0.20638792 -0.6642243 0.54877245 1.565456
-0.5443468 0.11178949 -0.29944718 -1.1923611 0.64658165 -0.53384215 0.94389594 -1.816298
-1.3628317 1.0376567 -1.1106751 -0.26357046 -0.3534448 0.08623826 -2.0207016 -1.5912158
-0.5235446 1.1163666 -0.8008321 1.0000687 0.17783903 0.085371576 -2.2544808 1.6911191
0.95478755 2.0800154 -1.9171159 -1.4314415 -0.9442528 0.2211367 -0.00836228 -1.0072107
-0.10154398 -1.2096155 0.1971486 0.22052689 -0.014624716 -1.127642 0.17178686 0.22647369
-0.9309603 1.5462142 0.602561 1.1740915 -0.45810884 -0.6160006 -0.06477451 -0.346224
-0.3187025 -0.92484945 -0.35494763 -0.045490097 -0.9103609 0.63897884 -0.3488853 0.836979
0.55063605 0.7728476 0.6865594 -1.3185185 0.11443598 -0.17262362 1.1490079 -0.3432316
-0.86519855 1.0323688 -1.8167225 0.3782955 0.18080777 0.13255987 0.55166554 -1.3403356
-1.8413099 -0.04451743 -1.5986232 1.0338216 -0.31870526 -0.23932947 -0.7875709 0.46568453
-0.8952994 -0.682054 -1.5055956 -0.45412886 0.2795182 1.1487513 0.29763457 0.04053404
1.2768897 -1.4455855 0.24227466 0.88653433 1.2944896 1.5189564 -1.8418372 0.5537666
0.5721964 0.8565837 -0.81828517 1.1086334 -0.5859471 1.1439359 0.8711192 0.35281643
-0.15410547 -0.2250821 -1.2766434 -0.17219946 1.4650893 0.72188604 0.9936366 1.1638942
0.26894805 -0.44235888 0.99365646 0.14767326 0.1321066 1.3025901 1.0377303 -0.6587351
0.11786861 -1.1935959 2.0762506 0.22750665 1.5557276 0.6537549 -1.1147963 0.9395702
0.36408257 -1.18184 -0.40679714 -1.0291121 -0.68300784 -0.5915936 0.21635428 -0.07058747
1.1140847 3.193004 0.96868855 -0.7182316 -0.2335757 0.4722385 2.2074723 -0.37709272
-1.334752 1.4660256 -0.827627 -0.028969612 0.28747454 -0.2643158 -0.47509137 -0.18469495
0.21718046 0.65966946 0.39162073 -0.39278403 0.160193 0.08222133 0.6745441 -0.14846578
0.66014344 0.53764975 -0.13961577 -0.9826992 -1.7333506 2.2239347 -1.3046563 -0.34169814
0.49918276 0.90202653 1.1393985 -0.024833243 -0.6905317 0.39988384 -2.4587786 0.10685073
0.19156666 0.025283417 -1.4268987 -0.18611887 -0.40390405 0.70061797 -0.19149964 -0.24736209
0.27935046 -1.131769 0.851086 -1.0593636 -0.18574855 -0.4211089 1.7748598 0.49815887
0.14772521 -1.1636173 -1.5427663 1.1635888 -2.584057 0.20101376 0.33618912 1.7080907
1.2542362 -0.443386 1.0211612 1.2440194 0.06385604 -1.4209236 -0.6605632 1.1160035

6 f4 [3]
00000000: 432c 563e 2c18 873f 4f7d 633f
0.20915322 1.0554252 0.8886308

7 f4 [5]
00000000: a253 c93f 4b13 a7be e06f 763c 1f1b d93e
00000010: cb46 1fbf
1.5728648 -0.32631907 0.0150413215 0.42403504 -0.62217396

weight f4 [2, 2]
00000000: 7c29 8f3e 5359 30bf 3811 32be 7675 60be
0.27961338 -0.688863 -0.17389381 -0.21919808

bias f4 [2]
00000000: 7669 a43d 9cd3 dcbe
0.080279276 -0.43130195
